RLIntro/Reinforce/checkpoints/Reinforce_discrete/Reinforce_policy_1800.pth (torch_old, 70658 bytes, 6 tensors)

fc1.weight f4 [128, 4]
0	0xbe5811ff	-0.21100615
1	0xbec5653b	-0.38553795
2	0xbd660196	-0.056153856
3	0x3c24d894	0.010061402
4	0x3e8cfa1a	0.27534562
5	0x3bda602c	0.0066642966
6	0x3e61d1e8	0.22052729
7	0x3df90198	0.12158507
8	0x3dd5c549	0.1043802
9	0xbb0cef16	-0.002150481
10	0xbe54c4dd	-0.20778222
11	0xbc549d2a	-0.012976924
12	0x3e438be9	0.1909634
13	0xbeb1d242	-0.34730726
14	0xbe6b57b4	-0.22982675
15	0x3e9e0102	0.30860144
16	0xbea7e638	-0.3279283
17	0xbe6178e9	-0.2201878
18	0x3e746813	0.23867826
19	0xbeb0b049	-0.34509495
20	0x3e9e8244	0.3095876
21	0x3ea7d907	0.32782766
22	0xbd5286ff	-0.051398274
23	0xbea7962b	-0.32731757
24	0x3ee97547	0.45597288
25	0x3e466181	0.19373132
26	0xbe581f5c	-0.21105713
27	0xbf0da175	-0.5532449
28	0x3e343c0e	0.17601034
29	0x3ed84ea2	0.42247492
30	0x3f1d208a	0.61377776
31	0x3e120095	0.14258035
32	0x3e52fccb	0.20604245
33	0x3d8c9447	0.06864219
34	0xbeeea487	-0.466099
35	0x3bfbda9e	0.0076859733
36	0xbd9d36cb	-0.076764666
37	0xbdfab7da	-0.12242098
38	0xbeb8fd85	-0.3613092
39	0xbf02dab2	-0.5111495
40	0x3ebbc091	0.36670354
41	0x3dee6cfa	0.116418794
42	0x3e29a1a0	0.16565561
43	0x3f0cd7a4	0.5501654
44	0x3ed712cb	0.42006525
45	0xbe5d9176	-0.2163752
46	0x3ea67392	0.32510048
47	0x3ebc4301	0.3676987
48	0xbed96a76	-0.42464036
49	0xbe7c9ee5	-0.24669988
50	0xbe8af1a4	-0.27137482
51	0x3e5ab8db	0.2135958
52	0xbeda965f	-0.4269285
53	0xbb5d8734	-0.0033802511
54	0x3d2a2800	0.041542053
55	0xbc39f8ae	-0.011350794
56	0xbe72d621	-0.23714496
57	0xbeaa42f1	-0.33254197
58	0x3f1d0584	0.6133654
59	0x3db5953c	0.08866355
60	0x3da214f2	0.07914151
61	0xbebcaa1d	-0.36848536
62	0xbe1ae1ee	-0.15125248
63	0xbe3f834a	-0.18702427
64	0xbed6ac83	-0.4192849
65	0xbf07bf32	-0.53026116
66	0xbeab8a60	-0.3350401
67	0xbeff6a1d	-0.49885646
68	0x3e239e28	0.159783
69	0xbe1d5db4	-0.15367776
70	0x3e83f42a	0.2577222
71	0xbea8a9e2	-0.3294211
72	0xbebc5c20	-0.36789036
73	0xbdd95c37	-0.10613292
74	0xbe3d47ee	-0.1848447
75	0xbefb4e4a	-0.49083167
76	0x3db97773	0.09055986
77	0xbe3d190d	-0.18466587
78	0xbf282c38	-0.6569247
79	0xbe9ce729	-0.3064511
80	0x3d89d336	0.067297384
81	0x3ecfaaa0	0.40559864
82	0xbe9f45c7	-0.31107923
83	0x3d208e95	0.039198477
84	0x3e343976	0.17600045
85	0xbdcf94e0	-0.101358175
86	0xbf128050	-0.5722704
87	0xbefcb4ad	-0.49356595
88	0xbeecee0b	-0.46275362
89	0x3e65150c	0.2237131
90	0xbee6c5b2	-0.45072705
91	0xbf00a4d9	-0.5025154
92	0xbec53b27	-0.38521692
93	0xbe5bef77	-0.21478067
94	0xbf252d7b	-0.6452252
95	0xbeacde40	-0.33763313
96	0xbe19939d	-0.14997716
97	0xbed1bfed	-0.4096674
98	0x3c4010d9	0.011722767
99	0x3dfcb7e8	0.12339765
100	0xbddce182	-0.107852
101	0x3e08269e	0.13295981
102	0x3e884b64	0.26620018
103	0x3d1b6d6b	0.037946146
104	0xbe5d0816	-0.21585116
105	0xbd4a38ec	-0.04937069
106	0xbf082188	-0.53176165
107	0xbef50967	-0.47858736
108	0x3e34675a	0.1761755
109	0xbdd4eebe	-0.10397099
110	0xbecffbbe	-0.40621752
111	0xbee2000a	-0.44140655
112	0xbe8f618f	-0.2800412
113	0x3e870857	0.2637355
114	0xbd81bd0d	-0.06334887
115	0xbefbed22	-0.49204355
116	0xbe804a17	-0.25056526
117	0xbd65156e	-0.05592864
118	0xbd7aaaf9	-0.06119821
119	0xbde17d49	-0.11010224
120	0x3e803901	0.2504349
121	0x3d59aa7b	0.0531411
122	0xbe309c6b	-0.17247169
123	0xbe1e7d14	-0.15477401
124	0x3e6bd60a	0.23030868
125	0x3e9d2377	0.3069112
126	0xbddfda5a	-0.10930319
127	0xbef7663e	-0.48320192
128	0xbe282726	-0.16421184
129	0xbe9c826d	-0.30568257
130	0xbea58315	-0.3232657
131	0x3d01e56d	0.031712938
132	0xbee4c8c5	-0.44684425
133	0x3eaa3b72	0.33248478
134	0xbec05b7d	-0.375698
135	0xbda49434	-0.0803608
136	0x3df022f0	0.11725414
137	0x3e8efd4e	0.2792763
138	0xbf055137	-0.5207705
139	0xbd4792bf	-0.048723932
140	0xbdd52b1b	-0.10408612
141	0x3eb2b3aa	0.34902698
142	0x3e14cedd	0.14532037
143	0xbeb4201d	-0.3518075
144	0x3ec70437	0.38870403
145	0xbeb4377e	-0.35198587
146	0xbed9bd9f	-0.42527482
147	0x3e6dc18f	0.23218368
148	0xbea99d8f	-0.3312802
149	0xbe155759	-0.14584102
150	0x3f295631	0.6614714
151	0x3e918735	0.28423467
152	0x3e6c1ee5	0.2305866
153	0x3ea9bf7e	0.3315391
154	0x3e6bc7f6	0.23025498
155	0x3ecaa514	0.3957907
156	0x3ed4df55	0.4157664
157	0x3daaf831	0.0834812
158	0x3e0b007c	0.13574404
159	0x3e813c86	0.25241488
160	0x3eb5ad3f	0.3548374
161	0x3ec92e2e	0.39293045
162	0x3ed8e592	0.42362648
163	0x3edced35	0.43149725
164	0xbdb0c51b	-0.08631345
165	0x3ee76d5f	0.4520063
166	0x3ee74b2a	0.45174533
167	0x3ed2b8f5	0.41156736
168	0x3e066057	0.13122688
169	0x3e964f4e	0.2935738
170	0xbef34bdb	-0.4751881
171	0xbe6d836b	-0.23194663
172	0xbdf978b8	-0.121812284
173	0xbe24565c	-0.16048568
174	0x3f01c6ae	0.50693786
175	0x3ef81aad	0.48457852
176	0xbe7ba2bd	-0.24573798
177	0xbe8aa740	-0.27080727
178	0x3e5a72be	0.21332833
179	0xbe9ac276	-0.30226487
180	0x3eae5897	0.34051964
181	0x3e850723	0.25982007
182	0xbcd9daf4	-0.026593663
183	0x3ee6667b	0.4500006
184	0xbe1f280a	-0.15542617
185	0x3ec17790	0.3778653
186	0x3f22db5d	0.6361597
187	0x3da540f4	0.080690295
188	0x3ee4c386	0.44680423
189	0xbe923bdc	-0.28561294
190	0x3d9b91bd	0.07596157
191	0x3f098874	0.53723836
192	0x3e891912	0.2677694
193	0xbeefd1be	-0.46839708
194	0xbeba38f1	-0.36371568
195	0x3e1b2313	0.15150099
196	0xbe63d6d0	-0.22249913
197	0x3ef8dbdf	0.48605248
198	0x3e72bf9d	0.23705907
199	0x3eb99962	0.36249834
200	0x3e4b8353	0.19874315
201	0xbe6ebb06	-0.23313531
202	0xbe97f03f	-0.2967548
203	0xbf144be3	-0.57928294
204	0x3ea3bc5d	0.31979647
205	0xbead987d	-0.33905402
206	0xbf04c6e8	-0.51866007
207	0xbe8e1789	-0.2775233
208	0x3eb230b3	0.3480278
209	0xbdb6330d	-0.08896456
210	0x3e027847	0.12741195
211	0x3e234378	0.15943706
212	0x3dd4cada	0.10390253
213	0x3ec9efb0	0.3944068
214	0x3f123fe9	0.5712877
215	0xbd972f8f	-0.07382118
216	0x3f074a90	0.5284815
217	0x3ee9ef11	0.45690206
218	0xbe98fc50	-0.2988
219	0x3ee0aca1	0.43881705
220	0xbeceb02b	-0.4036878
221	0xbe337ddb	-0.17528479
222	0xbeb51238	-0.35365462
223	0xbe3fc892	-0.18728855
224	0xbdfbdfaa	-0.1229852
225	0x3eb167f5	0.34649625
226	0xbec14ee2	-0.37755495
227	0xbe8fe8b0	-0.28107214
228	0xbe431b22	-0.19053319
229	0x3dc84050	0.09777892
230	0x3d0954a4	0.033527985
231	0xbf0cb027	-0.5495629
232	0xbe581903	-0.21103291
233	0xbeeac4d8	-0.45853305
234	0xbeef80a5	-0.46777835
235	0xbed95794	-0.4244963
236	0xbeb0431d	-0.34426203
237	0xbe17de38	-0.14830863
238	0xbe84f13c	-0.25965297
239	0x3f11f511	0.57014567
240	0xbeda3315	-0.42617097
241	0x3e6047c5	0.21902378
242	0x3f1008e7	0.56263584
243	0x3e8195c5	0.25309578
244	0xbefb80e5	-0.49121776
245	0x3eae73c7	0.34072706
246	0xbe1c09ba	-0.15238085
247	0xbe618593	-0.22023611
248	0x3ea931ef	0.3304591
249	0x3e86b64d	0.2631096
250	0x3da8e2f2	0.082464114
251	0xbe7e1079	-0.24810971
252	0x3bb79135	0.005602027
253	0xbed342bf	-0.4126186
254	0xbeb5abe9	-0.3548272
255	0x3e057598	0.1303314

fc1.bias f4 [128]
0	0xbe88f3e2	-0.26748568
1	0xbe081a59	-0.13291301
2	0xbe126295	-0.14295419
3	0xbeb4e875	-0.353336
4	0x3ed52fe0	0.41638088
5	0x3e2ff483	0.17183118
6	0xbe0bf457	-0.13667427
7	0xbe471509	-0.19441618
8	0x3e6da3d8	0.23207033
9	0x3ebb203e	0.36548036
10	0xbec030d7	-0.37537262
11	0x3d9b107e	0.07571505
12	0xbe06d944	-0.13168818
13	0xbe927b85	-0.28609863
14	0x3df29efa	0.118467286
15	0x3ec455de	0.3834676
16	0xbca73cfc	-0.020414822
17	0xbef2cdca	-0.4742263
18	0x3e79d750	0.24398541
19	0x3eb10973	0.34577522
20	0xbe939bb8	-0.2882974
21	0x3ec8eee3	0.39244756
22	0x3ec2273a	0.37920552
23	0x3ea96145	0.33082023
24	0xbe78a15b	-0.24280302
25	0xbe831fe5	-0.2561027
26	0x3ed2d5ce	0.41178745
27	0x3ed61de0	0.41819668
28	0xbc4d0f67	-0.012515879
29	0xbe9ea910	-0.3098836
30	0x3e19bc5c	0.1501326
31	0x3c4480b6	0.011993578
32	0xbe5c1970	-0.21494079
33	0x3e1ab2c1	0.15107252
34	0xb9c02e24	-0.0003665547
35	0x3ea65850	0.32489252
36	0xbed82722	-0.42217356
37	0x3ecf26dc	0.40459335
38	0x3e93ab13	0.28841457
39	0xbd90c588	-0.07068926
40	0xbea505c8	-0.32230973
41	0x3d7b7ad9	0.061396454
42	0x3e8b1c5e	0.2717008
43	0xbe20417a	-0.15649977
44	0xbe4dffd5	-0.20117123
45	0x3f00655c	0.5015466
46	0xbadeb712	-0.0016991815
47	0x3e8dfbce	0.27731174
48	0x3d95eefa	0.07320972
49	0x3eb72c09	0.35775784
50	0xbec74ad8	-0.3892429
51	0x3e0f6ca6	0.1400629
52	0x3edea176	0.4348256
53	0x3e41fb3b	0.18943493
54	0xbe6cd12d	-0.23126669
55	0x3e94b490	0.29044008
56	0xbdf57984	-0.11986068
57	0x3e0b4863	0.13601832
58	0xbea9011d	-0.33008662
59	0x3edb949b	0.42886814
60	0x3d84a45e	0.06476663
61	0xbe5a11c8	-0.21295846
62	0x3ecc653d	0.3992099
63	0x3e828cf9	0.2549818
64	0xbd379904	-0.04482366
65	0x3ccedcde	0.025251802
66	0x3ee808b5	0.45319143
67	0xbd8784e8	-0.06617147
68	0x3eb0f59e	0.3456239
69	0x3e1ec345	0.15504177
70	0x3e7a238e	0.24427626
71	0xbedaf1ca	-0.42762595
72	0x3d7a66b8	0.061133116
73	0x3e40a9ac	0.18814725
74	0xbd903910	-0.07042134
75	0xbeb24988	-0.34821725
76	0x3e7125a0	0.23549509
77	0xbed702af	-0.41994235
78	0xbeda0418	-0.42581248
79	0xbe85395c	-0.26020324
80	0x3e5190b4	0.20465356
81	0x3e86345c	0.26211822
82	0x3e9eae90	0.30992556
83	0xbd8a94c2	-0.067666546
84	0x3e31a472	0.17347887
85	0x3db892d7	0.090123825
86	0x3d85ff33	0.06542816
87	0x3edadbac	0.4274572
88	0xbeeb35a0	-0.4593935
89	0xbeb6ddaa	-0.3571599
90	0x3e5122ef	0.20423482
91	0xbd41a614	-0.047277525
92	0x3c79f39d	0.015255836
93	0xbe8d3047	-0.27575895
94	0xbe0b21a3	-0.1358705
95	0x3e600ba8	0.21879447
96	0xbebee3a4	-0.3728305
97	0x3e518a01	0.204628
98	0x3e42d905	0.19028099
99	0x3c51f666	0.012815094
100	0xbedc8f9a	-0.4307831
101	0xbce41f51	-0.027846964
102	0xbe09a37c	-0.1344127
103	0x3ed07a6d	0.40718403
104	0xbe192ef2	-0.14959314
105	0xbe799352	-0.24372604
106	0xbede4214	-0.4340979
107	0xbea36220	-0.319108
108	0xbe5e0069	-0.21679844
109	0x3d837a79	0.06419844
110	0x3e6c4825	0.23074396
111	0xbe204e7c	-0.1565494
112	0xbea32bc1	-0.3186932
113	0xbedb7783	-0.42864618
114	0x3d702311	0.058627192
115	0x3ef9d7a3	0.4879733
116	0x3e0b00dd	0.13574548
117	0xbda38aaf	-0.07985436
118	0xbe4b07c4	-0.19827181
119	0x3e6169a8	0.22012961
120	0x3efbe47f	0.49197766
121	0xbd7474d1	-0.059681717
122	0x3dd7954d	0.10526524
123	0xbdb83234	-0.089939505
124	0x3d735334	0.05940552
125	0x3e888cdc	0.26669967
126	0x3e293a9b	0.16526262
127	0xbd3fa194	-0.046784952

fc2.weight f4 [128, 128]
0	0x3d552c53	0.052044224
1	0xbdda39f0	-0.10655582
2	0xbd4330e4	-0.047654048
3	0x3c0fb43a	0.008770997
4	0x3de46375	0.111517824
5	0xbd817641	-0.06321383
6	0x3d88975e	0.06669496
7	0xbda632d3	-0.08115163
8	0xbd84f9dd	-0.0649297
9	0x3e0c707f	0.13714789
10	0xbd2cf7e6	-0.042228602
11	0xbd836c95	-0.06417195
12	0xbd8230cf	-0.06356966
13	0x3d009029	0.03138748
14	0xbdb052e2	-0.08609559
15	0x3c81c655	0.015841642
16	0x3d77470d	0.060370494
17	0xbd30bed3	-0.043150734
18	0x3db66421	0.08905817
19	0x3d8c69df	0.06856131
20	0x3d5cbff6	0.053894006
21	0x3d5e2cd3	0.054241966
22	0x3cdbea1d	0.026845032
23	0x3a9b709f	0.0011859125
24	0x3d90686b	0.07051166
25	0x3ca69862	0.020336334
26	0xba7de418	-0.00096851727
27	0x3df9bd40	0.121943
28	0x3dd48ae9	0.103780575
29	0xbd4f5c8f	-0.05062538
30	0xbd9c9d36	-0.07647173
31	0xbc19b7f3	-0.009382236
32	0x3d41ba56	0.047296844
33	0x3d8ae24e	0.067814454
34	0xbd3acc33	-0.045604896
35	0xbd580dc1	-0.05274749
36	0x3d62964b	0.05531911
37	0x3d6c9f8e	0.05776935
38	0xbd49cb11	-0.049265925
39	0xbd29bfad	-0.041442562
40	0xbdeea1f9	-0.116519876
41	0xbd8f746b	-0.07004627
42	0x3d937366	0.07199745
43	0x3d4b6e11	0.049665514
44	0x3d02c28d	0.03192382
45	0x3d17f6cc	0.0371006
46	0xbda616fe	-0.08109854
47	0x3c269814	0.010168094
48	0xbd4e237e	-0.050326817
49	0x3ce60c3d	0.028082008
50	0x3e28f514	0.1649974
51	0x3e3457d4	0.17611629
52	0x3bd89537	0.0066095847
53	0xbd6b65e2	-0.05747021
54	0xbc04157f	-0.008061766
55	0x3c6fafce	0.014629317
56	0xbc7388cf	-0.014864161
57	0x3d025ebf	0.03182864
58	0x3e231a10	0.15927911
59	0xbd643fdf	-0.055724975
60	0xbdac0afa	-0.08400531
61	0x3dd8585e	0.1056373
62	0x3d7a03aa	0.06103865
63	0x3dddd8c5	0.10832361
64	0xbd333fbf	-0.043761965
65	0xbc98a84b	-0.018634936
66	0xbcbc8088	-0.023010507
67	0xbda4bfc3	-0.08044388
68	0x3d1de9f0	0.03855318
69	0x3dbcf59d	0.092265345
70	0x3db47812	0.08811964
71	0xbd7a0703	-0.061041843
72	0xbdfef10d	-0.124483205
73	0x3e2aedea	0.1669232
74	0xbddf3d70	-0.1090039
75	0x3e003fea	0.12524381
76	0xbca78f61	-0.02045411
77	0xbd186c11	-0.037212435
78	0x3d9bc303	0.07605555
79	0x3d8677db	0.06565829
80	0x3969829e	0.0002226927
81	0xbdab4e22	-0.08364512
82	0x3c7faa34	0.015604544
83	0x3cb204fc	0.021730892
84	0x3e000b26	0.12504253
85	0x3def6bfe	0.1169052
86	0x3d5ccbbd	0.053905237
87	0xbd1081f3	-0.03528018
88	0xbb9242c5	-0.004463526
89	0x3dfdfe32	0.124019995
90	0xbd951de0	-0.07281089
91	0xbe0dc14f	-0.13843273
92	0xbc80f675	-0.01574252
93	0x3ce50adc	0.02795928
94	0x3d951e55	0.07281176
95	0x3cbf6050	0.023361355
96	0xbaf2deb3	-0.0018529504
97	0xbccd6d27	-0.025076462
98	0xbd66d5cd	-0.05635624
99	0x3d0c5b87	0.034266975
100	0xbbb98a4b	-0.0056622378
101	0xbc657b78	-0.014006488
102	0x3e065461	0.13118125
103	0x3ceae868	0.028675273
104	0xbde83269	-0.1133774
105	0x3cbe5593	0.023234164
106	0x3d4f07ef	0.050544675
107	0x3c84fe29	0.016234474
108	0x3cd06c49	0.02544226
109	0xbe1d5e1b	-0.1536793
110	0x3d3d9cad	0.046291996
111	0xbd6d429a	-0.057924844
112	0x3dc8f104	0.09811595
113	0x3cc265fc	0.02373027
114	0xbd20c7ed	-0.039253164
115	0xbd5b0329	-0.05346981
116	0xbb119707	-0.0022215263
117	0xbd5592a1	-0.05214179
118	0xbdbd6612	-0.09247984
119	0xbd164dac	-0.036695167
120	0xbdc6382a	-0.09678681
121	0x3e1ff7ef	0.15621923
122	0x3dbfbc38	0.09362072
123	0x3d07b7bf	0.03313422
124	0x3e15d9f0	0.14633918
125	0x3dbaf330	0.091284156
126	0xbd48771f	-0.048941728
127	0x3d1e75d5	0.038686592
128	0xbc1b06ea	-0.009462098
129	0x3c43a68c	0.011941563
130	0xbb9ff199	-0.0048810956
131	0xbce7e56b	-0.028307637
132	0x3cb35e66	0.021895599
133	0x3da8d62c	0.08243975
134	0xbd866380	-0.06561947
135	0xbca08ea2	-0.019599263
136	0x3dbb9c0d	0.09160624
137	0xbd540d2d	-0.051770378
138	0x3d4acf06	0.04951384
139	0x3dce6dcf	0.10079538
140	0x3d91e48e	0.071236715
141	0xbd84eb1f	-0.06490158
142	0x3d4ed6dc	0.050497875
143	0xbd431244	-0.04762484
144	0x3d134e23	0.03596319
145	0x3c82b494	0.015955247
146	0xbd3d3e4d	-0.046201993
147	0xbc9f8ac8	-0.019475356
148	0xbd199a49	-0.037500653
149	0x3d238304	0.039919868
150	0xbd021c04	-0.031765
151	0xbd645bbb	-0.055751543
152	0xbdaaf341	-0.08347178
153	0x3c197528	0.009366311
154	0xbdc8da39	-0.09807248
155	0x3d9ad0c6	0.075593516
156	0x3d3f07ce	0.046638303
157	0xbd9d79cf	-0.07689249
158	0xbd77d664	-0.060507193
159	0x3c1b7986	0.009489423
160	0x3bb2fa39	0.005461958
161	0x3c996e03	0.018729215
162	0x3d811b54	0.063040406
163	0x3cecae79	0.028891789
164	0x3da0184c	0.07817134
165	0xbc95f367	-0.01830454
166	0x3c2b5de6	0.010459399
167	0x3dd88775	0.105727114
168	0x3cfc1ee2	0.030776445
169	0x3c269986	0.010168439
170	0xbdb1d7ea	-0.086837605
171	0xbd45880b	-0.048225444
172	0x3ca37d00	0.019957066
173	0x3d613716	0.054984175
174	0x3cb99cd8	0.022657797
175	0x3d221b19	0.039576624
176	0x3d1a10d5	0.03761371
177	0x3d97cd01	0.07412148
178	0xbd11fe97	-0.035643186
179	0xbdf84ea8	-0.121243775
180	0xbce11847	-0.027477397
181	0x3d117780	0.035514355
182	0x3e09041c	0.13380474
183	0x3d53d31a	0.051714994
184	0x3d72b2b8	0.05925247
185	0x3ca9a445	0.020708213
186	0xbcbdd2eb	-0.023171863
187	0xbd812cb7	-0.06307357
188	0xbc04533a	-0.008076483
189	0xbcab2322	-0.020890776
190	0x3da3844f	0.0798422
191	0xbdafee96	-0.085904285
192	0x3e00bf4f	0.12572978
193	0x3d3c0125	0.04589953
194	0x3d941fa1	0.07232595
195	0x3e12963e	0.14315125
196	0x3d5ac9da	0.053415157
197	0x3d3ed5b2	0.046590514
198	0x3d14033b	0.036135893
199	0xbd82cbb2	-0.06386508
200	0xbc829bb4	-0.015943386
201	0xbda97fe1	-0.08276344
202	0x39c04b06	0.0003667699
203	0xb99043d4	-0.00027516356
204	0x3a0ffb34	0.0005492449
205	0x3c50a81f	0.012735396
206	0x3da8811a	0.08227749
207	0x3cb6498c	0.022251867
208	0xbbd5dec0	-0.006526798
209	0x3c77ac76	0.0151168015
210	0xbb26702d	-0.0025396452
211	0xbcb19811	-0.021678956
212	0xbdc03aa3	-0.09386184
213	0x3c8ee49f	0.017443
214	0xbdc1acbe	-0.09456776
215	0xbd98bd1b	-0.07457944
216	0x3d9429a9	0.072345085
217	0xbc18bd52	-0.009322481
218	0x3d4dc1a2	0.05023349
219	0x3d1aa831	0.037758056
220	0x3d5fda3c	0.054651484
221	0x3b9de5f5	0.004818673
222	0x3b5fa59c	0.003412581
223	0x3dd0563d	0.10172699
224	0xbd89f3c6	-0.06735949
225	0x3dd421a2	0.103579774
226	0x3b45834f	0.003013808
227	0x3b469ef6	0.003030715
228	0x3d9961d4	0.07489362
229	0x3d7be8f6	0.061501466
230	0x3cd5919d	0.02607041
231	0x3d0ad26c	0.03389208
232	0x3dc8d865	0.09806899
233	0x3d4a72c9	0.049425874
234	0xbdafdead	-0.08587394
235	0xbd55cead	-0.052199055
236	0x3d7ebaf7	0.062190022
237	0x3e2661cd	0.16248246
238	0xbd404133	-0.04693718
239	0x3d863a23	0.065540574
240	0x3bad8247	0.0052950713
241	0xbd8af0ed	-0.06784234
242	0x3dad8f63	0.084746145
243	0x3d1304c3	0.035893213
244	0xbd8009f8	-0.062519014
245	0xbc1c41a2	-0.009537132
246	0xbd17f9aa	-0.037103333
247	0xbc211b96	-0.009833237
248	0x3dc8c0d0	0.09802401
249	0xbdf074c6	-0.11741023
250	0xbda17bf0	-0.07884967
251	0x3bc93bcc	0.0061411615
252	0xbe353146	-0.17694578
253	0x3d97a160	0.07403827
254	0x3dd13ab4	0.10216275
255	0x3d624fff	0.05525207

fc2.bias f4 [128]
0	0x3c639b42	0.013891997
1	0xbd892778	-0.06696981
2	0x3cc747f0	0.024326295
3	0xbc6630a8	-0.0140496865
4	0x3d883143	0.06650021
5	0xbd64951c	-0.055806264
6	0x3da21360	0.07913852
7	0xbc5095a8	-0.012730993
8	0xbd89eb97	-0.06734388
9	0xbd92218f	-0.07135307
10	0x3d4efd16	0.05053433
11	0xbd9f9054	-0.077912
12	0xbc57160e	-0.013127817
13	0xbcf808e4	-0.030277677
14	0x3da35776	0.07975666
15	0xbc943f52	-0.0180966
16	0x3cba70c6	0.022758853
17	0xbd8f48d2	-0.06996311
18	0xbd60bb9b	-0.054866415
19	0x3d19dde6	0.037565134
20	0x3cb19159	0.021675752
21	0x3dad8e8b	0.084744535
22	0xbaad9e37	-0.0013246004
23	0xbc909bb0	-0.017652363
24	0x3db3dd7b	0.087824784
25	0xba2d8ecb	-0.0006620704
26	0xbd8c29ea	-0.06843932
27	0x3d17b51e	0.03703796
28	0xbd3a7c27	-0.045528557
29	0x3c9a4de0	0.018835962
30	0x3d7dac7d	0.061932076
31	0x3d87298b	0.065997206
32	0x3d9767a3	0.07392814
33	0xbceeb83e	-0.029140588
34	0xbd78e1a7	-0.060762074
35	0x3c6dd055	0.014515002
36	0xbbda9815	-0.0066709616
37	0xbcd897bb	-0.026439538
38	0xbdb48533	-0.08814468
39	0x3d680e62	0.05665434
40	0xbc98d14d	-0.01865449
41	0xbda1551e	-0.07877563
42	0xbc3e6aae	-0.011622114
43	0xbc06f3aa	-0.008236805
44	0x3cf4c5fe	0.029879566
45	0x3d6ec895	0.05829676
46	0xba2ec82d	-0.0006667402
47	0xbd1ae670	-0.03781742
48	0xbd5b1d7c	-0.053494915
49	0xbd9c2363	-0.07623937
50	0xbcd52231	-0.02601728
51	0x3da39f17	0.07989328
52	0x3cfcc08b	0.03085353
53	0x3d605b55	0.0547746
54	0x3d8a7100	0.06759834
55	0x3d64ab35	0.05582734
56	0xbd0a85ae	-0.033818893
57	0xbc9f82c3	-0.019471532
58	0x3d3433b6	0.043994628
59	0x3c0f28fa	0.008737797
60	0x3d205d55	0.03915151
61	0x3d425d93	0.04745252
62	0xbdaa5c61	-0.08318401
63	0xbcba834f	-0.022767691
64	0x3d91a72b	0.07111963
65	0x3dc03c52	0.09386505
66	0x3b798e06	0.0038079037
67	0xbd2aea94	-0.041727617
68	0xbdb30b67	-0.08742409
69	0xbb5f60e1	-0.0034084844
70	0x3d0da6da	0.03458295
71	0xbd638475	-0.055546243
72	0xbd6b6e20	-0.05747807
73	0x3d68f4a0	0.056873918
74	0x3da652f1	0.081212886
75	0xbcbe93ee	-0.023263898
76	0x3d13e290	0.03610474
77	0x3d97f018	0.07418841
78	0x3d5d4c9e	0.054028146
79	0x3da20bad	0.07912383
80	0xbdbf65ed	-0.09345613
81	0x3d9dc181	0.077029236
82	0xbdadbdce	-0.08483468
83	0xbb778c20	-0.003777273
84	0x3cdb8721	0.026797833
85	0x3cfd2891	0.030903133
86	0xbc8c87e1	-0.017154636
87	0x3da85312	0.082189694
88	0x3c6b3348	0.014355488
89	0x3d134756	0.035956703
90	0x3cbde1e4	0.023179002
91	0xbdb359d7	-0.0875737
92	0xbd1a6d4b	-0.037701886
93	0xbd54b0db	-0.051926475
94	0xbd3e69fd	-0.046487797
95	0x3d6af46d	0.05736201
96	0x3cd9d147	0.026589049
97	0x3cc604a4	0.024172135
98	0x3cc3eda3	0.023917025
99	0x3d2010f1	0.039078657
100	0xbd0f5462	-0.034992583
101	0xbc463c8b	-0.0120993955
102	0xbd5e1da0	-0.05422747
103	0xbd82c85a	-0.0638587
104	0x3cfda8d6	0.030964296
105	0x3cde99f8	0.027173027
106	0x3d11f763	0.035636317
107	0xbc567b23	-0.0130908815
108	0x3cdd0985	0.026982078
109	0x3da4add8	0.080409706
110	0x3d6bfb0c	0.057612464
111	0xbd81b538	-0.06333393
112	0x3d6afd5f	0.05737054
113	0xbc1e4a9a	-0.009661341
114	0x3d1a3aad	0.037653614
115	0x3d71b437	0.059009757
116	0xbd1b59f0	-0.037927568
117	0xbbd960c4	-0.00663385
118	0xb9aa18d5	-0.00032443428
119	0x3dc932d4	0.09824148
120	0xbcb27b84	-0.021787412
121	0x3c415671	0.011800394
122	0x3c6bb0a7	0.014385379
123	0xbd0b36e3	-0.03398789
124	0xbd51d55b	-0.051228862
125	0x3dc7b5cb	0.09751471
126	0x3da30fc4	0.079619914
127	0x3d2f936e	0.04286521

prob.weight f4 [2, 128]
0	0x3d6afea3	0.057371747
1	0xbdd37ed5	-0.10326926
2	0x3e039f10	0.12853646
3	0x3df6158f	0.12015831
4	0x3e00aa36	0.1256493
5	0xbda615ac	-0.08109602
6	0xbd9c9721	-0.07646013
7	0xbd9d9b8a	-0.07695682
8	0x3d93f54c	0.07224521
9	0x3d821626	0.06351881
10	0xbda644ef	-0.08118617
11	0x3c5b7c24	0.013396297
12	0x3d66774a	0.056266107
13	0xbe016d6e	-0.126394
14	0xbbbbfd9b	-0.0057370192
15	0xbdcf59e8	-0.1012457
16	0x3ce9a651	0.028521689
17	0xbce54e13	-0.02799133
18	0x3d1875e0	0.03722179
19	0x3b544580	0.0032390058
20	0x3e08d45e	0.13362262
21	0x3e07abed	0.13249178
22	0x3cd600e4	0.026123472
23	0x3dd7edf1	0.105434306
24	0xbdd6768d	-0.104718305
25	0x3d537fd9	0.051635597
26	0x3d81dd3b	0.063410245
27	0xbc8d2abc	-0.017232291
28	0x3d873a1d	0.06602881
29	0x3d71b2c4	0.059008375
30	0xbe0d6701	-0.13808824
31	0xbd370f02	-0.044692047
32	0x3d47f836	0.048820697
33	0xbd90aef1	-0.070646174
34	0x3d7bf7cd	0.061515618
35	0x3d93d35e	0.072180495
36	0xbcca5e38	-0.02470313
37	0x3de3ec01	0.111289985
38	0xbd217ef0	-0.039427698
39	0x3d2e5e03	0.042570125
40	0xbdf62bb9	-0.12020058
41	0x3d436353	0.047702145
42	0x3b0049f9	0.001957534
43	0xbd98ef03	-0.07467463
44	0x3dc9a1fb	0.098453484
45	0x3e0a1038	0.1348275
46	0xbd91c67b	-0.07117935
47	0xbddfefba	-0.10934396
48	0x3d978ebc	0.07400271
49	0x3d0256b6	0.031820975
50	0x3d1600ce	0.03662186
51	0xbde862eb	-0.11346992
52	0xbd793fbc	-0.060851797
53	0xbd8ba495	-0.06818501
54	0xbd2fe7b7	-0.04294559
55	0xbd9bf3fc	-0.07614896
56	0xbc9d8920	-0.019230425
57	0x3d72092f	0.05909079
58	0xbcb50f90	-0.022102147
59	0xbc44acc4	-0.012004081
60	0x3d781bfe	0.06057357
61	0x3da2417c	0.079226464
62	0xbdad2e71	-0.084561236
63	0xbdcece83	-0.10097983
64	0xbe06a592	-0.13149098
65	0xbdedf5ad	-0.116191246
66	0xbc25e6c2	-0.010125818
67	0x3de3e911	0.11128438
68	0xbce13073	-0.027488923
69	0x3c8572c1	0.01629007
70	0xbd41b32c	-0.047290012
71	0x3c87a3b4	0.016557552
72	0x3d23fc5b	0.040035587
73	0xbdab00e0	-0.08349776
74	0xbe1a59de	-0.15073344
75	0xbc8a4cb2	-0.016882274
76	0xbdbaafbd	-0.09115551
77	0xbdeee496	-0.11664693
78	0x3b486c3f	0.0030582098
79	0xbdc81ee2	-0.097715154
80	0xbd747bab	-0.05968825
81	0x3a21ef20	0.0006177295
82	0xbd0854d0	-0.03328401
83	0xbccef14c	-0.025261544
84	0xbddba3ea	-0.107246235
85	0x3db5d13a	0.088777974
86	0xbd894584	-0.06702712
87	0x3e18f84b	0.14938466
88	0xbc89e28b	-0.016831657
89	0x3ddeacea	0.108728245
90	0xbdfedc0b	-0.124443136
91	0x3d95bd7b	0.07311531
92	0x3df3a189	0.11896045
93	0x3d908135	0.07055894
94	0xbc3ca723	-0.011514458
95	0x3d28f80a	0.041252173
96	0x3e1c6b6c	0.15275353
97	0x3d08e6aa	0.033423103
98	0x3e0109c0	0.12601376
99	0xbd3184de	-0.043339603
100	0xbabee79b	-0.0014564873
101	0x3d7946f6	0.06085869
102	0xbd25b76c	-0.040458128
103	0x3dc8105e	0.09768747
104	0xbc199e51	-0.0093761245
105	0x3d291001	0.04127503
106	0xbde65952	-0.11247505
107	0xbdb44207	-0.08801656
108	0x3c434507	0.011918313
109	0xbc1f52dc	-0.009724345
110	0xbd91bd66	-0.07116203
111	0x3d946b04	0.07246974
112	0xbda3dcad	-0.08001075
113	0xbc21b4cc	-0.0098697655
114	0x3dcb8ff5	0.09939567
115	0x3ddc4cda	0.10756846
116	0xbd809705	-0.06278805
117	0x3b9fd433	0.004877591
118	0x3d4899d3	0.048974823
119	0xbe2c956d	-0.16853876
120	0x3d2e6f6a	0.04258672
121	0x3ce0766a	0.027400214
122	0xbc2b143c	-0.010441836
123	0x3c0af1f0	0.008480534
124	0xbbf2610d	-0.0073968233
125	0x3e14f08a	0.14544883
126	0xbcd70307	-0.02624656
127	0xbdb0cc5a	-0.08632727
128	0xbd6b7048	-0.057480127
129	0x3c03bbea	0.008040408
130	0xbd6d09c6	-0.05787065
131	0xbe107a39	-0.14109124
132	0xbd67bc35	-0.056575973
133	0xbc1e5e76	-0.009666076
134	0x3d816ae8	0.06319219
135	0x3d3c3f96	0.045959078
136	0xbdd6d69d	-0.10490153
137	0xbccae39f	-0.024766741
138	0xbd533154	-0.051560715
139	0xbe14e068	-0.14538729
140	0xbbc6c6ce	-0.00606618
141	0x3c479c21	0.01218322
142	0xbe0d294c	-0.13785285
143	0x3e160a62	0.14652398
144	0x3d0a21bc	0.033723578
145	0x3cd0045a	0.0253927
146	0xbc9681ce	-0.018372443
147	0x3c241060	0.01001367
148	0xbdbe2f4b	-0.09286364
149	0x3cadea16	0.021229785
150	0x3d2a6dc0	0.041608572
151	0x3cb1c8bc	0.021702163
152	0x3d03692c	0.03208272
153	0xbdb81265	-0.089878835
154	0xbd5f610a	-0.054535903
155	0x3e1d7057	0.15374885
156	0x3d0b804d	0.034057904
157	0x3d8fd9da	0.07023974
158	0x3dbdfdd1	0.09276927
159	0x3e14610d	0.14490147
160	0xbdaed974	-0.0853757
161	0x3de2a49c	0.11066553
162	0xbe034e69	-0.1282288
163	0xbd14e474	-0.036350682
164	0x3dc77f15	0.09741036
165	0xbda84dba	-0.0821795
166	0xbd38b75f	-0.04509675
167	0xbd9850e1	-0.074373014
168	0x3e073adc	0.13206047
169	0xbd6a8672	-0.057257123
170	0x3b6835c5	0.003543244
171	0xbd239e34	-0.039945796
172	0xbcd1a320	-0.02559048
173	0x3c9606e9	0.018313842
174	0x3d3ab0ca	0.045578755
175	0x3df7a03e	0.12091111
176	0xbd8ad583	-0.067790054
177	0x3d382aff	0.04496288
178	0x3de73c82	0.11290838
179	0x3d91aa1c	0.07112524
180	0x3dcd66ff	0.100294106
181	0x3d8a489f	0.067521326
182	0x3b7d43ff	0.0038645265
183	0x3e102a06	0.1407853
184	0x3c3c42a0	0.011490494
185	0xbd8929ba	-0.06697412
186	0xbb71c9a0	-0.003689386
187	0xbd9c39d9	-0.07628221
188	0xbb180b39	-0.0023200049
189	0xbe0d91d5	-0.13825162
190	0x3c8ba098	0.01704435
191	0x3e0e7e36	0.13915333
192	0x3d081c6b	0.033230226
193	0x3d0e6eef	0.034773763
194	0x3d309d59	0.04311881
195	0xbde8a169	-0.113589115
196	0x3db2cd58	0.087305725
197	0xbd3fac84	-0.046795383
198	0x3d4341d2	0.047670193
199	0x3caf70ee	0.021416154
200	0xbd08c3b1	-0.03338975
201	0x3d3a9dbd	0.045560587
202	0x3d8aed77	0.06783574
203	0x3da6650c	0.08124742
204	0x3d95157a	0.07279487
205	0x3e20b6b5	0.15694697
206	0xbd942949	-0.07234437
207	0x3c363c6e	0.011122806
208	0xbb584d35	-0.0033005003
209	0x3dd18357	0.10230129
210	0xbd15c2b1	-0.036562625
211	0x3c0b0c78	0.0084868595
212	0x3ccf71f3	0.02532289
213	0xbddbb98b	-0.10728749
214	0x3dc4a502	0.09601785
215	0x3bed29af	0.007237635
216	0xbc81be2e	-0.015837755
217	0xbd9e8224	-0.07739666
218	0x3de1ddf9	0.11028666
219	0x3d3734a6	0.044727944
220	0xbc0d53ea	-0.008625964
221	0xbd413931	-0.047173683
222	0x3cf76cd6	0.030203264
223	0x3d542205	0.051790256
224	0x3ba5e803	0.0050630583
225	0xbbdb3410	-0.006689556
226	0xbd3c4700	-0.04596615
227	0xbd32dddc	-0.043668613
228	0xbcb375d4	-0.02190677
229	0xbb930fdb	-0.004487974
230	0xbd287a3e	-0.041132204
231	0xbd153a9e	-0.036432855
232	0x3dd91ac2	0.10600807
233	0xbd7435c8	-0.059621602
234	0x3d761a4e	0.06008368
235	0x3daa5cc2	0.083184734
236	0xbddc9a36	-0.10771601
237	0xbde16cc8	-0.110070765
238	0x3d9487a0	0.07252431
239	0xbcc18f3d	-0.023627872
240	0x3df4b255	0.11948077
241	0xbc28a70e	-0.010293735
242	0xbd9e8506	-0.07740216
243	0x3c663c2f	0.014052435
244	0x3db70f78	0.08938497
245	0x3d558173	0.052125406
246	0x3d58f6d6	0.052969776
247	0x3d8a29ad	0.0674623
248	0x3d73d06a	0.05952493
249	0xbcbeb2f4	-0.02327869
250	0xbb2586ba	-0.0025257305
251	0xb9a7b200	-0.00031985343
252	0x3e26c404	0.16285712
253	0xbd83bac0	-0.06432104
254	0x3dc593ba	0.09647317
255	0xbd71edbc	-0.05906461

prob.bias f4 [2]
0	0x3cfadbff	0.03062248
1	0xbd9b1eb0	-0.075742126
