RLIntro/Reinforce/checkpoints/Reinforce_discrete/Reinforce_policy_1500.pth (torch_old, 70658 bytes, 6 tensors)

fc1.weight f4 [128, 4]
0	0xbe57c63d	-0.21071716
1	0xbec6451c	-0.387246
2	0xbd62c3de	-0.055362575
3	0x3c416c0b	0.011805545
4	0x3e818288	0.252949
5	0x3cd05732	0.025432203
6	0x3e5e6214	0.21717101
7	0x3da2462d	0.07923541
8	0x3ddb92b7	0.10721343
9	0xbbb5861b	-0.0055396683
10	0xbe55e33e	-0.20887467
11	0xbaaf1c18	-0.0013359813
12	0x3e401889	0.1875936
13	0xbeafae48	-0.34312654
14	0xbe65568d	-0.22396298
15	0x3e9a669a	0.30156404
16	0xbe9ca061	-0.3059111
17	0xbe57fbba	-0.2109212
18	0x3e8b2d70	0.27183104
19	0xbeacbec7	-0.33739302
20	0x3ea23f5c	0.31688964
21	0x3eaca323	0.33718213
22	0xbd38bdf0	-0.045103014
23	0xbeaa1373	-0.33217964
24	0x3eec4e9b	0.4615372
25	0x3e4d0c43	0.20024209
26	0xbe52b436	-0.20576558
27	0xbf0e41ba	-0.5556904
28	0x3e293f94	0.1652816
29	0x3ed0f161	0.40809157
30	0x3f119b44	0.5687754
31	0x3e1d32bd	0.15351386
32	0x3e6a1c12	0.2286227
33	0x3d9ea97c	0.0774717
34	0xbee26ccf	-0.4422364
35	0x3c85dcf1	0.016340705
36	0xbd7552be	-0.059893362
37	0xbde8ee82	-0.11373617
38	0xbeac32da	-0.33632547
39	0xbf01e4ed	-0.5073994
40	0x3eb2e1d4	0.34937918
41	0x3e001a3c	0.12510008
42	0x3e2ba963	0.16763835
43	0x3f08e0fc	0.534683
44	0x3ecf9b14	0.40548003
45	0xbe570014	-0.20996124
46	0x3e9c5cd3	0.3053957
47	0x3eb5c805	0.35504165
48	0xbed8882e	-0.42291397
49	0xbe8036b4	-0.25041735
50	0xbe8b31ac	-0.27186334
51	0x3e617989	0.22019018
52	0xbeda965f	-0.4269285
53	0xbb5d8734	-0.0033802511
54	0x3d2a2800	0.041542053
55	0xbc39f8ae	-0.011350794
56	0xbe7d9e45	-0.24767406
57	0xbea9bd86	-0.33152407
58	0x3f1a5630	0.6028776
59	0x3da6cc6f	0.08144461
60	0x3dd6ca56	0.10487811
61	0xbeb8b10e	-0.36072582
62	0xbdf4a43e	-0.11945389
63	0xbe360b5f	-0.17777775
64	0xbed68e10	-0.4190526
65	0xbf086204	-0.5327456
66	0xbea6dd86	-0.32590884
67	0xbefd33c4	-0.49453557
68	0x3e239e28	0.159783
69	0xbe1d5db4	-0.15367776
70	0x3e83f42a	0.2577222
71	0xbea8a9e2	-0.3294211
72	0xbeb5e8e7	-0.35529253
73	0xbdbd7f58	-0.092528045
74	0xbe2bdb06	-0.1678277
75	0xbefcbdde	-0.49363607
76	0x3de2bf23	0.11071613
77	0xbe37fa5d	-0.179666
78	0xbf21f9ad	-0.632716
79	0xbe9846f8	-0.29741645
80	0x3d8fcaf1	0.0702113
81	0x3ecf3da7	0.40476725
82	0xbeb0c73b	-0.34527
83	0x3d1ddb35	0.03853913
84	0x3e4826fc	0.19546121
85	0xbdc78a24	-0.09743145
86	0xbf0c9bd6	-0.54925287
87	0xbef718ab	-0.48261008
88	0xbee79f51	-0.45238736
89	0x3e727e3b	0.23680966
90	0xbedb2f1c	-0.4280938
91	0xbf0189ed	-0.50601083
92	0xbec0031c	-0.37502372
93	0xbe5281fe	-0.205574
94	0xbf1e5a86	-0.6185688
95	0xbeac948b	-0.3370708
96	0xbe11a33c	-0.14222425
97	0xbed67fa1	-0.41894248
98	0x3c3171a3	0.010830316
99	0x3e0eb7bf	0.13937281
100	0xbddce182	-0.107852
101	0x3e08269e	0.13295981
102	0x3e884b64	0.26620018
103	0x3d1b6d6b	0.037946146
104	0xbe4efc85	-0.20213516
105	0xbd252ab7	-0.04032394
106	0xbf01d832	-0.5072051
107	0xbef3a7ba	-0.47588903
108	0x3e4971e0	0.19672346
109	0xbdc93cf6	-0.098260805
110	0xbec3cea5	-0.38243595
111	0xbeddb504	-0.43302166
112	0xbe8f374b	-0.27971873
113	0x3e8be8ac	0.27325952
114	0xbd35403f	-0.044250723
115	0xbefc1cef	-0.49240825
116	0xbe804a17	-0.25056526
117	0xbd65156e	-0.05592864
118	0xbd7aaaf9	-0.06119821
119	0xbde17d49	-0.11010224
120	0x3e87fdfa	0.26560956
121	0x3d775af0	0.06038946
122	0xbe21d551	-0.1580403
123	0xbe19a32b	-0.1500365
124	0x3e6c52a2	0.23078397
125	0x3ea0732c	0.3133787
126	0xbde6b741	-0.11265422
127	0xbefd204c	-0.49438703
128	0xbe2670cb	-0.16253965
129	0xbe9da540	-0.30790138
130	0xbea68a21	-0.3252726
131	0x3d0fe5b0	0.035131156
132	0xbee1718c	-0.44031942
133	0x3eb3f068	0.35144353
134	0xbeb3659f	-0.35038468
135	0xbdb21918	-0.086961925
136	0x3dd2cab3	0.10292568
137	0x3e8deba2	0.27718836
138	0xbf0b5a05	-0.54434234
139	0xbd713744	-0.058890596
140	0xbdd15a28	-0.10222274
141	0x3eb7b834	0.35882723
142	0x3e117eb3	0.14208488
143	0xbeb8c850	-0.36090326
144	0x3ecef476	0.40420884
145	0xbeb58772	-0.354549
146	0xbed5e464	-0.4177581
147	0x3e74583c	0.23861784
148	0xbeaf629d	-0.34254923
149	0xbe193ef3	-0.1496542
150	0x3f26f79f	0.6522159
151	0x3e90466c	0.28178728
152	0x3e58b622	0.21163228
153	0x3ea807d6	0.32818478
154	0x3e55adb2	0.20867041
155	0x3ec6567b	0.38737854
156	0x3ec6bf5f	0.3881788
157	0x3db637c2	0.08897354
158	0x3de862b0	0.11346948
159	0x3e698266	0.2280365
160	0x3eae1f00	0.34008026
161	0x3ecc7f2c	0.39940774
162	0x3ee21e18	0.44163585
163	0x3ed06881	0.4070473
164	0xbdd830ae	-0.1055616
165	0x3ee2d08c	0.44299734
166	0x3eda17e0	0.4259634
167	0x3ecfb180	0.4056511
168	0x3e17a18f	0.14807723
169	0x3e9acd73	0.3023487
170	0xbee9ccce	-0.45664066
171	0xbe6989b8	-0.22806442
172	0xbe042412	-0.12904385
173	0xbe1d1ef5	-0.1534384
174	0x3efeb4d1	0.49747327
175	0x3ef4582f	0.4772353
176	0xbe7ba2bd	-0.24573798
177	0xbe8aa740	-0.27080727
178	0x3e5a72be	0.21332833
179	0xbe9ac276	-0.30226487
180	0x3ea5cc03	0.3238221
181	0x3e838c60	0.25693035
182	0xbd3f5042	-0.0467074
183	0x3ee2480b	0.4419559
184	0xbe2836ca	-0.1642715
185	0x3ebbf017	0.36706612
186	0x3f1aeeb6	0.60520494
187	0x3d95fd6a	0.073237255
188	0x3edde2bf	0.43337056
189	0xbe915862	-0.28387743
190	0x3d835dd3	0.0641438
191	0x3f06c8e7	0.526503
192	0x3e953187	0.2913935
193	0xbef24db5	-0.4732491
194	0xbeb14ebf	-0.3463039
195	0x3e28c54f	0.16481517
196	0xbe73f217	-0.23822819
197	0x3ef731ac	0.48280084
198	0x3e5e16d8	0.21688402
199	0x3eb5b386	0.35488528
200	0x3e207f30	0.15673518
201	0xbe8a2d51	-0.269877
202	0xbe9468f1	-0.28986314
203	0xbf04bfb5	-0.5185502
204	0x3eae8de5	0.34092632
205	0xbeae3c88	-0.34030557
206	0xbf01526e	-0.505164
207	0xbe87daf8	-0.26534247
208	0x3eace152	0.33765656
209	0xbdb7731f	-0.089575045
210	0x3de94a5e	0.113911375
211	0x3e1cb1df	0.15302227
212	0x3da84595	0.08216397
213	0x3ec677f5	0.38763395
214	0x3f0c0bfc	0.54705787
215	0xbdaac03c	-0.08337447
216	0x3f00e6db	0.5035226
217	0x3ee39fc7	0.44457838
218	0xbe9fdfcd	-0.31225434
219	0x3ede21f3	0.43385276
220	0xbec6e1f0	-0.38844252
221	0xbe29e0ff	-0.16589735
222	0xbea4e0f4	-0.32202876
223	0xbe3b68a0	-0.1830163
224	0xbdf8eac7	-0.12154155
225	0x3eb5cfa1	0.3550997
226	0xbeb91941	-0.3615208
227	0xbe918ceb	-0.28427824
228	0xbe3db202	-0.18524936
229	0x3de27cb5	0.11058942
230	0x3d720822	0.059089787
231	0xbf0c4fe2	-0.5480939
232	0xbe581903	-0.21103291
233	0xbeeac4d8	-0.45853305
234	0xbeef80a5	-0.46777835
235	0xbed95794	-0.4244963
236	0xbeb48683	-0.35258874
237	0xbe18526a	-0.14875188
238	0xbe87e6c0	-0.26543236
239	0x3f10c273	0.56546706
240	0xbedb8188	-0.42872262
241	0x3e5b47f1	0.21414162
242	0x3f0b056f	0.54305166
243	0x3e8109e0	0.25202847
244	0xbef9a84e	-0.4876122
245	0x3eb4715e	0.35242742
246	0xbe1156dc	-0.1419329
247	0xbe69c8be	-0.22830483
248	0x3eadb662	0.3392821
249	0x3e8b44ff	0.27201077
250	0x3da856ee	0.082197055
251	0xbe8078f7	-0.2509229
252	0x3ce16922	0.027515952
253	0xbed7b7f0	-0.4213252
254	0xbeab4bc2	-0.33456236
255	0x3e1c4930	0.15262294

fc1.bias f4 [128]
0	0xbe87fbd5	-0.2655932
1	0xbe257198	-0.16156614
2	0xbe0f4733	-0.13992004
3	0xbeb8bd50	-0.36081934
4	0x3ed84b41	0.42244914
5	0x3e363624	0.1779409
6	0xbe06f1f3	-0.13178234
7	0xbe5b161a	-0.2139515
8	0x3e7b23a1	0.2452531
9	0x3ebcde77	0.36888477
10	0xbec70c62	-0.38876635
11	0x3d95a535	0.07306901
12	0xbe031c2a	-0.12803712
13	0xbe927b85	-0.28609863
14	0x3df2d952	0.11857857
15	0x3ec7e4d0	0.39041758
16	0xbcd85206	-0.0264063
17	0xbef2cdca	-0.4742263
18	0x3e775195	0.24152215
19	0x3eb373df	0.3504934
20	0xbe9202dd	-0.2851781
21	0x3ecbaca7	0.3978016
22	0x3ec10259	0.37697104
23	0x3ea91dcd	0.3303055
24	0xbe6c9107	-0.23102199
25	0xbe831fe5	-0.2561027
26	0x3ed40682	0.41411215
27	0x3ed8d7d3	0.4235216
28	0xbc3c4c5e	-0.011492817
29	0xbe9ea910	-0.3098836
30	0x3e2286e2	0.15871766
31	0x3c97153e	0.018442746
32	0xbe59f0da	-0.21283284
33	0x3e1a022e	0.15039894
34	0xbb4961c1	-0.0030728432
35	0x3eac37e4	0.3363639
36	0xbed67c66	-0.41891783
37	0x3ecebffd	0.4038085
38	0x3e928f83	0.28625116
39	0xbdcf80de	-0.10132001
40	0xbeac37fb	-0.3363646
41	0x3d78be15	0.06072815
42	0x3e8eded7	0.27904388
43	0xbe244846	-0.16043195
44	0xbe4dffd5	-0.20117123
45	0x3f000541	0.50008017
46	0xbc1d3cd6	-0.009597024
47	0x3e8e62b8	0.2780969
48	0x3d997959	0.07493848
49	0x3eb6412e	0.35596603
50	0xbedee267	-0.43532106
51	0x3e0eb340	0.13935566
52	0x3edf1ff5	0.4357907
53	0x3e416b4b	0.18888585
54	0xbe848261	-0.2588072
55	0x3e9567c7	0.29180738
56	0xbdf08b91	-0.1174537
57	0x3e0c1247	0.13678847
58	0xbea9011d	-0.33008662
59	0x3edc6224	0.43043625
60	0x3d972172	0.07379426
61	0xbe521dad	-0.20519133
62	0x3ed3f3b9	0.41396883
63	0x3e81b1dc	0.25331008
64	0xbd82d8f3	-0.06389036
65	0x3cd22229	0.025651054
66	0x3ee78e5b	0.45225796
67	0xbdb5d011	-0.08877576
68	0x3eb6f096	0.35730428
69	0x3e2b0aa0	0.16703272
70	0x3e7d230a	0.24720398
71	0xbedaf1ca	-0.42762595
72	0x3d86da23	0.06584575
73	0x3e3eab9a	0.18620148
74	0xbd978b6f	-0.07399642
75	0xbeae640c	-0.34060705
76	0x3e758436	0.23976216
77	0xbed54caa	-0.41660053
78	0xbeda0418	-0.42581248
79	0xbe8755dd	-0.26432696
80	0x3e52fada	0.20603505
81	0x3e879885	0.2648355
82	0x3ea1d9de	0.31611532
83	0xbd88f2f9	-0.06686968
84	0x3e36333f	0.17792986
85	0x3db81844	0.08989003
86	0x3d88c71f	0.06678604
87	0x3ee01204	0.43763745
88	0xbeef8bf1	-0.46786454
89	0xbeb72a9c	-0.35774696
90	0x3e586bb5	0.21134837
91	0xbd52e731	-0.051490013
92	0x3ca77512	0.020441566
93	0xbe8c9f31	-0.27465203
94	0xbe0abd11	-0.13548686
95	0x3e5dce27	0.21660672
96	0xbebcb898	-0.36859584
97	0x3e4e39da	0.20139256
98	0x3e43b53e	0.19112107
99	0x3c5b26bb	0.013375933
100	0xbeda20d7	-0.4260318
101	0xbd18eab2	-0.037333198
102	0xbe059354	-0.13044482
103	0x3ed03322	0.4066401
104	0xbe2b6375	-0.16737159
105	0xbe71703c	-0.2357797
106	0xbede4214	-0.4340979
107	0xbea19bbc	-0.31564128
108	0xbe5dfb05	-0.21677788
109	0x3d7720e9	0.06033412
110	0x3e6aa1d9	0.22913302
111	0xbe2bf51d	-0.16792722
112	0xbea32bc1	-0.3186932
113	0xbed8b96a	-0.4232896
114	0x3d5e60b6	0.05429145
115	0x3efb510a	0.49085265
116	0x3e112777	0.14175211
117	0xbdcea8b1	-0.10090769
118	0xbe53ef0b	-0.20696656
119	0x3e6c13d2	0.23054436
120	0x3efba77a	0.49151212
121	0xbd761f95	-0.060088713
122	0x3dd18cd1	0.10231937
123	0xbdae3df5	-0.08507911
124	0x3d60066e	0.05469363
125	0x3e8db761	0.2767897
126	0x3e2f7bc8	0.17137063
127	0xbd23bafa	-0.039973237

fc2.weight f4 [128, 128]
0	0x3d558787	0.052131202
1	0xbdabf37e	-0.08396052
2	0xbd3f39b5	-0.046685893
3	0x3cca36b8	0.024684295
4	0x3ddfcc6a	0.10927661
5	0xbd613010	-0.054977477
6	0x3d9516f9	0.07279772
7	0xbd8a0ba9	-0.06740505
8	0xbd6e3de9	-0.05816451
9	0x3e0a3f0d	0.13500614
10	0xbc8cc433	-0.017183399
11	0xbd41b215	-0.047288973
12	0xbd7af852	-0.061271973
13	0x3d009029	0.03138748
14	0xbdae3515	-0.08506218
15	0x3c957ae3	0.018247074
16	0x3d7435be	0.059621565
17	0xbd30bed3	-0.043150734
18	0x3da9696e	0.08272062
19	0x3d8d1b6b	0.06889995
20	0x3d6971b1	0.05699319
21	0x3d6274af	0.05528706
22	0x3cc645d4	0.024203219
23	0xbbd3c775	-0.006462986
24	0x3d97505f	0.073883764
25	0x3ca69862	0.020336334
26	0xbb7d9d86	-0.0038698628
27	0x3dfe231c	0.1240904
28	0x3ddb641a	0.10712452
29	0xbd4f5c8f	-0.05062538
30	0xbd8d1d9e	-0.06890415
31	0xbb77e30a	-0.0037824535
32	0x3d448ecb	0.04798774
33	0x3d8ab98b	0.06773671
34	0xbd2201c4	-0.039552465
35	0xbd4d7945	-0.05016448
36	0x3da9f8d4	0.08299413
37	0x3d752964	0.059853926
38	0xbd18371d	-0.037161935
39	0xbc472b0f	-0.012156262
40	0xbde70260	-0.1127975
41	0xbd58476d	-0.052802492
42	0x3d9b65c3	0.07587769
43	0x3d7ac8d3	0.061226677
44	0x3d02c28d	0.03192382
45	0x3d3f31bb	0.046678286
46	0xbd7e8249	-0.06213597
47	0x3cb0b862	0.021572296
48	0xbd1d561d	-0.038412202
49	0x3d0a6ad0	0.03379327
50	0x3dff930b	0.12479218
51	0x3e387565	0.18013532
52	0x3c751855	0.0149594145
53	0xbd46cc50	-0.04853469
54	0x3bed158c	0.0072352346
55	0x3c0421da	0.0080647115
56	0xbc00e536	-0.007867148
57	0x3cffeabc	0.03123986
58	0x3e231a10	0.15927911
59	0xbd5bbaa1	-0.05364478
60	0xbda87bc9	-0.08226735
61	0x3de18c99	0.11013145
62	0x3d8a7c80	0.06762028
63	0x3de558f1	0.11198605
64	0xbcd35a02	-0.025799755
65	0xbc705cf0	-0.0146705955
66	0xbc606b09	-0.013697394
67	0xbd6b3e37	-0.05743238
68	0x3d181c56	0.0371364
69	0x3dbd980e	0.09257518
70	0x3dbc8389	0.09204776
71	0xbd7a0703	-0.061041843
72	0xbdf9c2ff	-0.12195396
73	0x3e209df0	0.15685248
74	0xbdcbafaf	-0.09945618
75	0x3e0132a5	0.12616976
76	0xbc787f92	-0.015167134
77	0xbcf6fc3d	-0.030149573
78	0x3d9bc303	0.07605555
79	0x3daa6cfc	0.08321568
80	0x3b4f5fb2	0.0031642732
81	0xbda3e523	-0.08002689
82	0x3c9e5d30	0.019331545
83	0x3cfe7ab3	0.031064367
84	0x3e0201f6	0.1269606
85	0x3de180e0	0.11010909
86	0x3d616096	0.055023752
87	0xbcf14d7a	-0.029455889
88	0x3c086da8	0.008326925
89	0x3dfdee20	0.12398934
90	0xbd80272f	-0.06257474
91	0xbe054f81	-0.1301861
92	0xbbf03ca8	-0.0073314495
93	0x3ce42f4f	0.02785459
94	0x3d9581c4	0.073001415
95	0x3d1474b6	0.036244117
96	0xbb36496f	-0.0027814766
97	0xbc7bfdaf	-0.015380307
98	0xbd4e076a	-0.05030004
99	0x3d1d1a41	0.038355116
100	0xbbf3f329	-0.0074447584
101	0xbc9b262a	-0.018939096
102	0x3e0ac94b	0.1355335
103	0x3d1d0211	0.03833205
104	0xbdbfa72a	-0.09358056
105	0x3ce93773	0.028468823
106	0x3d4f07ef	0.050544675
107	0x3c8d8637	0.017275913
108	0x3cd0687f	0.025440453
109	0xbe07b5e7	-0.13252984
110	0x3d509f39	0.050933097
111	0xbd21c250	-0.03949195
112	0x3dc8f104	0.09811595
113	0x3cf1a505	0.029497633
114	0xbd04ada7	-0.03239217
115	0xbd4a4b4f	-0.049388226
116	0xbafb93a3	-0.001919378
117	0xbd0c57f1	-0.034263555
118	0xbda1b23c	-0.07895324
119	0xbd213009	-0.03935245
120	0xbdc14b41	-0.09438182
121	0x3e1f8ead	0.1558177
122	0x3dd47649	0.103741236
123	0x3d3aaa9f	0.045572873
124	0x3e07cdf6	0.13262162
125	0x3dc36548	0.09540802
126	0xbd307bde	-0.04308688
127	0x3d3b2c17	0.045696344
128	0xbc1bdfed	-0.009513837
129	0xbc05977f	-0.008153795
130	0xbbb9ff9a	-0.005676222
131	0xbd29f975	-0.041497666
132	0x3cc745a4	0.0243252
133	0x3d9abab6	0.075551435
134	0xbd908197	-0.07055967
135	0xbd04232d	-0.03226011
136	0x3daf671c	0.085645884
137	0xbd4ab802	-0.04949189
138	0x3cdf59a5	0.027264426
139	0x3dae1fed	0.08502183
140	0x3d8e9be7	0.0696333
141	0xbd84eb1f	-0.06490158
142	0x3d4d336b	0.050097864
143	0xbd4bd8c1	-0.04976726
144	0x3d13dba8	0.036098152
145	0x3c82b494	0.015955247
146	0xbd24bc88	-0.04021886
147	0xbca17a3a	-0.019711602
148	0xbd22668a	-0.03964857
149	0x3d20b43c	0.039234385
150	0xbce91f0d	-0.028457189
151	0xbd4962dc	-0.049166545
152	0xbdb07f11	-0.08617986
153	0x3c197528	0.009366311
154	0xbdc2937f	-0.09500789
155	0x3d977c30	0.07396734
156	0x3d3807ea	0.044929422
157	0xbd9d79cf	-0.07689249
158	0xbd89bb87	-0.06725221
159	0x3bae8a2e	0.005326531
160	0x3b9e18f3	0.0048247515
161	0x3ca683d7	0.020326538
162	0x3d6f15ed	0.05837052
163	0x3ce20853	0.02759186
164	0x3d5a8035	0.053344924
165	0xbc9fd9e3	-0.019513076
166	0x3595e300	1.1167431e-06
167	0x3d9ecc6c	0.07753834
168	0x3ce12481	0.027483227
169	0xbb8adf75	-0.004238064
170	0xbdb7b71b	-0.089704715
171	0xbd6b3e5c	-0.057432517
172	0x3ca37d00	0.019957066
173	0x3d3f541f	0.046711084
174	0x3bc92ad9	0.006139141
175	0x3ced7a3d	0.028988952
176	0x3cd6c8cf	0.0262188
177	0x3d8fd80a	0.07023628
178	0xbbc45d82	-0.0059925923
179	0xbe011e1b	-0.1260914
180	0xbd0e8b45	-0.034800787
181	0x3ce8a081	0.028396847
182	0x3df65d62	0.1202953
183	0x3d6b786d	0.057487894
184	0x3d5dadb7	0.054120746
185	0x3cb50915	0.022099057
186	0xbcbdd2eb	-0.023171863
187	0xbd843573	-0.06455507
188	0xbc02b2ca	-0.007977197
189	0xbcc3a2c7	-0.02388133
190	0x3d987ccb	0.07445677
191	0xbdb72f87	-0.08944612
192	0x3de0c4c5	0.10975031
193	0x3d2ca1bc	0.04214643
194	0x3d841a98	0.06450385
195	0x3dfa67db	0.1222684
196	0x3d61f5cb	0.055166047
197	0x3d429ad5	0.04751094
198	0x3d0408a9	0.03223482
199	0xbd82cbb2	-0.06386508
200	0xbc8bbb55	-0.0170571
201	0xbd9921ae	-0.07477127
202	0xbbf38bd9	-0.0074324426
203	0xb9f48f60	-0.0004664613
204	0xbba0e6a1	-0.0049103056
205	0x3be4e144	0.0069848616
206	0x3da8811a	0.08227749
207	0x3bee63ff	0.007275104
208	0xbbf4b2e5	-0.007467615
209	0x3c5d954d	0.013524366
210	0xbbb36ed6	-0.005475859
211	0xbce7d61a	-0.028300334
212	0xbdc49980	-0.0959959
213	0x3cb31985	0.021862755
214	0xbdc1dff3	-0.09466543
215	0xbda272f3	-0.07932081
216	0x3d7d0a56	0.061777435
217	0xbc184eb4	-0.009296108
218	0x3d2734d5	0.04082187
219	0x3d017984	0.031610027
220	0x3d417c4f	0.04723769
221	0x3ba0a4c8	0.004902456
222	0x3b4f5efd	0.003164231
223	0x3db9bbca	0.09069021
224	0xbd88be46	-0.06676917
225	0x3dc2eb0d	0.09517489
226	0xba82a2b8	-0.0009966707
227	0x3a35c8c7	0.000693452
228	0x3d9c8e6d	0.07644353
229	0x3d861bf3	0.065483
230	0x3cbfbb80	0.023404837
231	0x3cd2ebc1	0.025747182
232	0x3da4c47d	0.0804529
233	0x3d3c8b0f	0.046031054
234	0xbdafdead	-0.08587394
235	0xbd59ab83	-0.053142082
236	0x3d7ebc42	0.062191255
237	0x3e1319df	0.14365338
238	0xbd4c42dc	-0.04986845
239	0x3d48e203	0.049043667
240	0x3bad8247	0.0052950713
241	0xbd950041	-0.07275439
242	0x3da1f55c	0.07908127
243	0x3d077bd0	0.03307706
244	0xbd8018b2	-0.0625471
245	0xbcd11789	-0.025523918
246	0xbd4557c9	-0.04817942
247	0xbbea0438	-0.007141616
248	0x3dc6c0f5	0.097047724
249	0xbdedf841	-0.11619616
250	0xbdb7539e	-0.089514956
251	0xbbb59fd7	-0.005542736
252	0xbe2b0692	-0.16701725
253	0x3d90548e	0.070473775
254	0x3dc96e22	0.09835459
255	0x3d4b6443	0.049656164

fc2.bias f4 [128]
0	0x3c92c1de	0.017914709
1	0xbd8f63fd	-0.07001493
2	0x3ce8258a	0.028338213
3	0xbc36992a	-0.011144916
4	0x3d8ec4e1	0.069711454
5	0xbd6925a6	-0.05692067
6	0x3d9ced1e	0.07662414
7	0xbc5095a8	-0.012730993
8	0xbd835e84	-0.06414512
9	0xbd98167c	-0.074261636
10	0x3d5fe395	0.0546604
11	0xbd983fc5	-0.07434038
12	0xbc57160e	-0.013127817
13	0xbd07032d	-0.032962013
14	0x3daadf32	0.083433524
15	0xbcaa5561	-0.020792665
16	0x3cba70c6	0.022758853
17	0xbd8f48d2	-0.06996311
18	0xbd60bb9b	-0.054866415
19	0x3d19dde6	0.037565134
20	0x3ccdf8b9	0.025143014
21	0x3db6c13b	0.089235745
22	0x3b6eabea	0.0036418387
23	0xbc545fb3	-0.01296227
24	0x3daf610e	0.085634336
25	0x3b39dd57	0.0028360689
26	0xbd8c29ea	-0.06843932
27	0x3d0af791	0.033927504
28	0xbd32bb4f	-0.043635663
29	0x3c9a4de0	0.018835962
30	0x3d73997c	0.059472546
31	0x3d81519d	0.063143946
32	0x3d9ee134	0.07757798
33	0xbd017069	-0.031601343
34	0xbd6b3693	-0.057425093
35	0x3c97b1c8	0.01851739
36	0xbc0cf981	-0.008604408
37	0xbcbb3312	-0.0228515
38	0xbdb48533	-0.08814468
39	0x3d7af91a	0.061272718
40	0xbcaeaa58	-0.02132146
41	0xbda1551e	-0.07877563
42	0xbc30b377	-0.010784975
43	0xbc06f3aa	-0.008236805
44	0x3d0d40b5	0.034485538
45	0x3d80e455	0.06293551
46	0xba2ec82d	-0.0006667402
47	0xbd295d95	-0.041349012
48	0xbd4f774c	-0.05065088
49	0xbd9c2363	-0.07623937
50	0xbcd29827	-0.025707318
51	0x3d9e6bd6	0.07735412
52	0x3ce51e4b	0.027968546
53	0x3d56f77c	0.052482113
54	0x3d84d437	0.06485789
55	0x3d5aa123	0.05337633
56	0xbd0a85ae	-0.033818893
57	0xbc834559	-0.016024278
58	0x3d3433b6	0.043994628
59	0x3c0f28fa	0.008737797
60	0x3d205d55	0.03915151
61	0x3d5080e3	0.050904166
62	0xbdaa5c61	-0.08318401
63	0xbcceb1fd	-0.025231356
64	0x3d8bc880	0.06825352
65	0x3dbbfe57	0.09179371
66	0x3b798e06	0.0038079037
67	0xbd1b21d9	-0.037874077
68	0xbdb30b67	-0.08742409
69	0xbb5f60e1	-0.0034084844
70	0x3d055493	0.03255136
71	0xbd638475	-0.055546243
72	0xbd6b6e20	-0.05747807
73	0x3d5d836a	0.054080404
74	0x3da11a7f	0.07866382
75	0xbcd87d13	-0.026426828
76	0x3d0a36aa	0.033743538
77	0x3d929e7a	0.07159133
78	0x3d71be20	0.059019208
79	0x3d9bd3f0	0.07608783
80	0xbdbc63d3	-0.091987275
81	0x3d9964f3	0.07489958
82	0xbdadbdce	-0.08483468
83	0xbb778c20	-0.003777273
84	0x3cc62d5b	0.024191549
85	0x3d0bc9eb	0.03412811
86	0xbca44dd5	-0.020056644
87	0x3dafbee1	0.08581329
88	0x3c6b3348	0.014355488
89	0x3d226bd9	0.039653633
90	0x3ca7b35b	0.020471266
91	0xbdb359d7	-0.0875737
92	0xbd07a805	-0.03311922
93	0xbd54b0db	-0.051926475
94	0xbd3e69fd	-0.046487797
95	0x3d70e4c2	0.05881191
96	0x3cf80095	0.030273715
97	0x3cc604a4	0.024172135
98	0x3ce10960	0.02747029
99	0x3d201216	0.039079748
100	0xbd0f5462	-0.034992583
101	0xbc463c8b	-0.0120993955
102	0xbd5e1da0	-0.05422747
103	0xbd735e5e	-0.059416167
104	0x3cebcb04	0.028783329
105	0x3cde99f8	0.027173027
106	0x3d0667af	0.032813724
107	0xbc807a7b	-0.015683403
108	0x3d004e0f	0.031324442
109	0x3dada1c6	0.084781215
110	0x3d61f351	0.055163685
111	0xbd81b538	-0.06333393
112	0x3d5fd661	0.054647807
113	0xbc1e4a9a	-0.009661341
114	0x3d27da26	0.040979527
115	0x3d81205e	0.06305002
116	0xbd266b53	-0.040629696
117	0xbbd960c4	-0.00663385
118	0xb9aa18d5	-0.00032443428
119	0x3dc3de47	0.095638804
120	0xbcb27b84	-0.021787412
121	0x3c415671	0.011800394
122	0x3c6bb0a7	0.014385379
123	0xbd0b36e3	-0.03398789
124	0xbd5cc60c	-0.05389981
125	0x3dcf78e0	0.10130477
126	0x3d9c1b63	0.07622411
127	0x3d2f936e	0.04286521

prob.weight f4 [2, 128]
0	0x3d669fe4	0.056304827
1	0xbdbc2c56	-0.09188144
2	0x3dfe513b	0.12417837
3	0x3df7eaaf	0.12105309
4	0x3dff1fd3	0.12457242
5	0xbd983e27	-0.074337296
6	0xbd8a7f90	-0.06762612
7	0xbd9d9b8a	-0.07695682
8	0x3d91c4ef	0.0711764
9	0x3d845a3a	0.06462522
10	0xbda1344b	-0.07871302
11	0x3c2c6573	0.010522234
12	0x3d66774a	0.056266107
13	0xbded3f91	-0.1158439
14	0xbbbbc975	-0.0057308027
15	0xbdb91755	-0.09037653
16	0x3ce9a651	0.028521689
17	0xbce54e13	-0.02799133
18	0x3d1875e0	0.03722179
19	0x3b544580	0.0032390058
20	0x3e078f7d	0.1323833
21	0x3e048c08	0.12944043
22	0x3c5da0d0	0.01352711
23	0x3dd5dcd6	0.10442512
24	0xbdc223d6	-0.094794914
25	0x3d43eb25	0.047831673
26	0x3d81dd3b	0.063410245
27	0xbc01eedc	-0.007930484
28	0x3d8d2d25	0.06893376
29	0x3d71b2c4	0.059008375
30	0xbe028c98	-0.12748945
31	0xbd0f9bea	-0.0350608
32	0x3d406e08	0.046979934
33	0xbd80c4a3	-0.062875055
34	0x3d6cd565	0.057820696
35	0x3d94f39c	0.07273027
36	0xbc81eb20	-0.015859187
37	0x3ddef3b6	0.10886328
38	0xbd217ef0	-0.039427698
39	0x3d1f93f8	0.038959473
40	0xbde13e51	-0.10998214
41	0x3d436353	0.047702145
42	0x3a5c1f6a	0.0008397015
43	0xbd98ef03	-0.07467463
44	0x3dc49d83	0.096003555
45	0x3e06ac28	0.1315161
46	0xbd91c67b	-0.07117935
47	0xbdd3bdef	-0.10338961
48	0x3d97110f	0.073763005
49	0x3d0256b6	0.031820975
50	0x3d411bcd	0.047145654
51	0xbdd4464c	-0.103649706
52	0xbd6246ba	-0.05524323
53	0xbd7141b0	-0.058900535
54	0xbd0999cf	-0.03359395
55	0xbd86d608	-0.06583792
56	0xbc9d8920	-0.019230425
57	0x3d70cb07	0.058787372
58	0xbcb50f90	-0.022102147
59	0xbc44acc4	-0.012004081
60	0x3d781bfe	0.06057357
61	0x3d9b571a	0.07584973
62	0xbdad2e71	-0.084561236
63	0xbdbae31a	-0.091253474
64	0xbdfef109	-0.124483176
65	0xbddc6952	-0.10762276
66	0xbc25e6c2	-0.010125818
67	0x3de0fe11	0.10985959
68	0xbce13073	-0.027488923
69	0x3c8572c1	0.01629007
70	0xbd15ef50	-0.03660518
71	0x3c87a3b4	0.016557552
72	0x3d23fc5b	0.040035587
73	0xbd9c6f0d	-0.07638369
74	0xbe10a6a3	-0.14126067
75	0xbc0dd7a9	-0.008657374
76	0xbda75d68	-0.08172113
77	0xbdd97c98	-0.106194675
78	0x3a2a5a60	0.0006498452
79	0xbdb0017a	-0.08594032
80	0xbd81f462	-0.063454404
81	0x3c15fc95	0.0091544585
82	0xbd0854d0	-0.03328401
83	0xbccef14c	-0.025261544
84	0xbdca405f	-0.09875559
85	0x3dba3949	0.090929575
86	0xbd738de6	-0.059461497
87	0x3e181f1c	0.14855617
88	0xbc89e28b	-0.016831657
89	0x3ddd0057	0.107910804
90	0xbdf11260	-0.11771083
91	0x3d95bd7b	0.07311531
92	0x3defdaf3	0.11711683
93	0x3d908135	0.07055894
94	0xbc3ca723	-0.011514458
95	0x3d30ab34	0.043132022
96	0x3e1bc937	0.15213476
97	0x3d08e6aa	0.033423103
98	0x3dfe3b40	0.12413645
99	0xbd317f0c	-0.043334052
100	0xbabee79b	-0.0014564873
101	0x3d7946f6	0.06085869
102	0xbd25b76c	-0.040458128
103	0x3dc24732	0.09486236
104	0xbb058e09	-0.002037885
105	0x3d291001	0.04127503
106	0xbdd0e404	-0.101997405
107	0xbda0e162	-0.07855488
108	0x3c04add0	0.008098081
109	0xbc6ddb32	-0.014517592
110	0xbd8037f6	-0.06260674
111	0x3d946b04	0.07246974
112	0xbd900839	-0.07032818
113	0xbc21b4cc	-0.0098697655
114	0x3dc5f2fe	0.09665488
115	0x3ddd5c7f	0.10808658
116	0xbd55d1d6	-0.05220207
117	0x3b9fd433	0.004877591
118	0x3d4899d3	0.048974823
119	0xbe21b4dc	-0.15791649
120	0x3d2e6f6a	0.04258672
121	0x3ce0766a	0.027400214
122	0xbc2b143c	-0.010441836
123	0x3c0af1f0	0.008480534
124	0x3b503b6e	0.0031773704
125	0x3e11d3a9	0.14240898
126	0xbca1e5ef	-0.019762961
127	0xbdb0cc5a	-0.08632727
128	0xbd671189	-0.056413207
129	0xbb5b606c	-0.003347422
130	0xbd5b2fe5	-0.053512473
131	0xbe1164cb	-0.14198606
132	0xbd63530c	-0.05549912
133	0xbc868d60	-0.016424835
134	0x3d5ea6ae	0.054358177
135	0x3d3c3f96	0.045959078
136	0xbdd4a63f	-0.103832714
137	0xbcd3f3ff	-0.025873182
138	0xbd5d529c	-0.05403386
139	0xbe11ef03	-0.14251332
140	0xbbc6c6ce	-0.00606618
141	0x3ad60e61	0.001633119
142	0xbe0d2ae9	-0.137859
143	0x3e0ae918	0.1356548
144	0x3d0a21bc	0.033723578
145	0x3cd0045a	0.0253927
146	0xbc9681ce	-0.018372443
147	0x3c241060	0.01001367
148	0xbdbba58d	-0.09162436
149	0x3cc6e923	0.02428109
150	0x3d5e05fa	0.05420492
151	0x3cba0d23	0.022711342
152	0x3cb58776	0.02215932
153	0xbdb0480e	-0.08607493
154	0xbd5f610a	-0.054535903
155	0x3e13e9eb	0.14444701
156	0x3cff346d	0.031152928
157	0x3d8fd9da	0.07023974
158	0x3da84905	0.08217052
159	0x3e0a8445	0.1352702
160	0xbdab145c	-0.083534926
161	0x3dd2ba4e	0.10289441
162	0xbdff0b9c	-0.12453386
163	0xbd1724e6	-0.036900423
164	0x3db56250	0.08856642
165	0xbda3556e	-0.07975279
166	0xbd38b75f	-0.04509675
167	0xbd90ebe4	-0.070762426
168	0x3df98848	0.12184197
169	0xbd6a8672	-0.057257123
170	0x3b98bbf2	0.0046610767
171	0xbd239e34	-0.039945796
172	0xbcbd9116	-0.023140471
173	0x3cb12779	0.021625267
174	0x3d3ab0ca	0.045578755
175	0x3deb6e73	0.11495676
176	0xbd8a57d5	-0.06755034
177	0x3d382aff	0.04496288
178	0x3dd1af08	0.10238463
179	0x3d7b1afe	0.06130504
180	0x3dc1ea79	0.0946855
181	0x3d6e89c6	0.05823686
182	0xbbb3cd41	-0.0054871147
183	0x3e059b0b	0.13047425
184	0x3c3c42a0	0.011490494
185	0xbd888aaf	-0.06667077
186	0xbb71c9a0	-0.003689386
187	0xbd9c39d9	-0.07628221
188	0xbb180b39	-0.0023200049
189	0xbe0a1ca9	-0.13487495
190	0x3c8ba098	0.01704435
191	0x3e048878	0.12942684
192	0x3cd6d062	0.026222412
193	0x3cd6ac7b	0.026205292
194	0x3d309d59	0.04311881
195	0xbde5b669	-0.112164326
196	0x3db2cd58	0.087305725
197	0xbd3fac84	-0.046795383
198	0x3d177df6	0.03698536
199	0x3caf70ee	0.021416154
200	0xbd08c3b1	-0.03338975
201	0x3d1d7a03	0.038446438
202	0x3d6f0de8	0.05836287
203	0x3d958cd7	0.07302254
204	0x3d81c324	0.06336048
205	0x3e1602a7	0.1464945
206	0xbd8f3a99	-0.069935985
207	0xba2aec49	-0.00065201946
208	0x39f4267f	0.00046567988
209	0x3dc007a8	0.0937646
210	0xbd15c2b1	-0.036562625
211	0x3c0b0c78	0.0084868595
212	0x3c89e3b1	0.016832205
213	0xbde02199	-0.10943908
214	0x3db5266d	0.0884522
215	0x3c0427b7	0.008066109
216	0xbc81be2e	-0.015837755
217	0xbd9cd591	-0.07657922
218	0x3dd41449	0.103554316
219	0x3d3734a6	0.044727944
220	0xbbde3e2d	-0.0067823143
221	0xbd413931	-0.047173683
222	0x3cf76cd6	0.030203264
223	0x3d4c6edb	0.049910408
224	0x3bba2f82	0.005681933
225	0xbbdb3410	-0.006689556
226	0xbd349665	-0.04408874
227	0xbd32e3ae	-0.043674164
228	0xbcb375d4	-0.02190677
229	0xbb930fdb	-0.004487974
230	0xbd287a3e	-0.041132204
231	0xbd09a840	-0.03360772
232	0x3dca136b	0.09866985
233	0xbd7435c8	-0.059621602
234	0x3d4b2f90	0.049605906
235	0x3d96fc1d	0.073723055
236	0xbdd4c752	-0.1038958
237	0xbdd79bbc	-0.10527751
238	0x3d830231	0.06396902
239	0xbcc18f3d	-0.023627872
240	0x3de0dddf	0.109798186
241	0xbc28a70e	-0.010293735
242	0xbd98e810	-0.074661374
243	0x3c5dbeea	0.013534287
244	0x3da1615e	0.078798994
245	0x3d558173	0.052125406
246	0x3d58f6d6	0.052969776
247	0x3d68d113	0.056840014
248	0x3d73d06a	0.05952493
249	0xbcbeb2f4	-0.02327869
250	0xbb2586ba	-0.0025257305
251	0xb9a7b200	-0.00031985343
252	0x3e1bf006	0.1522828
253	0xbd7b0204	-0.06128122
254	0x3db84c73	0.089989565
255	0xbd71edbc	-0.05906461

prob.bias f4 [2]
0	0x3d079ccc	0.033108518
1	0xbda0360e	-0.0782281
