RLIntro/Reinforce/checkpoints/Reinforce_discrete/Reinforce_policy_2400.pth (torch_old, 70658 bytes, 6 tensors)

fc1.weight f4 [128, 4]
0	0xbe5a4b58	-0.21317804
1	0xbec432d7	-0.38320038
2	0xbd5eb772	-0.054374166
3	0x3c008df9	0.007846349
4	0x3e8eebcc	0.27914274
5	0xbcdba17c	-0.0268104
6	0x3e53e7a1	0.20693828
7	0x3e1b9331	0.15192868
8	0x3dc19083	0.094513915
9	0xbc0eb9e9	-0.008711317
10	0xbe4a95d5	-0.19783719
11	0xbc06f4cf	-0.008237078
12	0x3e761b76	0.24033913
13	0xbeb9b76c	-0.36272752
14	0xbe914c1e	-0.28378385
15	0x3eafd0ac	0.34338892
16	0xbea5411c	-0.32276237
17	0xbe584356	-0.21119437
18	0x3e6da420	0.2320714
19	0xbeb96f05	-0.36217514
20	0x3e9a6d66	0.3016159
21	0x3eab16e7	0.3341591
22	0xbd64de8c	-0.0558763
23	0xbeaadc46	-0.3337118
24	0x3eeb1f32	0.45922238
25	0x3e4b7022	0.19866994
26	0xbe648279	-0.22315396
27	0xbf0fb5f8	-0.5613704
28	0x3e287d8a	0.1645414
29	0x3ed6619b	0.41871342
30	0x3f2639b5	0.64931804
31	0x3e170607	0.14748393
32	0x3e4d6a19	0.20060004
33	0x3d9c5503	0.07633402
34	0xbef2a0a5	-0.47388187
35	0xbbc04e57	-0.005868714
36	0xbd984cb3	-0.07436504
37	0xbde53083	-0.111908935
38	0xbebb4629	-0.36576965
39	0xbf072b89	-0.52800804
40	0x3ec875ef	0.39152476
41	0x3db3383a	0.08750959
42	0x3e202d07	0.15642177
43	0x3f12a673	0.5728523
44	0x3ed816d2	0.4220491
45	0xbe7332a5	-0.23749788
46	0x3ea502b6	0.3222863
47	0x3ec630d5	0.3870913
48	0xbeda8c1d	-0.42685023
49	0xbe78219a	-0.24231568
50	0xbe88fe39	-0.26756456
51	0x3e53ea29	0.20694794
52	0xbeda965f	-0.4269285
53	0xbb5d8734	-0.0033802511
54	0x3d2a2800	0.041542053
55	0xbc39f8ae	-0.011350794
56	0xbe6e202d	-0.23254462
57	0xbeac2646	-0.3362295
58	0x3f1b0463	0.6055357
59	0x3dc0d1a1	0.094149835
60	0x3da585b8	0.080821455
61	0xbeb6612d	-0.35621014
62	0xbe20aced	-0.15690966
63	0xbe52ead5	-0.20597394
64	0xbed7fab5	-0.42183462
65	0xbf05c3b6	-0.52251756
66	0xbea6aa59	-0.3255184
67	0xbf02c12c	-0.51076007
68	0x3e239e28	0.159783
69	0xbe1d5db4	-0.15367776
70	0x3e83f42a	0.2577222
71	0xbea8a9e2	-0.3294211
72	0xbeaa496d	-0.33259144
73	0xbdc89fbc	-0.09796092
74	0xbe4ead50	-0.20183301
75	0xbf007b24	-0.501879
76	0x3dbdde16	0.09270875
77	0xbe31c581	-0.17360498
78	0xbf29137a	-0.66045344
79	0xbea5801a	-0.32324296
80	0x3d407c4b	0.046993535
81	0x3ec983b7	0.39358303
82	0xbe957d52	-0.29197174
83	0x3d3dcd35	0.04633828
84	0x3e36c462	0.17848352
85	0xbdb8a993	-0.09016719
86	0xbf1376ec	-0.57603335
87	0xbf029ad3	-0.51017493
88	0xbedecd2f	-0.43515918
89	0x3e6a9e2b	0.22911899
90	0xbeeff675	-0.4686772
91	0xbf02b41f	-0.5105609
92	0xbebcfce3	-0.36911687
93	0xbe5357e1	-0.20638992
94	0xbf279c3f	-0.6547279
95	0xbeb2e6b0	-0.34941626
96	0xbe17373e	-0.14767167
97	0xbed0e8c7	-0.40802595
98	0x3c3928ef	0.011301263
99	0x3df757f6	0.12077324
100	0xbddce182	-0.107852
101	0x3e08269e	0.13295981
102	0x3e884b64	0.26620018
103	0x3d1b6d6b	0.037946146
104	0xbe5ae825	-0.21377619
105	0xbd196502	-0.037449844
106	0xbf094e94	-0.53635526
107	0xbefea036	-0.49731606
108	0x3e36b17f	0.17841147
109	0xbdbe2ca8	-0.09285861
110	0xbed2503f	-0.41076848
111	0xbeeac673	-0.4585453
112	0xbe8c3daf	-0.2739081
113	0x3e852be0	0.26010036
114	0xbdabbc01	-0.08385468
115	0xbeff6b30	-0.49886465
116	0xbe804a17	-0.25056526
117	0xbd65156e	-0.05592864
118	0xbd7aaaf9	-0.06119821
119	0xbde17d49	-0.11010224
120	0x3e7a963d	0.24471374
121	0x3d78ef48	0.06077507
122	0xbe3411d5	-0.17584927
123	0xbe297267	-0.16547547
124	0x3e673a55	0.22580846
125	0x3e9a936a	0.30190593
126	0xbdf12aeb	-0.11775764
127	0xbef2386f	-0.4730868
128	0xbe2a1b40	-0.16611958
129	0xbe9b4cda	-0.3033207
130	0xbea51933	-0.32245788
131	0x3cee5552	0.029093418
132	0xbed7c9e1	-0.4214621
133	0x3ea95571	0.33073
134	0xbec6e938	-0.38849807
135	0xbda5f288	-0.081029
136	0x3dcae381	0.09906674
137	0x3e8988d2	0.26862198
138	0xbf01ab38	-0.50651884
139	0xbcf18d4b	-0.029486319
140	0xbdc7196e	-0.09721647
141	0x3eb3f1c0	0.35145378
142	0x3dfd1223	0.12356975
143	0xbeb4469e	-0.35210127
144	0x3ed9bb07	0.42525503
145	0xbeb80066	-0.35937804
146	0xbee7946e	-0.4523043
147	0x3e7de7fb	0.24795525
148	0xbea94f0c	-0.3306812
149	0xbe18fc7b	-0.14940064
150	0x3f290a80	0.66031647
151	0x3e9537d6	0.29144162
152	0x3e677434	0.22602922
153	0x3ea4338a	0.3207057
154	0x3e6e8bea	0.2329556
155	0x3ed29705	0.41130844
156	0x3ed1421d	0.40870753
157	0x3d32ab1c	0.043620214
158	0x3e0e9a93	0.13926153
159	0x3e94de93	0.2907606
160	0x3ec07ba0	0.37594318
161	0x3ebd3658	0.36955523
162	0x3ed40b04	0.41414654
163	0x3eea38a7	0.45746347
164	0xbdcf4a76	-0.10121624
165	0x3ee12541	0.43973735
166	0x3eec68e0	0.46173763
167	0x3edaf49f	0.42764756
168	0x3e03a66b	0.12856452
169	0x3e9c4c51	0.30526975
170	0xbef6553d	-0.48111907
171	0xbe80ee38	-0.25181746
172	0xbde347d7	-0.11097687
173	0xbe2b80e2	-0.16748384
174	0x3f00b1bd	0.5027121
175	0x3efafb61	0.49019912
176	0xbe7ba2bd	-0.24573798
177	0xbe8aa740	-0.27080727
178	0x3e5a72be	0.21332833
179	0xbe9ac276	-0.30226487
180	0x3eabc75b	0.33550534
181	0x3e7f2664	0.24916989
182	0xbcc956ed	-0.024577582
183	0x3eee2cb4	0.4651848
184	0xbe2a4877	-0.16629206
185	0x3ec03fb0	0.3754859
186	0x3f25562b	0.64584607
187	0x3db86973	0.09004488
188	0x3ee0910f	0.4386067
189	0xbe9f4839	-0.3110979
190	0x3da4af62	0.08041264
191	0x3f0f0e9f	0.55881685
192	0x3e86a626	0.26298636
193	0xbee9c650	-0.45659113
194	0xbeb719bc	-0.3576182
195	0x3e1277e6	0.1430355
196	0xbe67f6f3	-0.22652797
197	0x3ef37489	0.47549847
198	0x3e744c75	0.23857291
199	0x3ec0ebdf	0.37679955
200	0x3e5ed8ee	0.2176244
201	0xbe504fb8	-0.2034291
202	0xbeaae578	-0.33378196
203	0xbf1c9baa	-0.61175025
204	0x3ea4b5a8	0.32169843
205	0xbea477d7	-0.3212268
206	0xbf02b1a8	-0.5105233
207	0xbe975617	-0.2955787
208	0x3eae0496	0.33987874
209	0xbdcb7127	-0.099336915
210	0x3e02fff6	0.12792954
211	0x3e30956c	0.172445
212	0x3dbdbece	0.09264909
213	0x3ec81655	0.39079538
214	0x3f13d4dd	0.5774668
215	0xbd8d43f3	-0.06897726
216	0x3f05a5d2	0.52206147
217	0x3ee2ed82	0.4432183
218	0xbe91b779	-0.2846029
219	0x3ee87702	0.45403296
220	0xbec0e370	-0.3767352
221	0xbe3094b2	-0.17244223
222	0xbebb9010	-0.36633348
223	0xbe457431	-0.19282605
224	0xbde038ed	-0.10948358
225	0x3eb2c423	0.34915265
226	0xbec8141d	-0.39077845
227	0xbe9378a8	-0.2880299
228	0xbe22e75b	-0.15908568
229	0x3dcdfad0	0.10057604
230	0x3c891699	0.016734408
231	0xbf0ed210	-0.5578928
232	0xbe581903	-0.21103291
233	0xbeeac4d8	-0.45853305
234	0xbeef80a5	-0.46777835
235	0xbed95794	-0.4244963
236	0xbeb118b4	-0.3458916
237	0xbe20d21f	-0.15705155
238	0xbe828ad0	-0.2549653
239	0x3f146877	0.579719
240	0xbed7f381	-0.42177966
241	0x3e658cb7	0.2241696
242	0x3f10061b	0.56259316
243	0x3e821d3c	0.2541293
244	0xbf00575c	-0.501333
245	0x3ea5abb3	0.3235756
246	0xbe2665ae	-0.16249725
247	0xbe5bfc64	-0.21482998
248	0x3ea24c6e	0.31698936
249	0x3e87cbb9	0.26522616
250	0x3d92abfd	0.071617104
251	0xbe822ac9	-0.25423267
252	0x3bd888f8	0.006608125
253	0xbec81994	-0.39082015
254	0xbeb9ada0	-0.36265278
255	0x3ddf190e	0.10893451

fc1.bias f4 [128]
0	0xbe899b26	-0.2687618
1	0xbe0e9ff8	-0.1392821
2	0xbe1d6fca	-0.15374675
3	0xbea2d103	-0.31800088
4	0x3edc3954	0.43012488
5	0x3e2cb564	0.1686607
6	0xbe07ac17	-0.13249241
7	0xbe45aaca	-0.19303432
8	0x3e6ac781	0.22927667
9	0x3ec135bb	0.37736306
10	0xbeb8035f	-0.35940072
11	0x3d71d6ee	0.059042864
12	0xbe0a3402	-0.13496402
13	0xbe927b85	-0.28609863
14	0x3de4d4d3	0.111734055
15	0x3ec9b268	0.39393926
16	0xbc6e7562	-0.014554353
17	0xbef2cdca	-0.4742263
18	0x3e88566f	0.26628444
19	0x3eb69cf2	0.35666615
20	0xbe9bb1f3	-0.30409202
21	0x3ece970c	0.40349615
22	0x3eccca6a	0.3999818
23	0x3eb17cc2	0.34665495
24	0xbe7adeb7	-0.24499021
25	0xbe831fe5	-0.2561027
26	0x3ed8b7c3	0.423277
27	0x3edb990c	0.42890203
28	0xbc6ecd5f	-0.0145753315
29	0xbe9ea910	-0.3098836
30	0x3e184a5b	0.14872114
31	0x3bde4285	0.006782832
32	0xbe5d9729	-0.21639694
33	0x3e303626	0.17208156
34	0xbc07923f	-0.008274614
35	0x3ea7f522	0.3280421
36	0xbecb4b31	-0.39705804
37	0x3ecb00c4	0.39649022
38	0x3e8cfc33	0.27536163
39	0xbd9b5647	-0.075848155
40	0xbe9f4c31	-0.31112817
41	0x3d391d47	0.045193937
42	0x3e8e7ae2	0.27828127
43	0xbe242413	-0.16029386
44	0xbe4dffd5	-0.20117123
45	0x3ef9f6f1	0.48821214
46	0xbc540c37	-0.012942365
47	0x3e83edb7	0.257673
48	0x3da641e7	0.081180386
49	0x3eb101b7	0.3457162
50	0xbebabce5	-0.3647224
51	0x3e1fa6f3	0.1559103
52	0x3ed6b63e	0.41935915
53	0x3e2cd8a8	0.16879523
54	0xbe728f24	-0.23687416
55	0x3e9ebbb2	0.31002575
56	0xbde9c173	-0.11413851
57	0x3e1e5bb3	0.15464668
58	0xbea9011d	-0.33008662
59	0x3ed6e1b9	0.41969088
60	0x3d73646f	0.059421953
61	0xbe660636	-0.22463307
62	0x3ec2b2be	0.38026994
63	0x3e881e16	0.26585454
64	0xbd1483bc	-0.036258444
65	0x3d0fed77	0.035138573
66	0x3ee0f4ab	0.43936667
67	0xbd6ef838	-0.05834219
68	0x3eb7e06a	0.35913402
69	0x3e3315bf	0.17488764
70	0x3e8151d5	0.25257745
71	0xbedaf1ca	-0.42762595
72	0x3d7a75ad	0.06114738
73	0x3e4d81d7	0.20069061
74	0xbdb2cf23	-0.087309144
75	0xbeab4136	-0.3344819
76	0x3e7b9dd7	0.2457193
77	0xbed72a9c	-0.42024696
78	0xbeda0418	-0.42581248
79	0xbe4c7722	-0.1996732
80	0x3e405c01	0.18785097
81	0x3e7c459e	0.24635932
82	0x3e98332c	0.2972654
83	0xbd8f599c	-0.069995135
84	0x3e3d0c65	0.1846176
85	0x3dd18c63	0.10231855
86	0x3d937264	0.07199553
87	0x3ed2914d	0.4112648
88	0xbeecc135	-0.46241155
89	0xbeb6f133	-0.35730895
90	0x3e3b5a8d	0.18296261
91	0xbd35004a	-0.04418973
92	0x3c7765d0	0.015099958
93	0xbe8d2931	-0.2757049
94	0xbe0c6cb6	-0.13713345
95	0x3e52085b	0.20511
96	0xbebc7429	-0.36807373
97	0x3e4719cc	0.19443434
98	0x3e3514e4	0.1768375
99	0x3cac06f5	0.020999411
100	0xbedaa42a	-0.42703372
101	0xbcd1faca	-0.02563228
102	0xbdf8933b	-0.12137457
103	0x3ec8d268	0.39223027
104	0xbe12d1de	-0.1433787
105	0xbe722f0e	-0.23650762
106	0xbede4214	-0.4340979
107	0xbea3b012	-0.31970268
108	0xbe62ff2d	-0.22167654
109	0x3d52fdb1	0.05151147
110	0x3e6077f7	0.21920763
111	0xbe11336c	-0.14179772
112	0xbea32bc1	-0.3186932
113	0xbee5cb31	-0.44881585
114	0x3d3f75ac	0.04674308
115	0x3ef3c592	0.47611672
116	0x3e0a35be	0.13497064
117	0xbdacd42a	-0.084389046
118	0xbe300de6	-0.17192802
119	0x3e5f493a	0.21805277
120	0x3ef61eec	0.48070467
121	0xbd63b512	-0.055592604
122	0x3df51394	0.11966625
123	0xbdafdb96	-0.085868046
124	0x3da89100	0.082307816
125	0x3e8c51c4	0.27406132
126	0x3e0ebfe2	0.13940385
127	0xbd1bef5f	-0.03807008

fc2.weight f4 [128, 128]
0	0x3d513931	0.051079933
1	0xbe0e4adb	-0.13895743
2	0xbd45c839	-0.04828665
3	0xbc5c1159	-0.01343187
4	0x3dfcfa7d	0.12352464
5	0xbd4ddeaf	-0.050261196
6	0x3da8d3ab	0.082434975
7	0xbd9cd93d	-0.076586224
8	0xbd608dc6	-0.054822706
9	0x3e1cbcab	0.15306346
10	0xbd9919f3	-0.074756525
11	0xbd96f2dd	-0.07370541
12	0xbd8e6b55	-0.06954066
13	0x3d009029	0.03138748
14	0xbdab4c0d	-0.08364115
15	0x3cc6faf7	0.024289591
16	0x3d7b1e59	0.06130824
17	0xbd30bed3	-0.043150734
18	0x3dcf286b	0.10115131
19	0x3da70279	0.081547685
20	0x3d5798d5	0.052635986
21	0x3d8dc5f3	0.069225214
22	0x3d25fd8b	0.040525
23	0x3c627e14	0.013824005
24	0x3d8c8de0	0.06862998
25	0x3ca69862	0.020336334
26	0x3c754539	0.014970117
27	0x3e0b59bd	0.13608451
28	0x3dd9a966	0.10628013
29	0xbd4f5c8f	-0.05062538
30	0xbd832db2	-0.064052
31	0x3b300270	0.0026856922
32	0x3d3baba0	0.04581797
33	0x3d95f89f	0.07322811
34	0xbcfdb909	-0.03097202
35	0xbd1c6114	-0.03817852
36	0x3c8177b6	0.015804153
37	0x3d7e50aa	0.062088646
38	0xbd2ac0a5	-0.041687626
39	0xbd4acefe	-0.04951381
40	0xbdef528d	-0.11685667
41	0xbd888b39	-0.066671796
42	0x3db1bd6d	0.08678708
43	0x3d18d7f9	0.037315343
44	0x3d02c28d	0.03192382
45	0x3d381356	0.044940315
46	0xbdaf43bc	-0.08557841
47	0x3c083a03	0.008314612
48	0xbd7d0ea9	-0.06178156
49	0x3d1df159	0.038560245
50	0x3e379328	0.1792723
51	0x3e3d29db	0.18472998
52	0x3c678a09	0.014132031
53	0xbd35dfea	-0.044402994
54	0xbb26b388	-0.0025436599
55	0x3cc60a20	0.02417475
56	0xbc214c02	-0.009844782
57	0x3d271103	0.040787708
58	0x3e231a10	0.15927911
59	0xbd5b02fe	-0.05346965
60	0xbda98507	-0.08277326
61	0x3dd18f33	0.10232391
62	0x3d978435	0.07398263
63	0x3dde2ff6	0.108489916
64	0xbd595527	-0.053059723
65	0xbcf44c27	-0.029821469
66	0xbc3e4554	-0.011613209
67	0xbdbce36e	-0.09223066
68	0x3d3ebbf7	0.046565976
69	0x3dd6a2d6	0.10480277
70	0x3db55dbb	0.08855768
71	0xbd7a0703	-0.061041843
72	0xbdfb33e2	-0.12265755
73	0x3e3d4847	0.18484603
74	0xbdc567df	-0.096389525
75	0x3e0ae070	0.13562179
76	0xbc2f2068	-0.010688879
77	0xbd250bd4	-0.040294483
78	0x3d9bc303	0.07605555
79	0x3d007ffa	0.031372048
80	0x3c2685f2	0.010163771
81	0xbd9608f5	-0.07325927
82	0x3c8cd53a	0.017191518
83	0x3c8c91d1	0.017159374
84	0x3e0dcd4e	0.13847849
85	0x3e09a05c	0.13440078
86	0x3d615c39	0.05501959
87	0xbcb24ecd	-0.02176609
88	0xbc1c2d94	-0.009532351
89	0x3dfdf997	0.12401121
90	0xbd857f9b	-0.065184794
91	0xbe12958d	-0.14314862
92	0xbb230583	-0.0024875111
93	0x3ce4f674	0.02794955
94	0x3d94f217	0.072727375
95	0x3d0bc26d	0.034120966
96	0xba96142d	-0.0011450105
97	0xbce30216	-0.027710956
98	0xbd36ce65	-0.044630427
99	0x3d10fc01	0.03539658
100	0xba7e8a39	-0.0009709928
101	0xbbd80755	-0.006592671
102	0x3e0c6089	0.137087
103	0x3d20b00f	0.039230403
104	0xbe07e1a4	-0.13269669
105	0x3ca5f6c3	0.020259267
106	0x3d4f07ef	0.050544675
107	0x3c74deb7	0.0149456775
108	0x3ce5cf5e	0.028052982
109	0xbe1838f5	-0.14865477
110	0x3d6800ba	0.056641318
111	0xbdb92ebe	-0.090421185
112	0x3dc8f104	0.09811595
113	0x3c4009a8	0.011721052
114	0xbd43457c	-0.047673687
115	0xbd272929	-0.040810738
116	0xbb9a09af	-0.0047008614
117	0xbd355bff	-0.044277187
118	0xbdebf842	-0.11521961
119	0xbd03d0a0	-0.032181382
120	0xbdaed481	-0.08536626
121	0x3e2bb48e	0.16768095
122	0x3dc3e9d9	0.09566087
123	0x3c0cf234	0.008602668
124	0x3e2e9e5b	0.17052595
125	0x3dc8b00e	0.09799205
126	0xbd29a9ca	-0.04142169
127	0x3cc3f4ca	0.023920435
128	0xbc0def0e	-0.008662952
129	0x3d25fa68	0.04052201
130	0xbb926128	-0.0044671483
131	0xbc0b26d7	-0.008493147
132	0x3c1eb138	0.009685807
133	0x3d8ee559	0.06977338
134	0xbda6eb45	-0.08150343
135	0xbccdb56f	-0.025110928
136	0x3da64cab	0.08120092
137	0xbd899bd8	-0.06719178
138	0x3da49a5c	0.08037254
139	0x3dddcbf2	0.10829915
140	0x3d9bc53f	0.07605981
141	0xbd84eb1f	-0.06490158
142	0x3d3e5565	0.046468157
143	0xbd68440c	-0.05670552
144	0x3d11840d	0.035526324
145	0x3c82b494	0.015955247
146	0xbd6d4605	-0.057928104
147	0xbd046eec	-0.032332346
148	0xbd1595d9	-0.03651986
149	0x3ccedcfc	0.025251858
150	0xbd3927c3	-0.045203935
151	0xbd8b21bb	-0.06793543
152	0xbda75fc4	-0.08172563
153	0x3c197528	0.009366311
154	0xbde86f74	-0.11349383
155	0x3d7c266f	0.06156009
156	0x3d31f906	0.043450378
157	0xbd9d79cf	-0.07689249
158	0xbd954f7e	-0.072905526
159	0xbb1f7b43	-0.0024334944
160	0x3bdbc2c0	0.0067065656
161	0x3c49e415	0.012322445
162	0x3d482e72	0.04887242
163	0x3c6b9a19	0.014380001
164	0x3decf617	0.115703754
165	0xbcc6993f	-0.024242995
166	0x3af4a174	0.001866384
167	0x3de58d67	0.11208611
168	0x3cf3aa1d	0.029744202
169	0x3bb57ce4	0.0055385698
170	0xbdcfb39e	-0.10141681
171	0xbd1a3f2d	-0.037657905
172	0x3ca37d00	0.019957066
173	0x3d3d776f	0.04625648
174	0x3cd6afca	0.02620687
175	0x3d22e5e1	0.03977001
176	0x3d415cbc	0.04720758
177	0x3d8079dc	0.06273243
178	0xbd400273	-0.046877336
179	0xbe0483f8	-0.12940967
180	0xbd12e459	-0.0358623
181	0x3cb560f7	0.022140963
182	0x3e014d11	0.12627055
183	0x3d2b92c5	0.041888017
184	0x3d5ab755	0.053397495
185	0x3c431739	0.011907392
186	0xbcbdd2eb	-0.023171863
187	0xbd894c75	-0.06704036
188	0xbc3d349b	-0.011548187
189	0xbc9ca03f	-0.01911938
190	0x3d8893d8	0.06668824
191	0xbdb39be2	-0.08769967
192	0x3e08e1ee	0.13367435
193	0x3d5fb76f	0.054618295
194	0x3d772203	0.06033517
195	0x3e1c8454	0.15284854
196	0x3d368db6	0.04456874
197	0x3d0ae4c4	0.033909574
198	0x3d0c2a1b	0.034219842
199	0xbd82cbb2	-0.06386508
200	0xbca50d1c	-0.020147853
201	0xbdcac107	-0.09900098
202	0xbc4b913e	-0.012424765
203	0xbc3c03a0	-0.011475474
204	0xbc15ff71	-0.00915514
205	0x3c80ac1a	0.015707064
206	0x3da8811a	0.08227749
207	0x3d58ae64	0.052900687
208	0xbc8dfed4	-0.017333426
209	0x3b7e72bf	0.0038825718
210	0xbbc21b78	-0.0059236847
211	0xbc941152	-0.018074665
212	0xbddadcb1	-0.10686625
213	0x3ace5cc5	0.00157442
214	0xbdc618f3	-0.096727274
215	0xbdb4babf	-0.088246815
216	0x3da0014e	0.07812749
217	0xbc189c56	-0.009314617
218	0x3d2c064b	0.04199819
219	0x3d23d1bb	0.039994936
220	0x3d29d1de	0.04145991
221	0x3b9e3a80	0.004828751
222	0x3b6979ec	0.003562565
223	0x3db8c666	0.090222165
224	0xbd8bdda8	-0.06829387
225	0x3dd4d916	0.10392968
226	0xbc187258	-0.009304605
227	0x3a94df9e	0.0011358147
228	0x3d92bcde	0.0716493
229	0x3d61e819	0.055152986
230	0x3c9f2afa	0.019429673
231	0x3cba02e4	0.022706456
232	0x3deb7fea	0.11499007
233	0x3d516878	0.05112502
234	0xbdafdead	-0.08587394
235	0xbd5010d5	-0.050797302
236	0x3d777146	0.06041076
237	0x3e1fd9fd	0.156105
238	0xbd6e5bd8	-0.058193058
239	0x3dc1e21a	0.094669536
240	0x3bad8247	0.0052950713
241	0xbd6b8f8b	-0.05750994
242	0x3db8c536	0.0902199
243	0x3cba8d04	0.02277232
244	0xbd7e2043	-0.062042486
245	0xbc9165ba	-0.017748702
246	0xbc8e2766	-0.017352771
247	0xbc7f66a2	-0.015588434
248	0x3daffe4e	0.08593427
249	0xbe03c7a9	-0.12869133
250	0xbda63daf	-0.08117234
251	0x3ce17b99	0.027524756
252	0xbe495a5a	-0.19663373
253	0x3d87ff70	0.06640518
254	0x3dc0d3e4	0.09415415
255	0x3d8835a6	0.066508576

fc2.bias f4 [128]
0	0x3cc82c1a	0.024435092
1	0xbda0097b	-0.07814308
2	0x3d086afa	0.033305146
3	0xbb9d2299	-0.004795384
4	0x3d9d5999	0.07683105
5	0xbd8cd6bf	-0.06876897
6	0x3d8bde96	0.06829564
7	0xbc5095a8	-0.012730993
8	0xbd68e9c9	-0.05686358
9	0xbd760f45	-0.060073156
10	0x3d5c589c	0.053795442
11	0xbd88dcd9	-0.06682748
12	0xbc57160e	-0.013127817
13	0xbd29d57b	-0.041463356
14	0x3db76c88	0.089562476
15	0xbcec8c68	-0.028875545
16	0x3cba70c6	0.022758853
17	0xbd8f48d2	-0.06996311
18	0xbd60bb9b	-0.054866415
19	0x3d19dde6	0.037565134
20	0x3d03e109	0.032197032
21	0x3dc653a8	0.09683925
22	0xbaa67f09	-0.0012702654
23	0xbbb2f6d5	-0.0054615536
24	0x3d9c888a	0.0764323
25	0x3bd12e08	0.006383661
26	0xbd8c29ea	-0.06843932
27	0x3cdbd8bb	0.026836744
28	0xbd31b344	-0.04338385
29	0x3c9a4de0	0.018835962
30	0x3d522737	0.05130693
31	0x3d606258	0.054781288
32	0x3dae7c4c	0.085198015
33	0xbd2212a7	-0.03956857
34	0xbd4b472f	-0.049628433
35	0x3cc5353a	0.024073232
36	0xbc882f6e	-0.016624179
37	0xbc8109ab	-0.01575168
38	0xbdb48533	-0.08814468
39	0x3d8bae7f	0.06820392
40	0xbce9084d	-0.028446341
41	0xbda1551e	-0.07877563
42	0xbc3e1b1a	-0.011603141
43	0xbc06f3aa	-0.008236805
44	0x3d2bd016	0.041946493
45	0x3d8e65a3	0.069529794
46	0xba2ec82d	-0.0006667402
47	0xbd5fbf4d	-0.054625798
48	0xbd3058a8	-0.0430533
49	0xbd9c2363	-0.07623937
50	0xbd0cb670	-0.034353673
51	0x3d8dab1c	0.06917402
52	0x3cbb04bd	0.022829408
53	0x3d343c10	0.044002593
54	0x3d6b8e1d	0.057508577
55	0x3d3fd3e8	0.04683295
56	0xbd0a85ae	-0.033818893
57	0xbc16883d	-0.009187755
58	0x3d3433b6	0.043994628
59	0x3c0f28fa	0.008737797
60	0x3d205d55	0.03915151
61	0x3d6020fe	0.054718964
62	0xbdaa5c61	-0.08318401
63	0xbd075f22	-0.03304971
64	0x3d79d8bf	0.06099772
65	0x3daae5d9	0.08344621
66	0x3b798e06	0.0038079037
67	0xbcf82961	-0.030293169
68	0xbdb30b67	-0.08742409
69	0xbb5f60e1	-0.0034084844
70	0x3cc9a933	0.024616813
71	0xbd638475	-0.055546243
72	0xbd6b6e20	-0.05747807
73	0x3d3a3a93	0.045466017
74	0x3d918d40	0.071070194
75	0xbd0e43c5	-0.0347326
76	0x3cd03567	0.02541609
77	0x3d82a2e7	0.063787274
78	0x3d88f728	0.06687766
79	0x3d8db486	0.06919198
80	0xbdbb3e8c	-0.09142789
81	0x3d87723b	0.066135846
82	0xbdaff370	-0.08591354
83	0xbb778c20	-0.003777273
84	0x3c80ed0d	0.015738035
85	0x3d25623a	0.04037688
86	0xbcde9428	-0.027170256
87	0x3dbe6cad	0.09298072
88	0x3c6b3348	0.014355488
89	0x3d3e4d9d	0.046460737
90	0x3c2fb93e	0.0107253175
91	0xbdb359d7	-0.0875737
92	0xbcd36649	-0.02580561
93	0xbd54b0db	-0.051926475
94	0xbd3e69fd	-0.046487797
95	0x3d9ed7b9	0.077559896
96	0x3d183c21	0.03716672
97	0x3cc604a4	0.024172135
98	0x3d0968cb	0.033547204
99	0x3d2010e6	0.039078616
100	0xbd0f5462	-0.034992583
101	0xbc463c8b	-0.0120993955
102	0xbd5e1da0	-0.05422747
103	0xbd536003	-0.051605236
104	0x3cafa42a	0.021440584
105	0x3cde99f8	0.027173027
106	0x3cccadcc	0.024985217
107	0xbcc1621a	-0.023606349
108	0x3d20ad64	0.03922786
109	0x3dc0c865	0.09413222
110	0x3d408dc3	0.047010195
111	0xbd81b538	-0.06333393
112	0x3d3f0743	0.046637785
113	0xbc1e4a9a	-0.009661341
114	0x3d4688c6	0.04847028
115	0x3d8ce9fb	0.06880566
116	0xbd42cc87	-0.047558334
117	0xbbd960c4	-0.00663385
118	0xb9aa18d5	-0.00032443428
119	0x3db41b8d	0.087943174
120	0xbcb27b84	-0.021787412
121	0x3c415671	0.011800394
122	0x3c6bb0a7	0.014385379
123	0xbd0b36e3	-0.03398789
124	0xbd7d6f93	-0.061873984
125	0x3dde5a09	0.108570166
126	0x3d8b16a6	0.06791429
127	0x3d2f936e	0.04286521

prob.weight f4 [2, 128]
0	0x3d8b5530	0.068033576
1	0xbdcca7ca	-0.09992941
2	0x3e10696a	0.14102712
3	0x3e07da68	0.13266909
4	0x3e0e5f8b	0.13903634
5	0xbda15796	-0.07878034
6	0xbd92220f	-0.071354024
7	0xbd9d9b8a	-0.07695682
8	0x3da8392a	0.08214028
9	0x3d9740db	0.07385417
10	0xbd97fd53	-0.07421365
11	0x3cccaac3	0.02498377
12	0x3d66774a	0.056266107
13	0xbdffcc76	-0.1249017
14	0x3bc36172	0.005962544
15	0xbdc7c9f7	-0.097553186
16	0x3ce9a651	0.028521689
17	0xbce54e13	-0.02799133
18	0x3d1875e0	0.03722179
19	0x3b544580	0.0032390058
20	0x3e16a16b	0.14710014
21	0x3e13f7ba	0.14449969
22	0x3cd5deca	0.02610721
23	0x3dec9f28	0.11553794
24	0xbdd11e03	-0.102108024
25	0x3d80a652	0.06281723
26	0x3d81dd3b	0.063410245
27	0xbc7049b0	-0.014666006
28	0x3d8619c3	0.065478824
29	0x3d71b2c4	0.059008375
30	0xbe09fd7f	-0.13475607
31	0xbd2d1639	-0.04225752
32	0x3d75abb5	0.059978206
33	0xbd8f8dd3	-0.07009473
34	0x3d958ca4	0.07302216
35	0x3da9b23d	0.082859494
36	0xbcc1ca64	-0.023656078
37	0x3df929e3	0.121661924
38	0xbd217ef0	-0.039427698
39	0x3d544846	0.051826738
40	0xbdef07f3	-0.11671438
41	0x3d436353	0.047702145
42	0x3afe06eb	0.0019380724
43	0xbd98ef03	-0.07467463
44	0x3de3aa68	0.11116487
45	0x3e13f981	0.14450647
46	0xbd91c67b	-0.07117935
47	0xbdd8e4cd	-0.10590515
48	0x3da37b40	0.079824924
49	0x3d0256b6	0.031820975
50	0x3d3cded8	0.046110958
51	0xbde192cd	-0.11014328
52	0xbd6400a2	-0.055664666
53	0xbd8789dc	-0.066180915
54	0xbd1d78c0	-0.038445234
55	0xbd9898e5	-0.07451037
56	0xbc9d8920	-0.019230425
57	0x3d8bd99d	0.06828616
58	0xbcb50f90	-0.022102147
59	0xbc44acc4	-0.012004081
60	0x3d781bfe	0.06057357
61	0x3db82066	0.089905545
62	0xbdad2e71	-0.084561236
63	0xbdc673a8	-0.096900284
64	0xbe00e018	-0.12585485
65	0xbde90317	-0.113775425
66	0xbc25e6c2	-0.010125818
67	0x3df81716	0.12113778
68	0xbce13073	-0.027488923
69	0x3c8572c1	0.01629007
70	0xbd2f7f5c	-0.04284607
71	0x3c87a3b4	0.016557552
72	0x3d23fc5b	0.040035587
73	0xbd97ae2a	-0.07406266
74	0xbe17d09c	-0.14825672
75	0xbc5e5053	-0.0135689555
76	0xbdb54aa8	-0.0885213
77	0xbde98152	-0.11401619
78	0x3c63ec8c	0.013911378
79	0xbdc2f0f6	-0.09518616
80	0xbd7c2358	-0.061557144
81	0x3b5e7680	0.0033945143
82	0xbd0ab85c	-0.033867225
83	0xbccef14c	-0.025261544
84	0xbdd606c3	-0.104505084
85	0x3dc9e42e	0.09857975
86	0xbd84421e	-0.06457923
87	0x3e241e05	0.16027077
88	0xbc89e28b	-0.016831657
89	0x3df87f86	0.12133698
90	0xbdf99616	-0.1218683
91	0x3d95bd7b	0.07311531
92	0x3e06b3b4	0.13154489
93	0x3d908135	0.07055894
94	0xbc3ca723	-0.011514458
95	0x3c85c379	0.01632856
96	0x3e28c3a4	0.16480881
97	0x3d08e6aa	0.033423103
98	0x3e0bc983	0.1365109
99	0xbd318525	-0.043339867
100	0xbabee79b	-0.0014564873
101	0x3d7946f6	0.06085869
102	0xbd25b76c	-0.040458128
103	0x3dde4ad2	0.108541146
104	0xbbac76bd	-0.005263178
105	0x3d291001	0.04127503
106	0xbde1bd50	-0.110224366
107	0xbdaaa08d	-0.08331404
108	0x3cae8a52	0.02130619
109	0x3a670d99	0.0008813977
110	0xbd891028	-0.06692535
111	0x3d946b04	0.07246974
112	0xbd9c5912	-0.07634176
113	0xbc21b4cc	-0.0098697655
114	0x3dddd91e	0.108324274
115	0x3df28895	0.11842457
116	0xbd71107c	-0.05885361
117	0x3b9fd433	0.004877591
118	0x3d4899d3	0.048974823
119	0xbe29ef17	-0.16595112
120	0x3d2e6f6a	0.04258672
121	0x3ce0766a	0.027400214
122	0xbc2b143c	-0.010441836
123	0x3c0af1f0	0.008480534
124	0xbb9f5011	-0.0048618396
125	0x3e218012	0.15771511
126	0xbcc615eb	-0.024180373
127	0xbdb0cc5a	-0.08632727
128	0xbd8b8e01	-0.068141945
129	0x3b9a0723	0.004700558
130	0xbd9019b5	-0.07036153
131	0xbe1d49d6	-0.15360197
132	0xbd8f48d1	-0.069963105
133	0xbc444f94	-0.0119818635
134	0x3d6deba5	0.058086056
135	0x3d3c3f96	0.045959078
136	0xbdeb1a7a	-0.114796594
137	0xbd0fc73d	-0.035102118
138	0xbd6fc089	-0.058533225
139	0xbe20bdf6	-0.15697464
140	0xbbc6c6ce	-0.00606618
141	0x3c2f291f	0.010690956
142	0xbe192445	-0.14955242
143	0x3e124261	0.14283134
144	0x3d0a21bc	0.033723578
145	0x3cd0045a	0.0253927
146	0xbc9681ce	-0.018372443
147	0x3c241060	0.01001367
148	0xbdd9c976	-0.10634129
149	0x3c17186b	0.00922213
150	0x3d2a7eca	0.04162482
151	0x3c3e07b4	0.011598516
152	0x3cf17052	0.029472504
153	0xbdcef8ca	-0.101060465
154	0xbd5f610a	-0.054535903
155	0x3e1acfa1	0.15118267
156	0x3d0dc11b	0.034607988
157	0x3d8fd9da	0.07023974
158	0x3db72adc	0.08943722
159	0x3e11e2db	0.14246695
160	0xbdc5b338	-0.09653324
161	0x3de1837e	0.11011408
162	0xbe0f16cb	-0.13973539
163	0xbd40a247	-0.04702976
164	0x3dc55a1c	0.096363276
165	0xbdbd8b8f	-0.09255134
166	0xbd38b75f	-0.04509675
167	0xbdab4601	-0.083629616
168	0x3e03a8f1	0.12857415
169	0xbd6a8672	-0.057257123
170	0x3b697c4a	0.003562706
171	0xbd239e34	-0.039945796
172	0xbd1ce26b	-0.038301867
173	0x3c0d797f	0.008634924
174	0x3d3ab0ca	0.045578755
175	0x3df09555	0.11747233
176	0xbd96c208	-0.07361227
177	0x3d382aff	0.04496288
178	0x3dd3cd82	0.10341932
179	0x3d8ad9ff	0.06779861
180	0x3dc2c772	0.095106974
181	0x3d862de6	0.06551723
182	0xba26af1e	-0.0006358492
183	0x3e0e7c87	0.13914691
184	0x3c3c42a0	0.011490494
185	0xbd9bfec2	-0.076169506
186	0xbb71c9a0	-0.003689386
187	0xbd9c39d9	-0.07628221
188	0xbb180b39	-0.0023200049
189	0xbe18814c	-0.14893073
190	0x3c8ba098	0.01704435
191	0x3e0a50c4	0.13507372
192	0x3ce20d02	0.027594093
193	0x3d0489a9	0.032357845
194	0x3d309d59	0.04311881
195	0xbdfccf72	-0.123442546
196	0x3db2cd58	0.087305725
197	0xbd3fac84	-0.046795383
198	0x3d310dff	0.04322624
199	0x3caf70ee	0.021416154
200	0xbd08c3b1	-0.03338975
201	0x3d13f842	0.03612543
202	0x3d85daf7	0.06535905
203	0x3d9f9be4	0.07793406
204	0x3d8fb065	0.070160665
205	0x3e1e0517	0.15431629
206	0xbdaa6377	-0.08319753
207	0x3c0ccd2d	0.00859384
208	0xbabba40c	-0.0014315858
209	0x3dcbd375	0.099524416
210	0xbd135f25	-0.03597941
211	0x3c0b0c78	0.0084868595
212	0x3cb8fd41	0.022581698
213	0xbdefcc7e	-0.11708926
214	0x3dbfa19c	0.093569964
215	0xbb6f199f	-0.0036483777
216	0xbc81be2e	-0.015837755
217	0xbdb854c1	-0.090005405
218	0x3ddc9818	0.10771197
219	0x3d3734a6	0.044727944
220	0xbcadc168	-0.021210387
221	0xbd413931	-0.047173683
222	0x3cf76cd6	0.030203264
223	0x3d9d1c26	0.076713845
224	0xbbe51e76	-0.0069921566
225	0xbbdb3410	-0.006689556
226	0xbd6745fd	-0.05646323
227	0xbd32dd95	-0.04366835
228	0xbcb375d4	-0.02190677
229	0xbb930fdb	-0.004487974
230	0xbd287a3e	-0.041132204
231	0xbd41af8a	-0.047286548
232	0x3dd0ae60	0.101895094
233	0xbd7435c8	-0.059621602
234	0x3d6ce236	0.05783292
235	0x3da0bb46	0.078482196
236	0xbdefd42d	-0.11710391
237	0xbdf7253e	-0.1206765
238	0x3d8bda60	0.06828761
239	0xbcc18f3d	-0.023627872
240	0x3ded2ebc	0.115811795
241	0xbc28a70e	-0.010293735
242	0xbdb0ce2c	-0.08633074
243	0x3b517b18	0.0031964239
244	0x3daf00ad	0.08545051
245	0x3d558173	0.052125406
246	0x3d58f6d6	0.052969776
247	0x3d84dcf7	0.06487458
248	0x3d73d06a	0.05952493
249	0xbcbeb2f4	-0.02327869
250	0xbb2586ba	-0.0025257305
251	0xb9a7b200	-0.00031985343
252	0x3e242b8b	0.16032235
253	0xbd9cd9b0	-0.07658708
254	0x3dc15871	0.09440697
255	0xbd71edbc	-0.05906461

prob.bias f4 [2]
0	0x3d2458f2	0.040123887
1	0xbdae9438	-0.08524364
