RLIntro/Reinforce/checkpoints/Reinforce_discrete/Reinforce_policy_2100.pth (torch_old, 70658 bytes, 6 tensors)

fc1.weight f4 [128, 4]
-0.21267869 -0.38340354 -0.05603023 0.008025847 0.28995985 -0.0020265698 0.19884865 0.13792577
0.10242794 -0.0025797957 -0.20885284 -0.016250022 0.21311447 -0.35832605 -0.26486614 0.3284316
-0.33706233 -0.22560415 0.23909298 -0.35212553 0.30439833 0.32211328 -0.056596838 -0.32455814
0.45304218 0.19090936 -0.21706936 -0.55545795 0.18756382 0.42808133 0.625088 0.1432944
0.19774908 0.062294323 -0.47021767 0.0066144695 -0.08655478 -0.12791924 -0.3605179 -0.51721644
0.37882805 0.09895778 0.15100002 0.56508684 0.43780753 -0.20804861 0.319693 0.37464288
-0.42708609 -0.24422412 -0.26826814 0.21040393 -0.4269285 -0.0033802511 0.041542053 -0.011350794
-0.23304754 -0.33015627 0.6078116 0.090030916 0.06861653 -0.37259296 -0.15127005 -0.19470702
-0.42105246 -0.5263787 -0.3293382 -0.5051961 0.159783 -0.15367776 0.2577222 -0.3294211
-0.35877308 -0.1130653 -0.19725692 -0.49184385 0.081194535 -0.18895881 -0.6557455 -0.3129361
0.048672102 0.3958552 -0.29505855 0.047272038 0.16656436 -0.105754584 -0.5712725 -0.4999617
-0.46299753 0.21319954 -0.45915955 -0.5030636 -0.38766217 -0.21800214 -0.64535123 -0.34452033
-0.14943248 -0.40868485 0.015031177 0.12201865 -0.107852 0.13295981 0.26620018 0.037946146
-0.22599813 -0.05366013 -0.5312188 -0.4861229 0.1662771 -0.10856731 -0.40555668 -0.44806907
-0.28021166 0.2584356 -0.07774462 -0.49499407 -0.25056526 -0.05592864 -0.06119821 -0.11010224
0.24234077 0.047321208 -0.1749865 -0.15563528 0.22781137 0.29928687 -0.1199233 -0.47718906
-0.16683094 -0.30194518 -0.3211129 0.027096339 -0.44384703 0.3193969 -0.37965333 -0.07508052
0.12100785 0.27753183 -0.51631355 -0.032336682 -0.10783294 0.33803827 0.12719099 -0.34510493
0.39394614 -0.35782486 -0.437507 0.23805217 -0.3231381 -0.14154579 0.6570738 0.28736186
0.23985744 0.3351132 0.22810036 0.40271133 0.42586255 0.06932305 0.13347937 0.27758953
0.37935477 0.3887435 0.41975808 0.44567132 -0.080364555 0.4584856 0.4516131 0.4155558
0.11954138 0.28900287 -0.4770995 -0.23996806 -0.116787046 -0.16151105 0.50452316 0.48285034
-0.24573798 -0.27080727 0.21332833 -0.30226487 0.34928063 0.2631518 -0.029171204 0.4570179
-0.15096265 0.38418636 0.6425025 0.086616084 0.45590302 -0.28659037 0.07280332 0.54769015
0.2595583 -0.4668298 -0.3558112 0.14827244 -0.21485786 0.48941514 0.23484434 0.36837944
0.22929758 -0.21272227 -0.35391372 -0.59797245 0.3103705 -0.33631185 -0.50607306 -0.28530407
0.35452878 -0.086722806 0.12363758 0.16605555 0.10857239 0.4016716 0.5726119 -0.0705508
0.54312074 0.46279383 -0.29345495 0.44830623 -0.39874506 -0.18050568 -0.35544115 -0.19073202
-0.11854178 0.34588638 -0.38406175 -0.28540993 -0.18435173 0.089866646 0.02277214 -0.5557056
-0.21103291 -0.45853305 -0.46777835 -0.4244963 -0.3380809 -0.14764881 -0.26088274 0.5764148
-0.42389047 0.22816615 0.56176335 0.2505306 -0.4944748 0.33046284 -0.15976653 -0.21630175
0.3237114 0.25495148 0.07199081 -0.2413711 -0.0053312215 -0.41418 -0.35460535 0.12188632
00000000: 71c8 59be 784d c4be f47f 65bd d87e 033c
00000010: 9e75 943e 33d0 04bb fb9e 4b3e 6a3c 0d3e
00000020: bdc5 d13d ca11 29bb 85dd 55be c41e 85bc
00000030: ae3a 5a3e 8376 b7be 899c 87be 3028 a83e
00000040: 6f93 acbe c604 67be cad4 743e cc49 b4be
00000050: 19da 9b3e 08ec a43e 16d2 67bd 7c2c a6be
00000060: 25f5 e73e be7d 433e 6e47 5ebe 7e32 0ebf
00000070: bb10 403e 7a2d db3e c405 203f c4bb 123e
00000080: bc7e 4a3e 5528 7f3d 5fc0 f0be 31be d83b
00000090: a243 b1bd 43fd 02be cd95 b8be 4c68 04bf
000000a0: c0f5 c13e 60aa ca3d c09f 1a3e 88a9 103f
000000b0: 4f28 e03e b20a 55be cdae a33e 31d1 bf3e
000000c0: 07ab dabe e315 7abe 715a 89be 2174 573e
000000d0: 5f96 dabe 3487 5dbb 0028 2a3d aef8 39bc
000000e0: 04a4 6ebe 3e0a a9be 8b99 1b3f 2162 b83d
000000f0: d386 8c3d 81c4 bebe 89e6 1abe 4761 47be
00000100: 3094 d7be c1c0 06bf 049f a8be 8854 01bf
00000110: 289e 233e b45d 1dbe 2af4 833e e2a9 a8be
00000120: 1bb1 b7be c88e e7bd b8fd 49be f5d2 fbbe
00000130: 5249 a63d 6b7e 41be f0de 27bf 2939 a0be
00000140: 665c 473d 88ad ca3e ea11 97be 53a0 413d
00000150: d98f 2a3e dc95 d8bd ea3e 12bf fbfa ffbe
00000160: 030e edbe fb50 5a3e f616 ebbe c7c8 00bf
00000170: a87b c6be f43b 5fbe bd35 25bf f864 b0be
00000180: d404 19be 243f d1be 5345 763c eae4 f93d
00000190: 82e1 dcbd 9e26 083e 644b 883e 6b6d 1b3d
000001a0: 0e6c 67be b9ca 5bbd f5fd 07bf 1ae5 f8be
000001b0: 8b44 2a3e 8a58 debd 20a5 cfbe 4f69 e5be
000001c0: e777 8fbe ac51 843e 9238 9fbd dd6f fdbe
000001d0: 174a 80be 6e15 65bd f9aa 7abd 497d e1bd
000001e0: 2e28 783e e2d3 413d a92f 33be db5e 1fbe
000001f0: 6247 693e 213c 993e 599a f5bd 2052 f4be
00000200: bbd5 2abe 8f98 9abe e968 a4be 24f9 dd3c
00000210: eb3f e3be fe87 a33e ec61 c2be d1c3 99bd
00000220: f7d2 f73d a718 8e3e 202d 04bf 7873 04bd
00000230: 84d7 dcbd 5a13 ad3e 5b3e 023e 98b1 b0be
00000240: 4fb3 c93e d234 b7be eb00 e0be f3c3 733e
00000250: 5b72 a5be 61f1 10be fd35 283f 1821 933e
00000260: 309d 753e f593 ab3e 2493 693e 2e30 ce3e
00000270: a80a da3e 3ef9 8d3d d1ae 083e 3720 8e3e
00000280: ca3a c23e 6309 c73e 88ea d63e 082f e43e
00000290: 2c96 a4bd a0be ea3e d539 e73e bbc3 d43e
000002a0: 1cd2 f43d 2ff8 933e 6346 f4be 30ba 75be
000002b0: 0c2e efbd 2763 25be 6e28 013f 2938 f73e
000002c0: bda2 7bbe 40a7 8abe be72 5a3e 76c2 9abe
000002d0: e9d4 b23e d5bb 863e 73f8 eebc 40fe e93e
000002e0: f495 1abe 13b4 c43e 0b7b 243f c663 b13d
000002f0: 1f6c e93e f9bb 92be e819 953d 6c35 0c3f
00000300: d3e4 843e 5104 efbe e32c b6be bbd4 173e
00000310: b303 5cbe 9f94 fa3e 097b 703e 3b9c bc3e
00000320: fccc 6a3e ded3 59be 2e34 b5be b914 19bf
00000330: e2e8 9e3e 1131 acbe 018e 01bf 6013 92be
00000340: cc84 b53e ba9b b1bd b335 fd3d 770a 2a3e
00000350: 345b de3d e6a7 cd3e b296 123f f07c 90bd
00000360: f609 0b3f 50f3 ec3e ba3f 96be 6588 e53e
00000370: 5028 ccbe 7bd6 38be 62fc b5be 414f 43be
00000380: 08c6 f2bd 0518 b13e bea3 c4be 4021 92be
00000390: b3c6 3cbe 010c b83d a48c ba3c b942 0ebf
000003a0: 0319 58be d8c4 eabe a580 efbe 9457 d9be
000003b0: f118 adbe 4031 17be 6c92 85be ec8f 133f
000003c0: 2c08 d9be 63a4 693e b9cf 0f3f 8c45 803e
000003d0: cd2b fdbe 6d32 a93e d699 23be 357e 5dbe
000003e0: 80bd a53e 0089 823e eb6f 933d fc29 77be
000003f0: 87b1 aebb 670f d4be d58e b5be 899f f93d

fc1.bias f4 [128]
-0.26891148 -0.12642731 -0.14595044 -0.33700213 0.41941923 0.16953245 -0.13703375 -0.18520686
0.22863023 0.36723348 -0.36603677 0.0755755 -0.13227025 -0.28609863 0.114590704 0.3839086
-0.015008821 -0.4742263 0.2531647 0.3473214 -0.3014558 0.39371118 0.38541386 0.33478743
-0.24339102 -0.2561027 0.41323912 0.41903365 -0.017808562 -0.3098836 0.14609303 0.0072802
-0.21813352 0.16137293 0.0069556506 0.3223607 -0.41745943 0.40389135 0.28622833 -0.062222876
-0.3005254 0.057863947 0.2701549 -0.16510059 -0.20117123 0.49913406 0.002581695 0.27234718
0.07752055 0.35557443 -0.362851 0.14693244 0.430904 0.18435638 -0.2117981 0.29767236
-0.11610837 0.13680042 -0.33008662 0.4264223 0.059873816 -0.22010815 0.3906829 0.25620735
-0.027125819 0.0324869 0.44996792 -0.047799755 0.3489407 0.16477376 0.24637556 -0.42762595
0.0566889 0.19221185 -0.070057906 -0.34266195 0.23700255 -0.42099273 -0.42581248 -0.23623584
0.20013742 0.25761068 0.30537683 -0.06593012 0.1748817 0.09932995 0.06691189 0.4199484
-0.45440936 -0.3572029 0.19838013 -0.047032207 0.011637649 -0.27546886 -0.13687305 0.21551262
-0.37057537 0.20617582 0.1868652 0.012882318 -0.42602023 -0.030332148 -0.12836102 0.40395012
-0.14037631 -0.24152526 -0.4340979 -0.31965646 -0.22045076 0.06261361 0.22890332 -0.15118073
-0.3186932 -0.43417743 0.055184282 0.48459587 0.13312775 -0.06900431 -0.19289155 0.21750283
0.4898647 -0.057671446 0.11008096 -0.08838988 0.066317655 0.2670103 0.15743928 -0.048104975
00000000: c4ae 89be 2976 01be 0874 15be 8b8b acbe
00000010: 1ebe d63e ea99 2d3e 9352 0cbe dea6 3dbe
00000020: 0b1e 6a3e 0706 bc3e 2c69 bbbe 54c7 9a3d
00000030: da71 07be 857b 92be 88ae ea3d ab8f c43e
00000040: 8fe7 75bc cacd f2be ce9e 813e 1cd4 b13e
00000050: 6a58 9abe 8394 c93e f754 c53e 4269 ab3e
00000060: 7f3b 79be e51f 83be 1494 d33e 948b d63e
00000070: 43e3 91bc 10a9 9ebe 6999 153e be8e ee3b
00000080: 655e 5fbe f23e 253e 3aec e33b 760c a53e
00000090: 3ebd d5be d9ca ce3e 858c 923e 6add 7ebd
000000a0: 77de 99be bf02 6d3d be51 8a3e 2110 29be
000000b0: d5ff 4dbe 808e ff3e a831 293b 1771 8b3e
000000c0: 18c3 9e3d da0d b63e 9bc7 b9be 7575 163e
000000d0: 739f dc3e ebc7 3c3e 9ae1 58be 8368 983e
000000e0: 3aca edbd 6915 0c3e 1d01 a9be 0654 da3e
000000f0: 3f3e 753d 0864 61be 9707 c83e 9c2d 833e
00000100: f736 debc fc10 053d 3262 e63e adc9 43bd
00000110: 5ba8 b23e 74ba 283e e049 7c3e caf1 dabe
00000120: 9f32 683d 2fd3 443e 857a 8fbd 6371 afbe
00000130: ccb0 723e 5c8c d7be 1804 dabe cfe7 71be
00000140: d3f0 4c3e 8ce5 833e 5a5a 9c3e 5f06 87bd
00000150: 3014 333e 806d cb3d 1a09 893d 7a03 d73e
00000160: 58a8 e8be 4ce3 b6be 2924 4b3e d8a4 40bd
00000170: d6ab 3e3c 410a 8dbe 7328 0cbe 57af 5c3e
00000180: 0ebc bdbe c11f 533e 9759 3f3e 5c10 533c
00000190: 531f dabe 207b f8bc 1271 03be 8dd2 ce3e
000001a0: cfbe 0fbe 6652 77be 1442 debe 03aa a3be
000001b0: d8bd 61be 903b 803d a265 6a3e 1fcf 1abe
000001c0: c12b a3be 814c debe ea08 623d f31c f83e
000001d0: a452 083e 2252 8dbd 5d85 45be 10b9 5e3e
000001e0: 8ccf fa3e e538 6cbd 2072 e13d c105 b5bd
000001f0: 8dd1 873d 93b5 883e c337 213e b909 45bd

fc2.weight f4 [128, 128]
0.051406246 -0.13076417 -0.044466 -0.0072863987 0.11773637 -0.064462714 0.069801874 -0.08937647
-0.06565696 0.14253843 -0.058559626 -0.07200059 -0.06560871 0.03138748 -0.07964002 0.019043392
0.06107813 -0.043150734 0.095669314 0.072003685 0.05376687 0.057527173 0.030930093 0.008785867
0.06852779 0.020336334 0.0045649605 0.124932505 0.10400839 -0.05062538 -0.07684113 -0.008448308
0.04619375 0.06718351 -0.046503466 -0.05090412 0.028663008 0.060823005 -0.05237223 -0.0587096
-0.12237308 -0.077939324 0.07277478 0.045052025 0.03192382 0.035305873 -0.08960169 0.0065318225
-0.054738227 0.028057666 0.17481829 0.17714553 0.0061676847 -0.058415838 -0.018646076 0.021170141
-0.014685595 0.033494007 0.15927911 -0.05415948 -0.08470271 0.100711696 0.061417896 0.10950881
-0.059191816 -0.020493925 -0.023901802 -0.102956206 0.043791264 0.093657106 0.089690715 -0.061041843
-0.11986937 0.17675903 -0.109008744 0.12963884 -0.018546024 -0.041744456 0.07605555 0.049318235
0.0001986001 -0.08349395 0.016212517 0.01671718 0.12855558 0.12971579 0.053472813 -0.033779815
-0.009939561 0.124019146 -0.073586695 -0.13843499 -0.013504052 0.02795925 0.072803035 0.02054823
0.0015768167 -0.027549192 -0.05816202 0.033191107 -0.0067574508 -0.011371462 0.1307432 0.026921079
-0.12188249 0.018870674 0.050544675 0.014895736 0.027320031 -0.16155908 0.046981174 -0.071289435
0.09811595 0.024965484 -0.040247876 -0.05093536 0.0016048381 -0.057309378 -0.10310336 -0.030673234
-0.09511486 0.16221887 0.0921707 0.022758842 0.1614042 0.09312963 -0.051329494 0.034394693
-0.008947692 0.03530902 -0.007723301 -0.012848665 0.01841544 0.084693536 -0.06876255 -0.011477582
0.09485198 -0.05467948 0.06599186 0.11117243 0.073175184 -0.06490158 0.046750028 -0.04764184
0.035615604 0.015955247 -0.05077517 -0.019960525 -0.03720098 0.03912537 -0.034281712 -0.060238685
-0.08158624 0.009366311 -0.101167284 0.07513484 0.046053626 -0.07689249 -0.05816031 0.008574508
0.006361732 0.020027796 0.06438052 0.028308513 0.10492134 -0.018584503 0.015908163 0.124706894
0.036117017 0.01924626 -0.08595723 -0.043145917 0.019957066 0.05941652 0.030816114 0.046175905
0.04476113 0.076103725 -0.044718415 -0.118670546 -0.024181768 0.037373744 0.14425683 0.048134062
0.058710925 0.019544555 -0.023171863 -0.061681304 -0.00680723 -0.017055316 0.081282474 -0.08383272
0.14335683 0.049706545 0.075220525 0.16726473 0.05082267 0.04649374 0.03788825 -0.06386508
-0.018597491 -0.08899261 0.00026932772 -0.0041023437 0.0019383344 0.016927348 0.08227749 0.038496174
-0.0054644425 0.01612769 -0.0002901043 -0.017321177 -0.09430797 0.009029834 -0.09440949 -0.07413082
0.07826617 -0.009321306 0.05372202 0.03958367 0.053096 0.004820647 0.0034828968 0.105922624
-0.0700009 0.108870305 0.006088513 0.0037243722 0.07602383 0.05926383 0.026349057 0.0377145
0.10878141 0.053364582 -0.08587394 -0.05072625 0.06087932 0.17176685 -0.045561057 0.07983366
0.0052950713 -0.068877555 0.087868825 0.03552404 -0.06397793 -0.004447599 -0.026476499 -0.012980866
0.09843976 -0.12313666 -0.07388068 0.017530369 -0.18767639 0.07522569 0.104892366 0.060033217
00000000: 5b8f 523d 0be7 05be fb21 36bd bec2 eebb
00000010: c41f f13d 0705 84bd 49f4 8e3d 030b b7bd
00000020: 2877 86bd 98f5 113e 38dc 6fbd 0c75 93bd
00000030: dc5d 86bd 2990 003d 4f1a a3bd e300 9c3c
00000040: 102d 7a3d d3be 30bd 46ee c33d ab76 933d
00000050: a63a 5c3d 9da1 6b3d 1b61 fd3c 99f2 0f3c
00000060: 4c58 8c3d 6298 a63c aa95 953b 9ddc ff3d
00000070: 5a02 d53d 8f5c 4fbd e25e 9dbd c66a 0abc
00000080: a835 3d3d 8297 893d 6b7a 3ebd d780 50bd
00000090: afce ea3c 8b21 793d 4384 56bd 7a79 70bd
000000a0: bd9e fabd a79e 9fbd f20a 953d 7988 383d
000000b0: 8dc2 023d e49c 103d 1781 b7bd e608 d63b
000000c0: 3135 60bd 31d9 e53c 9103 333e a365 353e
000000d0: 4a1a ca3b 7245 6fbd a8bf 98bc 016d ad3c
000000e0: da9b 70bc 0331 093d 101a 233e 55d6 5dbd
000000f0: 9d78 adbd ef41 ce3d 5591 7b3d 2846 e03d
00000100: 1e73 72bd e0e2 a7bc b6cd c3bc b4da d2bd
00000110: 785e 333d 4ccf bf3d c4af b73d 0307 7abd
00000120: 127e f5bd 5200 353e fa3f dfbd 0bc0 043e
00000130: d5ed 97bc 3cfc 2abd 03c3 9b3d eb01 4a3d
00000140: 4f3f 5039 e0fe aabd 1dd0 843c 78f2 883c
00000150: 13a4 033e 37d4 043e 4f06 5b3d b45c 0abd
00000160: 8ad9 22bc c0fd fd3d 9fb4 96bd e7c1 0dbe
00000170: 1940 5dbc cc0a e53c c219 953d c354 a83c
00000180: 30ad ce3a d8ae e1bc 4c3b 6ebd 66f3 073d
00000190: 9b6d ddbb 5e4f 3abc 8ce1 053e 9889 dc3c
000001a0: 879d f9bd ac96 9a3c ef07 4f3d 3f0d 743c
000001b0: 42ce df3c be6f 25be 556f 403d 3200 92bd
000001c0: 04f1 c83d 6a84 cc3c f5da 24bd 99a1 50bd
000001d0: 6e59 d23a 3dbd 6abd db27 d3bd 6f46 fbbc
000001e0: 94cb c2bd b41c 263e fec3 bc3d c070 ba3c
000001f0: 2547 253e bfba be3d e03e 52bd 73e1 0c3d
00000200: 5799 12bc 31a0 103d bf13 fdbb 3583 52bc
00000210: fadb 963c ce73 ad3d 61d3 8cbd 780c 3cbc
00000220: c141 c23d 97f7 5fbd be26 873d 5fae e33d
00000230: dfdc 953d 1feb 84bd f57c 3f3d 1724 43bd
00000240: abe1 113d 94b4 823c a0f9 4fbd 4184 a3bc
00000250: 0e60 18bd ed41 203d fb6a 0cbd d7bc 76bd
00000260: b016 a7bd 2875 193c cb30 cfbd 4ce0 993d
00000270: baa2 3c3d cf79 9dbd 8139 6ebd 187c 0c3c
00000280: 1376 d03b 5511 a43c efd9 833d 41e7 e73c
00000290: 00e1 d63d 873e 98bc d651 823c 5466 ff3d
000002a0: 70ef 133d 55aa 9d3c 580a b0bd c6b9 30bd
000002b0: 007d a33c bd5e 733d 1372 fc3c f222 3d3d
000002c0: 7257 373d 45dc 9b3d a82a 37bd 8b09 f3bd
000002d0: d818 c6bc 3615 193d 10b8 133e 3928 453d
000002e0: de7a 703d e71b a03c ebd2 bdbc 89a5 7cbd
000002f0: 2f0f dfbb 97b7 8bbc 6d77 a63d 7db0 abbd
00000300: 22cc 123e 1799 4b3d 380d 9a3d 7247 2b3e
00000310: 6f2b 503d 3870 3e3d b630 1b3d b2cb 82bd
00000320: c459 98bc c241 b6bd 8e34 8d39 f46c 86bb
00000330: b60f fe3a 39ab 8a3c 1a81 a83d 2aae 1d3d
00000340: 110f b3bb 381e 843c 2419 98b9 24e5 8dbc
00000350: 8924 c1bd def1 133c c359 c1bd e6d1 97bd
00000360: 044a a03d 64b8 18bc 9f0b 5c3d 7d22 223d
00000370: 317b 593d 85f6 9d3b 5041 643b f6ed d83d
00000380: a25c 8fbd 65f7 de3d 2682 c73b 9914 743b
00000390: 62b2 9b3d a1be 723d fad9 d73c 857a 1a3d
000003a0: cac8 de3d d294 5a3d adde afbd 54c6 4fbd
000003b0: 985c 793d a6e3 2f3e 3b9e 3abd d47f a33d
000003c0: 4782 ad3b ad0f 8dbd 92f4 b33d a881 113d
000003d0: dc06 83bd 2abd 91bb 3ee5 d8bc b3ad 54bc
000003e0: c99a c93d 132f fcbd c14e 97bd d99b 8f3c
000003f0: 3d2e 40be ed0f 9a3d cfd1 d63d 64e5 753d

fc2.bias f4 [128]
0.015713433 -0.066093504 0.025705287 -0.012612733 0.06852707 -0.055719092 0.07822739 -0.012730993
-0.06533171 -0.06888288 0.055390786 -0.07579915 -0.013127817 -0.03167247 0.08131786 -0.019169258
0.022758853 -0.06996311 -0.054866415 0.037565134 0.023775488 0.08727651 -0.0012970716 -0.015425046
0.08606483 0.00021546634 -0.06843932 0.03618869 -0.044571485 0.018835962 0.060529683 0.06429376
0.07602341 -0.030410849 -0.058606908 0.01594897 -0.007266653 -0.023985868 -0.08814468 0.05961408
-0.019614061 -0.07877563 -0.011608766 -0.008236805 0.031976953 0.060712777 -0.0006667402 -0.038430016
-0.050814047 -0.07623937 -0.016654385 0.078635275 0.02993448 0.053729743 0.06965984 0.055326052
-0.033818893 -0.017370068 0.043994628 0.008737797 0.03915151 0.048787877 -0.08318401 -0.024212845
0.06999632 0.09302163 0.0038079037 -0.03888969 -0.08742409 -0.0034084844 0.034316372 -0.055546243
-0.05747807 0.055336297 0.08064866 -0.024893004 0.03468353 0.07282511 0.056407325 0.07908896
-0.08958101 0.0758534 -0.08483468 -0.003777273 0.025495209 0.032279205 -0.017507581 0.08376905
0.014355488 0.03816845 0.021489596 -0.0875737 -0.034915246 -0.051926475 -0.046487797 0.059245892
0.028398708 0.024172135 0.02582631 0.039078616 -0.034992583 -0.0120993955 -0.05422747 -0.06096996
0.030273665 0.027173027 0.034405906 -0.014006559 0.030227622 0.084560305 0.056231588 -0.06333393
0.05605801 -0.009661341 0.04063476 0.06044244 -0.03858039 -0.00663385 -0.00032443428 0.09685037
-0.021787412 0.011800394 0.014385379 -0.03398789 -0.05228217 0.099312864 0.079125695 0.04286521
00000000: 75b9 803c 085c 87bd e593 d23c a3a5 4ebc
00000010: ec57 8c3d b439 64bd af35 a03d a895 50bc
00000020: a2cc 85bd 7812 8dbd 73e1 623d 963c 9bbd
00000030: 0e16 57bc feba 01bd fa89 a63d d908 9dbc
00000040: c670 ba3c d248 8fbd 9bbb 60bd e6dd 193d
00000050: d0c4 c23c 07be b23d 8002 aaba 55b9 7cbc
00000060: c242 b03d ceee 6139 ea29 8cbd 983a 143d
00000070: 9790 36bd e04d 9a3c f9ed 773d 72ac 833d
00000080: 29b2 9b3d 2c20 f9bc cc0d 70bd 6aa7 823c
00000090: 1a1d eebb 037e c4bc 3385 b4bd e52d 743d
000000a0: abad a0bc 1e55 a1bd b232 3ebc aaf3 06bc
000000b0: 44fa 023d f6ad 783d 2dc8 2eba cb68 1dbd
000000c0: 6422 50bd 6323 9cbd c76e 88bc 880b a13d
000000d0: 2839 f53c b813 5c3d d1a9 8e3d 929d 623d
000000e0: ae85 0abd ac4b 8ebc b633 343d fa28 0f3c
000000f0: 555d 203d ccd5 473d 615c aabd 045a c6bc
00000100: 3b5a 8f3d 2082 be3d 068e 793b cc4a 1fbd
00000110: 670b b3bd e160 5fbb 538f 0c3d 7584 63bd
00000120: 206e 6bbd 50a8 623d 202b a53d 6aec cbbc
00000130: 5110 0e3d 5525 953d 5e0b 673d 65f9 a13d
00000140: 4076 b7bd 0759 9b3d cebd adbd 208c 77bb
00000150: 54db d03c 3337 043d 0f6c 8fbc 1c8f ab3d
00000160: 4833 6b3c 8556 1c3d f30a b03c d759 b3bd
00000170: 4a03 0fbd dbb0 54bd fd69 3ebd d2ab 723d
00000180: 68a4 e83c a404 c63c b391 d33c e610 203d
00000190: 6254 0fbd 8b3c 46bc a01d 5ebd a3bb 79bd
000001a0: 7a00 f83c f899 de3c 35ed 0c3d c47b 65bc
000001b0: eb9f f73c f42d ad3d 1853 663d 38b5 81bd
000001c0: 159d 653d 9a4a 1ebc a270 263d 7e92 773d
000001d0: 7906 1ebd c460 d9bb d518 aab9 7d59 c63d
000001e0: 847b b2bc 7156 413c a7b0 6b3c e336 0bbd
000001f0: d425 56bd 8b64 cb3d a70c a23d 6e93 2f3d

prob.weight f4 [2, 128]
0.06332741 -0.113194965 0.13776894 0.1251796 0.13203527 -0.08821887 -0.08300589 -0.07695682
0.0778378 0.07207034 -0.0852285 0.020058703 0.056266107 -0.13338637 -0.0006798834 -0.10823146
0.028521689 -0.02799133 0.03722179 0.0032390058 0.13949548 0.13928944 0.026115743 0.11127992
-0.1100891 0.060123913 0.063410245 -0.023009803 0.065306395 0.059008375 -0.1442862 -0.050695263
0.056262475 -0.076463945 0.06805423 0.07630529 -0.030820059 0.117338896 -0.039427698 0.048864268
-0.12648353 0.047702145 0.0019420779 -0.07467463 0.1052905 0.14175658 -0.07117935 -0.11500811
0.079276234 0.031820975 0.02855686 -0.11931224 -0.06451369 -0.0747249 -0.05357767 -0.08423817
-0.019230425 0.06393316 -0.022102147 -0.012004081 0.06057357 0.08694495 -0.084561236 -0.10650033
-0.13614768 -0.12208727 -0.010125818 0.11605855 -0.027488923 0.01629007 -0.054806318 0.016557552
0.040035587 -0.08790983 -0.15795624 -0.022782363 -0.09657647 -0.1231861 0.008647706 -0.106831074
-0.06152119 -0.0041634482 -0.03328401 -0.025261544 -0.11258062 0.09255261 -0.07301301 0.1553688
-0.016831657 0.11497899 -0.12856281 0.07311531 0.1252464 0.07055894 -0.011514458 0.034783166
0.15870789 0.033423103 0.13156134 -0.043339867 -0.0014564873 0.06085869 -0.040458128 0.104824
-0.014449182 0.04127503 -0.11891687 -0.09364074 0.019345067 -0.0022639574 -0.07580936 0.07246974
-0.08570016 -0.0098697655 0.10571622 0.112353474 -0.070286654 0.004877591 0.048974823 -0.17531624
0.04258672 0.027400214 -0.010441836 0.008480534 -0.014298389 0.15248527 -0.03136147 -0.08632727
-0.06343578 0.017966103 -0.067103215 -0.1461125 -0.06296202 -0.002543322 0.06973793 0.045959078
-0.11049413 -0.03331826 -0.047518395 -0.15204965 -0.00606618 0.019175645 -0.14290994 0.15350974
0.033723578 0.0253927 -0.018372443 0.01001367 -0.09873656 0.014432311 0.041616306 0.01585647
0.03745355 -0.09836712 -0.054535903 0.15952642 0.0347804 0.07023974 0.09896731 0.15090476
-0.092817515 0.11648331 -0.13476735 -0.040475503 0.10352731 -0.0882284 -0.04509675 -0.08066711
0.13834338 -0.057257123 0.0035587018 -0.039945796 -0.032427512 0.011384827 0.045578755 0.1265753
-0.073063575 0.04496288 0.12097345 0.07696756 0.103955984 0.074061215 0.014496564 0.14887461
0.011490494 -0.071816504 -0.003689386 -0.07628221 -0.0023200049 -0.14597006 0.01704435 0.14467385
0.037886977 0.04066978 0.04311881 -0.118363276 0.087305725 -0.046795383 0.055186488 0.021416154
-0.03338975 0.049972605 0.0750586 0.08714752 0.07821582 0.16348614 -0.07793385 0.020238692
-0.0014675497 0.10708243 -0.036562625 0.0084868595 0.030657277 -0.111062124 0.10200374 0.0012536077
-0.015837755 -0.08364741 0.114406355 0.044727944 -0.014911869 -0.047173683 0.030203264 0.058259264
-0.0008912955 -0.006689556 -0.05151376 -0.04366835 -0.02190677 -0.004487974 -0.041132204 -0.04356943
0.11108113 -0.059621602 0.066525474 0.08880891 -0.11514276 -0.11753113 0.07717162 -0.023627872
0.12517017 -0.010293735 -0.083722696 0.0092674885 0.09688356 0.052125406 0.052969776 0.07423974
0.05952493 -0.02327869 -0.0025257305 -0.00031985343 0.1697588 -0.07135744 0.10158812 -0.05906461
00000000: cdb1 813d c3d2 e7bd 4d13 0d3e 152f 003e
00000010: 4134 073e 18ac b4bd fefe a9bd 8a9b 9dbd
00000020: 6d69 9f3d 9d99 933d 488c aebd 2652 a43c
00000030: 4a77 663d 7096 08be 343a 32ba 75a8 ddbd
00000040: 51a6 e93c 134e e5bc e075 183d 8045 543b
00000050: e7d7 0e3e e4a1 0e3e aff0 d53c bae6 e33d
00000060: 6576 e1bd 7e44 763d 3bdd 813d 0e7f bcbc
00000070: 5cbf 853d c4b2 713d c3bf 13be d6a5 4fbd
00000080: 7b73 663d 2199 9cbd 0460 8b3d f345 9c3d
00000090: 597a fcbc 604f f03d f07e 21bd e625 483d
000000a0: e684 01be 5363 433d 528d fe3a 03ef 98bd
000000b0: 8ca2 d73d a328 113e 7bc6 91bd 5f89 ebbd
000000c0: 945b a23d b656 023d 13f0 e93c fa59 f4bd
000000d0: c11f 84bd 5e09 99bd 4274 5bbd 1085 acbd
000000e0: 2089 9dbc 63ef 823d 900f b5bc c4ac 44bc
000000f0: fe1b 783d 3210 b23d 712e adbd d81c dabd
00000100: 4c6a 0bbe e408 fabd c2e6 25bc 1bb0 ed3d
00000110: 7330 e1bc c172 853c 977c 60bd b4a3 873c
00000120: 5bfc 233d 120a b4bd 48bf 21be 14a2 babc
00000130: e2c9 c5bd fe48 fcbd 1caf 0d3c 40ca dabd
00000140: a5fd 7bbd 896d 88bb d054 08bd 4cf1 cebc
00000150: ab90 e6bd 398c bd3d d887 95bd 0019 1f3e
00000160: 8be2 89bc 1b7a eb3d f8a5 03be 7bbd 953d
00000170: 9840 003e 3581 903d 23a7 3cbc cb78 0e3d
00000180: 5284 223e aae6 083d 04b8 063e 2585 31bd
00000190: 9be7 beba f646 793d 6cb7 25bd f7ad d63d
000001a0: 43bc 6cbc 0110 293d b08a f3bd b7c6 bfbd
000001b0: 8c79 9e3c e75e 14bb f041 9bbd 046b 943d
000001c0: 9183 afbd ccb4 21bc bf81 d83d 9419 e63d
000001d0: 73f2 8fbd 33d4 9f3b d399 483d 1a86 33be
000001e0: 6a6f 2e3d 6a76 e03c 3c14 2bbc f0f1 0a3c
000001f0: ca43 6abc 1925 1c3e e374 00bd 5acc b0bd
00000200: 9eea 81bd a62d 933c 696d 89bd 849e 15be
00000210: 3bf2 80bd ddad 26bb c3d2 8e3d 963f 3c3d
00000220: bf4a e2bd ba78 08bd a6a2 42bd e7b2 1bbe
00000230: cec6 c6bb 3e16 9d3c fc56 12be a831 1d3e
00000240: bc21 0a3d 5a04 d03c ce81 96bc 6010 243c
00000250: 6536 cabd 8075 6c3c dc75 2a3d 6ee5 813c
00000260: e568 193d b374 c9bd 0a61 5fbd e55a 233e
00000270: e575 0e3d dad9 8f3d 5faf ca3d c786 1a3e
00000280: 1c17 bebd cd8e ee3d 7400 0abe a4c9 25bd
00000290: 2006 d43d 17b1 b4bd 5fb7 38bd cc34 a5bd
000002a0: e3a9 0d3e 7286 6abd 1c39 693b 349e 23bd
000002b0: b6d2 04bd 6d87 3a3c cab0 3a3d f59c 013e
000002c0: 5ba2 95bd ff2a 383d eec0 f73d 2ba1 9d3d
000002d0: e0e6 d43d 68ad 973d ff82 6d3c 9672 183e
000002e0: a042 3c3c 8814 93bd a0c9 71bb d939 9cbd
000002f0: 390b 18bb 2d79 15be 98a0 8b3c 6225 143e
00000300: 602f 1b3d 5b95 263d 599d 303d 7268 f2bd
00000310: 58cd b23d 84ac 3fbd 3a0b 623d ee70 af3c
00000320: b1c3 08bd 13b0 4c3d 53b8 993d 667a b23d
00000330: 9e2f a03d e968 273e c89b 9fbd 9dcb a53c
00000340: cc5a c0ba 084e db3d b1c2 15bd 780c 0b3c
00000350: f824 fb3c 8a74 e3bd 56e7 d03d 1850 a43a
00000360: 2ebe 81bc 554f abbd e14d ea3d a634 373d
00000370: e950 74bc 3139 41bd d66c f73c 44a1 6e3d
00000380: d4a5 69ba 1034 dbbb 1800 53bd 95dd 32bd
00000390: d475 b3bc db0f 93bb 3e7a 28bd dc75 32bd
000003a0: 817e e33d c835 74bd 823e 883d 72e1 b53d
000003b0: f8cf ebbd 29b4 f0bd 280c 9e3d 3d8f c1bc
000003c0: 9c2c 003e 0ea7 28bc ce76 abbd aad6 173c
000003d0: e36a c63d 7381 553d d6f6 583d 010b 983d
000003e0: 6ad0 733d f4b2 bebc ba86 25bb 00b2 a7b9
000003f0: 40d5 2d3e d923 92bd 6f0d d03d bced 71bd

prob.bias f4 [2]
0.032138553 -0.07725823
00000000: b7a3 033d 9039 9ebd
