RLIntro/Reinforce/checkpoints/Reinforce_discrete/Reinforce_policy_600.pth (torch_old, 70658 bytes, 6 tensors)

fc1.weight f4 [128, 4]
0	0xbe6ecbb1	-0.2331989
1	0xbece7784	-0.40325558
2	0x3ce618b7	0.028087957
3	0x3c804f10	0.0156627
4	0x3e7d2d19	0.24724235
5	0x3c9c9bd4	0.019117273
6	0x3e54bbd2	0.20774773
7	0x3db352ac	0.08756003
8	0x3dd7c23c	0.10535094
9	0xbb993be9	-0.0046763313
10	0xbe51b683	-0.20479779
11	0xbbd139f6	-0.0063850833
12	0x3e10a8e6	0.1412693
13	0xbeb84f97	-0.35998222
14	0xbe607721	-0.21920444
15	0x3e9fb55e	0.3119306
16	0xbe8fcd57	-0.2808635
17	0xbe45f398	-0.19331205
18	0x3ea98983	0.33112726
19	0xbeacd1c3	-0.33753785
20	0x3ea929bd	0.33039656
21	0x3eb329cd	0.3499283
22	0xbcd281b2	-0.02569661
23	0xbeaa8e91	-0.33311895
24	0x3ef57b87	0.47945806
25	0x3e5f75ba	0.21822253
26	0xbe39e507	-0.18153773
27	0xbf0eb9c0	-0.5575218
28	0x3e1f21a9	0.15540184
29	0x3ecba1a0	0.39771748
30	0x3f0acc0a	0.5421759
31	0x3e2781dd	0.16358133
32	0x3e7dcff6	0.24786362
33	0x3dbf76b3	0.09348812
34	0xbed7a9dd	-0.42121783
35	0x3c771ca0	0.015082508
36	0xbd1874b5	-0.037220675
37	0xbdb9a686	-0.09064965
38	0xbe88c667	-0.2671387
39	0xbf0265ec	-0.5093677
40	0x3eb4af8f	0.3529019
41	0x3e025439	0.12727441
42	0x3e1e4cd8	0.15459001
43	0x3f08c062	0.5341855
44	0x3ec44899	0.38336638
45	0xbe6a0d9d	-0.22856756
46	0x3e8242e3	0.25441656
47	0x3eb8856f	0.36039302
48	0xbee52601	-0.44755557
49	0xbe85ff1a	-0.2617119
50	0xbe8a4a65	-0.27009884
51	0x3e776e97	0.2416328
52	0xbed4ced6	-0.41564053
53	0x3c8e5b09	0.017377393
54	0x3dd3132d	0.10306392
55	0xbc8d8b7e	-0.01727843
56	0xbe8456d7	-0.25847504
57	0xbeaf71ea	-0.34266597
58	0x3f0907a1	0.53527266
59	0x3d96cc1b	0.07363149
60	0x3e034edb	0.1282305
61	0xbeb0617f	-0.34449384
62	0xbd723e26	-0.0591413
63	0xbe347a01	-0.17624666
64	0xbed667d3	-0.41876087
65	0xbf067ee8	-0.52537394
66	0xbe5be074	-0.21472341
67	0xbef659b6	-0.4811532
68	0x3e239e28	0.159783
69	0xbe1d5db4	-0.15367776
70	0x3e83f42a	0.2577222
71	0xbea8a9e2	-0.3294211
72	0xbea61243	-0.32435808
73	0xbd983974	-0.07432833
74	0xbdc366b2	-0.09541072
75	0xbef74c0a	-0.483002
76	0x3e09a312	0.13441113
77	0xbe23ed7b	-0.1600856
78	0xbf0f963e	-0.56088626
79	0xbe953e2f	-0.29149005
80	0x3d924ca0	0.07143521
81	0x3ecfb467	0.40567324
82	0xbebd65f5	-0.3699185
83	0x3d1cbf52	0.038268395
84	0x3e616ed1	0.2201493
85	0xbd9afca8	-0.075677216
86	0xbef86527	-0.48514673
87	0xbef65e7c	-0.4811896
88	0xbed73bb3	-0.42037734
89	0x3e842868	0.25812078
90	0xbebe6de5	-0.37193218
91	0xbefd82f9	-0.49513987
92	0xbeb38382	-0.3506127
93	0xbe3ea3da	-0.18617192
94	0xbf096520	-0.5366993
95	0xbea98781	-0.33111194
96	0xbe25766b	-0.16158454
97	0xbedcbaf5	-0.43111387
98	0x3d33a34c	0.043856904
99	0x3e0d7551	0.13814284
100	0xbddd0988	-0.107928336
101	0x3e10aba4	0.14127976
102	0x3e8ad75a	0.27117425
103	0x3d151c0a	0.036403693
104	0xbe35c26b	-0.17749946
105	0xbc97bf47	-0.018523825
106	0xbedeed8d	-0.43540612
107	0xbef2eabe	-0.4744472
108	0x3e63b07a	0.22235289
109	0xbd9c379d	-0.07627795
110	0xbea42d71	-0.3206592
111	0xbedde04c	-0.43335187
112	0xbe81cc0a	-0.25350982
113	0x3e95920c	0.29212987
114	0x3a2faaf2	0.0006701193
115	0xbef7b841	-0.48382762
116	0xbe80a965	-0.25129238
117	0xbd7b79c5	-0.061395425
118	0xbc6bd26e	-0.014393432
119	0xbdbdc353	-0.09265771
120	0x3e90bcb1	0.2826896
121	0x3d9a4ece	0.07534562
122	0xbe0a9b68	-0.13535845
123	0xbe1cce7a	-0.1531314
124	0x3e7d1cdb	0.24718039
125	0x3ea748ad	0.32672635
126	0xbdd0bdf1	-0.101924784
127	0xbefc0aaf	-0.492269
128	0xbe0cff34	-0.13769227
129	0xbe963e74	-0.29344523
130	0xbe84e0ae	-0.25952667
131	0x3d3069d9	0.043069694
132	0xbee46f33	-0.44616088
133	0x3eba4500	0.36380768
134	0xbebc8a86	-0.36824435
135	0xbdf19bd5	-0.11797301
136	0x3de07802	0.1096039
137	0x3e90d393	0.28286418
138	0xbf0aeb83	-0.5426561
139	0xbd79fb65	-0.061030764
140	0xbdc873c0	-0.097877026
141	0x3ebe0c0e	0.37118572
142	0x3dc97164	0.09836081
143	0xbec96076	-0.39331406
144	0x3eca6ee6	0.39537734
145	0xbeb241ea	-0.34815913
146	0xbeb0e348	-0.34548402
147	0x3e6820cd	0.22668763
148	0xbebcca6e	-0.36873192
149	0xbe320538	-0.17384803
150	0x3f13598b	0.57558507
151	0x3e8d766c	0.2762941
152	0x3e5134fa	0.20430365
153	0x3ea3ff10	0.32030535
154	0x3e0a01a2	0.13477185
155	0x3ec50573	0.3848072
156	0x3ebd78b9	0.37006167
157	0x3da1e923	0.079057954
158	0x3dc7f819	0.09764118
159	0x3e69f491	0.22847201
160	0x3eaa5b16	0.33272618
161	0x3ec77179	0.3895376
162	0x3ee00feb	0.43762144
163	0x3ed62473	0.41824684
164	0xbdd1fc42	-0.102531925
165	0x3edf0e5f	0.43565652
166	0x3ec58535	0.3857819
167	0x3ed1c4cf	0.40970466
168	0x3e254fa6	0.16143665
169	0x3ea1cc6d	0.31601277
170	0xbedcf57f	-0.4315605
171	0xbe69eef6	-0.22845063
172	0xbe05644f	-0.13026546
173	0xbe22ba22	-0.15891317
174	0x3edc2a86	0.43001193
175	0x3ef7d374	0.48403513
176	0xbe7cc14c	-0.24683112
177	0xbe8e4510	-0.27787066
178	0x3e970a59	0.29500082
179	0xbe8e5f90	-0.27807283
180	0x3ea18215	0.31544557
181	0x3e7a4d19	0.24443473
182	0xbe058276	-0.13038048
183	0x3edfeb75	0.43734327
184	0xbe393c0f	-0.18089317
185	0x3eb73d51	0.35788968
186	0x3f10ab96	0.5651182
187	0x3d8d13f2	0.0688857
188	0x3ed5fd28	0.41794705
189	0xbe9ca9b9	-0.30598238
190	0xbc11566b	-0.008870701
191	0x3f0783e0	0.529356
192	0x3ea38b28	0.31942105
193	0xbeead949	-0.458689
194	0xbe86be51	-0.26317075
195	0x3e315af1	0.17319848
196	0xbe85fa37	-0.2616746
197	0x3eed78ac	0.46381128
198	0x3e08a79e	0.13345191
199	0x3eb286fb	0.34868607
200	0x3e292726	0.1651884
201	0xbe871155	-0.2638041
202	0xbe8620d5	-0.26196924
203	0xbef36390	-0.47536898
204	0x3ebe448e	0.37161678
205	0xbea1b991	-0.31586888
206	0xbee10d87	-0.43955633
207	0xbe8a1e68	-0.26976323
208	0x3ea23f61	0.3168898
209	0xbde0b01a	-0.10971089
210	0x3cad4d51	0.021155031
211	0x3e147fe3	0.1450191
212	0x3d979a92	0.07402529
213	0x3ec284f0	0.37992048
214	0x3eeda11a	0.46411973
215	0xbdb509dd	-0.08839772
216	0x3ef9fcba	0.48825628
217	0x3edb4bdc	0.42831314
218	0xbea9ba83	-0.3315011
219	0x3ee77f3d	0.45214263
220	0xbeb92bc3	-0.361662
221	0xbe15521c	-0.14582103
222	0xbe7707c5	-0.24124058
223	0xbe367d42	-0.1782122
224	0xbdc82b1f	-0.0977385
225	0x3ebe08f6	0.37116212
226	0xbeaa951d	-0.3331689
227	0xbe90e00e	-0.2829594
228	0xbe2168ff	-0.15762709
229	0x3e09d202	0.13459018
230	0x3dd4c8d9	0.10389871
231	0xbf0993aa	-0.5374094
232	0xbe2e1d29	-0.17003311
233	0xbed9a169	-0.4250596
234	0xbec794d2	-0.38980728
235	0xbecfb787	-0.40569708
236	0xbebdaef7	-0.3704755
237	0xbe2b1e7e	-0.1671085
238	0xbea8debb	-0.3298243
239	0x3f0ffa5e	0.56241405
240	0xbee522fb	-0.4475325
241	0x3e45c2ed	0.1931264
242	0x3ef432d8	0.4769504
243	0x3e83b877	0.25726673
244	0xbefadf23	-0.48998365
245	0x3eb24f02	0.34825903
246	0xbdb68d29	-0.08913643
247	0xbe63519c	-0.221991
248	0x3eafaca0	0.3431139
249	0x3e908837	0.28228924
250	0x3d88dc2e	0.06682621
251	0xbe8a79fe	-0.27046198
252	0x3d3b041f	0.045658227
253	0xbecfbad2	-0.4057222
254	0xbe804831	-0.25055078
255	0x3e25f4e7	0.16206704

fc1.bias f4 [128]
0	0xbe74a99a	-0.23892823
1	0xbe2c9510	-0.16853738
2	0xbe118d34	-0.14214021
3	0xbeb796d8	-0.35857272
4	0x3edc9671	0.43083528
5	0x3e3a2124	0.18176705
6	0xbde32c81	-0.11092473
7	0xbe6a7170	-0.22894835
8	0x3e817998	0.2528808
9	0x3ebd4932	0.36969906
10	0xbec5ec4f	-0.38656852
11	0x3d9f4e82	0.07778646
12	0xbde1a727	-0.1101821
13	0xbe98dc4e	-0.2985558
14	0x3e08f336	0.13374028
15	0x3eccc478	0.39993644
16	0xbd078941	-0.03308988
17	0xbef2cdca	-0.4742263
18	0x3e7dcfad	0.24786253
19	0x3eb42952	0.35187775
20	0xbe907cde	-0.28220266
21	0x3ecbc2e5	0.3979713
22	0x3ec43b75	0.38326612
23	0x3eaa7cba	0.33298284
24	0xbe5cfd3e	-0.21580979
25	0xbe803710	-0.2504201
26	0x3ed4d14e	0.41565937
27	0x3ed947c8	0.42437577
28	0xbc493518	-0.012280725
29	0xbe9f5fc7	-0.3112776
30	0x3e259bd4	0.16172725
31	0x3cccf59b	0.025019458
32	0xbe6670dc	-0.2250399
33	0x3e280259	0.16407146
34	0x3c541ca8	0.012946285
35	0x3eb0a6c0	0.3450222
36	0xbedfb705	-0.4369432
37	0x3ed0fa5d	0.40816012
38	0x3e8f8367	0.2802994
39	0xbe053a28	-0.13010466
40	0xbeb1b7e8	-0.34710622
41	0x3d25d9be	0.04049086
42	0x3e908e58	0.282336
43	0xbe1e20c1	-0.15442182
44	0xbe43b046	-0.19110212
45	0x3efea188	0.49732614
46	0xbd0d9266	-0.034563445
47	0x3e8fb7c4	0.2806989
48	0x3da67ec9	0.08129651
49	0x3eb64b77	0.3560445
50	0xbeee5705	-0.46550766
51	0x3e0fc84b	0.1404125
52	0x3ee113e4	0.43960488
53	0x3e385bb3	0.1800373
54	0xbe8ea047	-0.27856657
55	0x3e98bc04	0.29830945
56	0xbdd656d0	-0.10465777
57	0x3e168b4f	0.1470158
58	0xbebc15ee	-0.3673548
59	0x3eded805	0.43524185
60	0x3d96fc4b	0.0737234
61	0xbe4f88bd	-0.20267005
62	0x3edb446d	0.42825642
63	0x3e8858c5	0.26630226
64	0xbd83bdf1	-0.06432713
65	0x3d0e97b6	0.03481265
66	0x3ee4be3b	0.44676384
67	0xbdb5d53e	-0.08878563
68	0x3ec249f0	0.37947035
69	0x3e3c3d3a	0.18382731
70	0x3e852f56	0.26012677
71	0xbec71baa	-0.38888294
72	0x3d99d050	0.075104356
73	0x3e3a9d87	0.18224154
74	0xbd7f80e8	-0.062378794
75	0xbeb77d18	-0.35837626
76	0x3e73eb05	0.23820122
77	0xbed9a928	-0.42511868
78	0xbeda0418	-0.42581248
79	0xbe82f670	-0.25578642
80	0x3e580f7e	0.2109966
81	0x3e89c2de	0.26906484
82	0x3ea5c35e	0.32375616
83	0xbd9f790e	-0.07786761
84	0x3e348719	0.1762966
85	0x3dc43bc6	0.095817134
86	0x3d8c80b7	0.06860488
87	0x3ee72e49	0.451525
88	0xbeec2e8e	-0.46129268
89	0xbeaf2889	-0.34210613
90	0x3e65f1c2	0.22455505
91	0xbd878146	-0.06616454
92	0x3cee07b9	0.029056417
93	0xbe8f8797	-0.28033134
94	0xbdefa35d	-0.11701081
95	0x3e581431	0.21101452
96	0xbebcef1d	-0.3690118
97	0x3e4d7d30	0.20067286
98	0x3e3f868d	0.18703671
99	0x3c61e2c7	0.013786978
100	0xbedbb65c	-0.42912567
101	0xbd1c8c4f	-0.038219746
102	0xbe06d557	-0.1316732
103	0x3ecf5447	0.40493986
104	0xbe37d45f	-0.17952107
105	0xbe6c86cf	-0.230983
106	0xbee529f1	-0.4475856
107	0xbe9ba803	-0.3040162
108	0xbe5dc6f3	-0.21657924
109	0x3d416ccc	0.047222897
110	0x3e6c09bc	0.23050588
111	0xbe1ba842	-0.15200904
112	0xbec132cc	-0.37734067
113	0xbed7964f	-0.42106864
114	0x3d8ec5ba	0.06971307
115	0x3efd5ce2	0.49484926
116	0x3e28188c	0.16415614
117	0xbe18b7dd	-0.14913888
118	0xbe54c4fd	-0.2077827
119	0x3e7a9356	0.24470267
120	0x3efc3a8c	0.49263418
121	0xbd862416	-0.065498516
122	0x3dcd99dc	0.10039112
123	0xbd97da35	-0.074146666
124	0x3d5d9629	0.054098282
125	0x3e990b19	0.2989128
126	0x3e2204de	0.15822169
127	0xbcb2fc1a	-0.021848727

fc2.weight f4 [128, 128]
0	0x3d13b210	0.036058486
1	0xbda8d796	-0.08244245
2	0xbd3f7bd4	-0.04674895
3	0x3d15795c	0.03649269
4	0x3dd0e998	0.102008045
5	0xbd41444c	-0.047184274
6	0x3db51205	0.088413276
7	0xbd7a22fc	-0.06106852
8	0xbd6521ad	-0.05594032
9	0x3e015cb5	0.12633021
10	0xbc996ac2	-0.018727664
11	0xbd27bf2f	-0.04095381
12	0xbd9ddd95	-0.07708279
13	0x3bb291ac	0.0054494943
14	0xbdb6b994	-0.08922115
15	0x3c46c2f0	0.012131438
16	0x3d177363	0.036975276
17	0xbd30bed3	-0.043150734
18	0x3d882200	0.0664711
19	0x3d72fcb6	0.059323035
20	0x3d6a4494	0.057194307
21	0x3d4dc4ee	0.050236635
22	0x3c72dab8	0.014822654
23	0xbcd4ebce	-0.025991347
24	0x3d79399d	0.06084596
25	0xbbc3a16f	-0.005970172
26	0xbc68e844	-0.014215533
27	0x3df74e1d	0.12075446
28	0x3dcb69cc	0.099322885
29	0xbda18bfa	-0.078880265
30	0xbd7f6f11	-0.06236178
31	0x3bc54db0	0.006021224
32	0x3caec567	0.021334363
33	0x3d795d5a	0.060880043
34	0xbce63f92	-0.028106485
35	0xbd44a5f8	-0.048009843
36	0x3d8bbee4	0.06823519
37	0x3d677816	0.056511007
38	0xbcd8c1a9	-0.026459532
39	0xbb7d7c24	-0.003867873
40	0xbde3f322	-0.11130358
41	0xbd16699c	-0.03672181
42	0x3da1c0e8	0.07898122
43	0x3d7e7184	0.062119976
44	0x3bc24173	0.0059282123
45	0x3d5b8ce6	0.053601168
46	0xbd53e2a4	-0.051729813
47	0x3cbdef40	0.023185372
48	0xbd44e1b2	-0.048066802
49	0x3d245a8b	0.04012541
50	0x3dd05b6e	0.10173689
51	0x3e2ea5a4	0.17055374
52	0x3c9a6bae	0.018850174
53	0xbd2126fa	-0.03934381
54	0x3c30f1bf	0.010799824
55	0xbc02a948	-0.00797493
56	0xbc1be424	-0.009514842
57	0x3ccd8b15	0.025090734
58	0x3ddc9339	0.10770268
59	0xbd807a5d	-0.06273339
60	0xbda3a76e	-0.07990919
61	0x3dc26369	0.09491617
62	0x3d95de88	0.07317835
63	0x3dccee98	0.10006446
64	0xbc9fa129	-0.019486027
65	0xbcd2840a	-0.025697727
66	0xbba5a17e	-0.0050546518
67	0xbd631f23	-0.055449616
68	0x3cf397b2	0.02973542
69	0x3db75958	0.08952588
70	0x3da7c7f7	0.08192437
71	0xbd8eceb1	-0.06973017
72	0xbdf53407	-0.11972814
73	0x3e05a6b9	0.13051881
74	0xbda3c014	-0.0799562
75	0x3e0588e1	0.13040496
76	0xbc995715	-0.018718282
77	0xbd3db248	-0.0463126
78	0x3d9bc303	0.07605555
79	0x3dbf4113	0.09338584
80	0x3bc0654f	0.005871452
81	0xbd9a38d4	-0.0753037
82	0x3c57b167	0.013164855
83	0x3cd149a1	0.025547804
84	0x3df66615	0.12031189
85	0x3dc8c9a1	0.09804083
86	0x3d2dbe4b	0.042417806
87	0xbccb8f1b	-0.024848511
88	0x3cb158d4	0.021648802
89	0x3dc9f4fb	0.098611794
90	0xbd6a412b	-0.057191055
91	0xbdfdbf7d	-0.12390039
92	0x3b8ec64f	0.0043571363
93	0xb9b77410	-0.00034990953
94	0x3d6bd198	0.05757293
95	0x3d4cb119	0.04997358
96	0x3bab11d9	0.0052206335
97	0xbc5d873b	-0.013521011
98	0xbd30e4e8	-0.043187052
99	0x3d00b748	0.03142479
100	0xbba66706	-0.0050781993
101	0xbd410c9e	-0.047131173
102	0x3df66a48	0.1203199
103	0x3d3f79b2	0.046746917
104	0xbd87573a	-0.06608434
105	0x3c6f7860	0.014616102
106	0x3c3b4d59	0.011432015
107	0x3b7e6c6d	0.003882195
108	0x3cd2879c	0.02569943
109	0xbdea8397	-0.1145088
110	0x3d5f2b12	0.054484434
111	0xbd4477de	-0.047965877
112	0x3d651f09	0.0559378
113	0x3cfb493a	0.030674566
114	0xbd137e12	-0.036008902
115	0xbd3e8539	-0.04651377
116	0xbc482310	-0.012215391
117	0xbca4f1cf	-0.020134835
118	0xbda73a34	-0.08165398
119	0xbd4dceb5	-0.05024596
120	0xbdc0e263	-0.0941818
121	0x3e10284e	0.14077875
122	0x3dcd5d18	0.10027522
123	0x3d11c2b1	0.035586063
124	0x3dc1591c	0.094408244
125	0x3dbd7a4e	0.092518434
126	0xbd137587	-0.036000755
127	0x3d24891a	0.040169813
128	0x3ac2f5ef	0.0014874319
129	0xbc23b61a	-0.009992147
130	0xbbb924f3	-0.0056501566
131	0xbd56b51f	-0.052418824
132	0x3cdb15a6	0.026743721
133	0x3d900f91	0.07034219
134	0xbda82f91	-0.082121976
135	0xbd1d69bf	-0.038430925
136	0x3dadbb43	0.08482983
137	0xbd311d4e	-0.043240838
138	0x3cea3f4b	0.028594634
139	0x3d9ef769	0.077620335
140	0x3da0792f	0.07835614
141	0xbd35680c	-0.04428868
142	0x3d40889d	0.047005285
143	0xbd4365fe	-0.04770469
144	0x3d479622	0.048727162
145	0x3c82b494	0.015955247
146	0xbcece741	-0.028918864
147	0xbc48d7e9	-0.012258508
148	0xbd21cadc	-0.039500102
149	0x3d3326a0	0.043738008
150	0xbcaaeed6	-0.020865839
151	0xbd1147e4	-0.03546895
152	0xbda15866	-0.07878189
153	0x3d0d41cb	0.034486573
154	0xbdb2d5b8	-0.0873217
155	0x3d9ca7df	0.07649206
156	0x3d5e0401	0.054203037
157	0xbd3f8dd0	-0.046766102
158	0xbd9223ce	-0.071357355
159	0xba78f3c6	-0.00094967743
160	0x3cd8af8b	0.026450893
161	0x3cd72456	0.026262444
162	0x3d508afd	0.0509138
163	0x3cd6889a	0.026188184
164	0x3d902b17	0.07039469
165	0xbcb2cb43	-0.021825438
166	0xbc253efe	-0.010085819
167	0x3d8f2f43	0.06991436
168	0x3cd1f85e	0.025631126
169	0xbcb0d190	-0.021584302
170	0xbdb92eae	-0.090421066
171	0xbd7aa528	-0.06119266
172	0x3d17331d	0.03691398
173	0x3d22fdcb	0.039792817
174	0xbb7360ff	-0.0037136672
175	0x3cd16603	0.025561338
176	0x3d01850b	0.03162102
177	0x3d80ac55	0.0628287
178	0x3bad12d1	0.005281784
179	0xbdf25bab	-0.118338905
180	0xbd254889	-0.040352378
181	0x3cac93ae	0.021066513
182	0x3defd3d3	0.11710324
183	0x3d8a3099	0.067475505
184	0x3d7403f3	0.05957408
185	0x3ce5f2ab	0.028069815
186	0x3c75d486	0.015004283
187	0xbd77f6d5	-0.06053813
188	0xbc807c57	-0.01568429
189	0xbc0368d1	-0.008020596
190	0x3d90f2fd	0.07077596
191	0xbdaa294e	-0.083086595
192	0x3dd04c8a	0.10170849
193	0x3d43a4f5	0.047764737
194	0x3d6a13c1	0.057147745
195	0x3df5343e	0.11972855
196	0x3d696cb3	0.05698843
197	0x3d4ff2d6	0.050768696
198	0x3d150e98	0.03639087
199	0xbd63f492	-0.055653162
200	0xbccf7966	-0.025326442
201	0xbd5d233b	-0.053988677
202	0xbcc347a5	-0.023837874
203	0x3a3b52ee	0.00071458414
204	0xbb3b9ae9	-0.002862627
205	0x3cc5322c	0.024071775
206	0x3da8811a	0.08227749
207	0xbb337ed2	-0.0027388823
208	0xbc36d4ea	-0.011159161
209	0x3bfcc2d2	0.007713654
210	0xbb7a9458	-0.0038235392
211	0xbcaedf1d	-0.021346623
212	0xbdb8f848	-0.09031731
213	0x3cd96de1	0.026541652
214	0xbdaee05d	-0.08538888
215	0xbda9c338	-0.08289188
216	0x3d6bd4ca	0.05757598
217	0x3c3de674	0.011590589
218	0x3d0f3883	0.034966003
219	0x3cbd51b0	0.02311024
220	0x3d1c32ab	0.03813426
221	0x3ccf48f8	0.025303349
222	0x3c276c41	0.010218681
223	0x3da0d10a	0.07852371
224	0xbd978163	-0.073977254
225	0x3db7e17e	0.08978556
226	0xbbec82e6	-0.0072177527
227	0x3c0ad691	0.008474008
228	0x3d9774d3	0.07395329
229	0x3dae96a2	0.08524825
230	0x3d304d7b	0.04304264
231	0x3c99a7e9	0.018756824
232	0x3d447c56	0.04797014
233	0x3d8201ff	0.06348037
234	0xbd67ed33	-0.056622695
235	0xbd2e3abe	-0.04253649
236	0x3d7dde85	0.06197979
237	0x3e01485e	0.12625262
238	0xbd623cce	-0.05523377
239	0x3d6f3ffa	0.058410622
240	0x3d0c91bb	0.034318667
241	0xbd97bd88	-0.07409197
242	0x3da02688	0.07819849
243	0x3ce7b99d	0.02828675
244	0xbd6f3338	-0.058398455
245	0xbd1dd26f	-0.038530763
246	0xbd409fb7	-0.047027316
247	0xbb44151e	-0.0029919813
248	0x3dc26766	0.09492378
249	0xbdcc5c8e	-0.09978591
250	0xbdb6fb0b	-0.089346014
251	0x3ab2d017	0.0013642338
252	0xbe0b7f08	-0.13622677
253	0x3d8f7073	0.0700387
254	0x3dbc5bf3	0.091972254
255	0x3d4f162f	0.050558265

fc2.bias f4 [128]
0	0x3c8ca2e8	0.017167524
1	0xbd92caf0	-0.071676135
2	0x3ce31044	0.027717717
3	0xbc48601b	-0.012229945
4	0x3d8bfad0	0.06834948
5	0xbd64794c	-0.05577974
6	0x3d9bb5c3	0.07603028
7	0xbc5095a8	-0.012730993
8	0xbd856855	-0.065140404
9	0xbd9b7f69	-0.07592661
10	0x3d6fb5fd	0.058523167
11	0xbd9854ce	-0.0743805
12	0xbc57160e	-0.013127817
13	0xbd0fb115	-0.035080988
14	0x3da8b3cf	0.08237421
15	0xbcbe1dd8	-0.02320759
16	0x3cca7e9d	0.024718577
17	0xbd8f48d2	-0.06996311
18	0xbd60d53a	-0.05489085
19	0x3d19dde6	0.037565134
20	0x3cc8da54	0.02451817
21	0x3db5e8e4	0.08882311
22	0x3bbe068a	0.0057991194
23	0xbc61120d	-0.013737214
24	0x3dac4dc4	0.0841327
25	0x3ad3cc2e	0.0016158873
26	0xbd8c29ea	-0.06843932
27	0x3d0456ff	0.03230953
28	0xbd4a82a6	-0.049441002
29	0x3c9a4de0	0.018835962
30	0x3d6ac85b	0.05731998
31	0x3d7bc2d6	0.061465107
32	0x3da068fb	0.078325234
33	0xbcff17ad	-0.03113922
34	0xbd6962c7	-0.056978967
35	0x3c8edd62	0.017439548
36	0xbc1b5c5f	-0.009482472
37	0xbcc038e8	-0.023464635
38	0xbdb48533	-0.08814468
39	0x3d80d257	0.06290119
40	0xbcbbe2df	-0.022935329
41	0xbda1551e	-0.07877563
42	0x3a96d892	0.0011508635
43	0xbc06f3aa	-0.008236805
44	0x3d093ca7	0.03350511
45	0x3d82832a	0.06372674
46	0x3c3d0458	0.01153668
47	0xbd1e1474	-0.038593724
48	0xbd4bb8a2	-0.049736626
49	0xbd9c2363	-0.07623937
50	0xbce48d0c	-0.027899288
51	0x3d9975bb	0.074931584
52	0x3ce74359	0.028230356
53	0x3d526344	0.0513642
54	0x3d87a36f	0.06622969
55	0x3d58c96d	0.05292647
56	0xbd0a85ae	-0.033818893
57	0xbc7dd160	-0.015491813
58	0x3d3433b6	0.043994628
59	0x3c0f28fa	0.008737797
60	0x3d205d55	0.03915151
61	0x3d4ce78c	0.050025508
62	0xbdaa5c61	-0.08318401
63	0xbcec21dd	-0.028824741
64	0x3d8b53fa	0.06803127
65	0x3dbadc13	0.09124007
66	0x3b798e06	0.0038079037
67	0xbd1c0585	-0.0380912
68	0xbda78c0f	-0.08181011
69	0xbb5f60e1	-0.0034084844
70	0x3cf53765	0.02993364
71	0xbd638475	-0.055546243
72	0xbd6b6e20	-0.05747807
73	0x3d5cc024	0.053894177
74	0x3d9d1f6f	0.07672011
75	0xbcdec6c3	-0.027194386
76	0x3d01e710	0.0317145
77	0x3d8fd077	0.070221834
78	0x3d6fed69	0.05857602
79	0x3d9a09bd	0.07521389
80	0xbdbd0a24	-0.0923045
81	0x3d96b427	0.0735858
82	0xbdadb6bd	-0.0848212
83	0xbb778c20	-0.003777273
84	0x3cbfb7b7	0.023403032
85	0x3d04b110	0.032395422
86	0xbcafa6af	-0.021441786
87	0x3dadf0ed	0.084932186
88	0x3c6b3348	0.014355488
89	0x3d1dcba3	0.03852428
90	0x3caaf20b	0.020867368
91	0xbdb359d7	-0.0875737
92	0xbd0808c4	-0.033211485
93	0xbd54b0db	-0.051926475
94	0xbd3e69fd	-0.046487797
95	0x3d7a2423	0.06106962
96	0x3cf1884b	0.029483935
97	0x3cc604a4	0.024172135
98	0x3cdf4397	0.027253909
99	0x3d201216	0.039079748
100	0xbd0f5462	-0.034992583
101	0xbc463c8b	-0.0120993955
102	0xbd5e1da0	-0.05422747
103	0xbd744bbd	-0.059642542
104	0x3ce2178d	0.02759912
105	0x3d23c9f7	0.03998753
106	0x3d00466c	0.03131716
107	0xbc91e573	-0.017809605
108	0x3d012dac	0.031537697
109	0x3dae862d	0.08521686
110	0x3d5d6df2	0.05405993
111	0xbd81b538	-0.06333393
112	0x3d578d60	0.05262506
113	0xbc05f962	-0.008177133
114	0x3d2c78d2	0.04210741
115	0x3d7f16a2	0.062277444
116	0xbd2c88a6	-0.042122506
117	0xbbd960c4	-0.00663385
118	0x3a35f67d	0.00069413317
119	0x3dbf5a4d	0.093433954
120	0xbcb27b84	-0.021787412
121	0x3c43778b	0.011930357
122	0x3c6bb0a7	0.014385379
123	0xbd0b36e3	-0.03398789
124	0xbd647ce4	-0.055783167
125	0x3dcfc1e7	0.10144406
126	0x3d9e4dce	0.07729684
127	0x3d2f936e	0.04286521

prob.weight f4 [2, 128]
0	0x3d33dd8c	0.043912455
1	0xbdb7f53d	-0.08982322
2	0x3de3ce13	0.1112329
3	0x3de88933	0.11354294
4	0x3dea523d	0.11441467
5	0xbd8d98c4	-0.06913903
6	0xbd7e8087	-0.062134292
7	0xbd9d9b8a	-0.07695682
8	0x3d6c5a03	0.05770303
9	0x3d98ba94	0.07457462
10	0xbdadd5b7	-0.084880285
11	0xb825a12f	-3.948918e-05
12	0x3d66774a	0.056266107
13	0xbde52f9e	-0.11190723
14	0xbc85c64d	-0.016329909
15	0xbdaa11c5	-0.083041705
16	0x3ce8fc2d	0.02844056
17	0xbce54e13	-0.02799133
18	0x3d18675b	0.037207942
19	0x3b544580	0.0032390058
20	0x3e00f8e9	0.12594952
21	0x3df379d0	0.11888468
22	0x3c0f12a6	0.0087324735
23	0x3dc40b75	0.09572498
24	0xbdb31415	-0.08744065
25	0x3d0803ac	0.033206627
26	0x3d81dd3b	0.063410245
27	0xbb0dd31a	-0.002164072
28	0x3d967c76	0.07347958
29	0x3d71b2c4	0.059008375
30	0xbdf57319	-0.11984844
31	0xbce44a98	-0.0278676
32	0x3d1e4268	0.03863755
33	0xbd76c469	-0.060245905
34	0x3d3f75fd	0.04674338
35	0x3d83d585	0.0643721
36	0xbc587f80	-0.013213992
37	0x3dc2bb4f	0.095083825
38	0xbd217ef0	-0.039427698
39	0x3ce92c02	0.028463367
40	0xbdd15ebf	-0.102231495
41	0x3d436353	0.047702145
42	0xbaf0cab2	-0.0018370955
43	0xbd98ef03	-0.07467463
44	0x3db6fbfc	0.08934781
45	0x3df1a38f	0.117987745
46	0xbdaac489	-0.08338267
47	0xbdccf44a	-0.10007532
48	0x3d865334	0.065588385
49	0x3d0256b6	0.031820975
50	0x3d7c17bb	0.06154607
51	0xbdc66644	-0.09687474
52	0xbd670749	-0.056403432
53	0xbd59f258	-0.053209633
54	0xbd1d03c9	-0.038333688
55	0xbd793f2f	-0.060851272
56	0xbc9d8920	-0.019230425
57	0x3d56bb4e	0.05242472
58	0xbcb50f90	-0.022102147
59	0xbc44acc4	-0.012004081
60	0x3d781bfe	0.06057357
61	0x3d7bd767	0.06148472
62	0xbdad2e71	-0.084561236
63	0xbda774ba	-0.08176561
64	0xbdf66bd3	-0.120322846
65	0xbdd4a1d2	-0.10382427
66	0xbc25e6c2	-0.010125818
67	0x3dc7137d	0.09720514
68	0xbce91549	-0.028452532
69	0x3c8572c1	0.01629007
70	0xbcfefa9d	-0.031125361
71	0x3c87a3b4	0.016557552
72	0x3d23fc5b	0.040035587
73	0xbd88ff22	-0.06689288
74	0xbe0cca32	-0.13749006
75	0xbb9c0dbc	-0.0047623795
76	0xbd9b8696	-0.075940296
77	0xbdc9f509	-0.0986119
78	0xbc1de1e2	-0.009636374
79	0xbd9e8383	-0.077399276
80	0xbd98bdb1	-0.07458056
81	0x3c6146e2	0.01374981
82	0xbd0c951c	-0.03432189
83	0xbccef14c	-0.025261544
84	0xbdbc24fd	-0.091867425
85	0x3daadfda	0.083434775
86	0xbd6745a4	-0.0564629
87	0x3e0b8079	0.13623227
88	0xbc89e28b	-0.016831657
89	0x3dcb2531	0.09919203
90	0xbde5cb18	-0.11220378
91	0x3d95bd7b	0.07311531
92	0x3dd999c9	0.10625035
93	0x3d908135	0.07055894
94	0xbc3ca723	-0.011514458
95	0x3d45e1c2	0.048311003
96	0x3e1092c7	0.14118491
97	0x3d08e6aa	0.033423103
98	0x3deb8925	0.115007676
99	0xbd317f0c	-0.043334052
100	0xbabee79b	-0.0014564873
101	0x3d7946f6	0.06085869
102	0xbd25b76c	-0.040458128
103	0x3dabb828	0.083847344
104	0x3a6ac62b	0.0008955921
105	0x3ccfe607	0.02537824
106	0xbdbbaa73	-0.0916337
107	0xbd924cda	-0.071435645
108	0xbb1ebae3	-0.002422028
109	0xbcd2ef2a	-0.025748808
110	0xbd592ced	-0.05302136
111	0x3d946b04	0.07246974
112	0xbd84af10	-0.06478703
113	0xbc2f934d	-0.010716272
114	0x3dafd717	0.08585947
115	0x3dcae1e9	0.0990637
116	0xbd424a49	-0.047434125
117	0x3b9fd433	0.004877591
118	0x3d54daf4	0.051966622
119	0xbe189905	-0.14902122
120	0x3d2e6f6a	0.04258672
121	0x3ce08613	0.027407682
122	0xbc2b143c	-0.010441836
123	0x3c0af1f0	0.008480534
124	0x3c3389dc	0.010958161
125	0x3e04de97	0.12975536
126	0xbc84eea6	-0.016227078
127	0xbdb0cc5a	-0.08632727
128	0xbd344f34	-0.044020846
129	0xbbb121bc	-0.005405633
130	0xbd2629a6	-0.040567063
131	0xbe09b40e	-0.13447592
132	0xbd39b803	-0.045341503
133	0xbcb122e1	-0.021623077
134	0x3d48281d	0.04886638
135	0x3d3c3f96	0.045959078
136	0xbdb90e59	-0.0903594
137	0xbd12ba9b	-0.035822492
138	0xbd440f87	-0.04786637
139	0xbe071e57	-0.13195167
140	0xbbc6c6ce	-0.00606618
141	0xbb16f728	-0.00230355
142	0xbe02505f	-0.12725972
143	0x3e03664f	0.12831996
144	0x3d0a76c5	0.033804674
145	0x3cd0045a	0.0253927
146	0xbc9664c4	-0.018358596
147	0x3c241060	0.01001367
148	0xbdae785f	-0.08519053
149	0x3d0eb105	0.034836788
150	0x3d71a98b	0.05899958
151	0x3d00a94d	0.031411458
152	0x3c72910e	0.014805092
153	0xbd925448	-0.071449816
154	0xbd5f610a	-0.054535903
155	0x3e0e0263	0.13868098
156	0x3cd9f73b	0.026607146
157	0x3d8fd9da	0.07023974
158	0x3d98a2f9	0.074529596
159	0x3e0326a4	0.12807709
160	0xbd99fe8d	-0.07519255
161	0x3dcd57dd	0.10026524
162	0xbde85be8	-0.11345655
163	0xbce9d163	-0.028542226
164	0x3daff781	0.085921295
165	0xbd871d0c	-0.06597337
166	0xbd38b75f	-0.04509675
167	0xbd76d9d6	-0.06026634
168	0x3de9a8b7	0.11409133
169	0xbd6a8672	-0.057257123
170	0x3bf07296	0.0073378785
171	0xbd239e34	-0.039945796
172	0xbc870ae8	-0.016484693
173	0x3d0ffd61	0.03515375
174	0x3d6cacea	0.05778209
175	0x3de4a4ce	0.111642465
176	0xbd7333f3	-0.059375715
177	0x3d382aff	0.04496288
178	0x3db43112	0.08798422
179	0x3d5f5ade	0.054530017
180	0x3dc44aba	0.095845655
181	0x3d573a6a	0.052545942
182	0xba43ebe9	-0.0007473813
183	0x3e007fd2	0.1254876
184	0x3c3c42a0	0.011490494
185	0xbd7705aa	-0.060308136
186	0xbb71c9a0	-0.003689386
187	0xbd9c39d9	-0.07628221
188	0xbb180b39	-0.0023200049
189	0xbdf6cdcf	-0.120509736
190	0x3c8ba098	0.01704435
191	0x3df5a293	0.11993899
192	0x3cb4bb87	0.022062076
193	0x3cb78ec9	0.022406952
194	0x3d309d59	0.04311881
195	0xbdcbcbd4	-0.099509865
196	0x3db4c68c	0.08826932
197	0xbd3fac84	-0.046795383
198	0x3d010bf3	0.031505536
199	0x3caf70ee	0.021416154
200	0xbd08c3b1	-0.03338975
201	0x3ced3499	0.028955745
202	0x3d5f9c1f	0.054592248
203	0x3d8d92bd	0.06912754
204	0x3d6bd8b3	0.057579707
205	0x3e0e3ee4	0.13891178
206	0xbd745348	-0.059649736
207	0xbc169ebe	-0.0091931205
208	0x3c3debb6	0.011591842
209	0x3db69e55	0.08916918
210	0xbd118266	-0.03552475
211	0x3c0b0c78	0.0084868595
212	0x3c22ecd4	0.00994416
213	0xbdd0c82a	-0.10194428
214	0x3daf024e	0.085453615
215	0x3ca7084d	0.0203897
216	0xbc81be2e	-0.015837755
217	0xbd8afa6b	-0.06786045
218	0x3dc8ccff	0.09804725
219	0x3d3734a6	0.044727944
220	0x3b85d4b7	0.0040841955
221	0xbd413931	-0.047173683
222	0x3cf76cd6	0.030203264
223	0x3d37384f	0.044731434
224	0x3c883ec5	0.016631493
225	0xbbdb3410	-0.006689556
226	0xbd0f3249	-0.034960065
227	0xbd32e3ae	-0.043674164
228	0xbcb375d4	-0.02190677
229	0xbb930fdb	-0.004487974
230	0xbd287a3e	-0.041132204
231	0xbcb91422	-0.022592608
232	0x3dc41176	0.09573643
233	0xbd3318b9	-0.04372475
234	0x3d20bc41	0.039242033
235	0x3d886794	0.06660381
236	0xbdbf3bb8	-0.09337562
237	0xbdc09b65	-0.09404639
238	0x3d5ec173	0.054383706
239	0xbcc18f3d	-0.023627872
240	0x3dd584b8	0.10425705
241	0xbc1ac88d	-0.009447229
242	0xbd82cc32	-0.063866034
243	0x3cb8c9bb	0.02255713
244	0x3d979d9d	0.07403109
245	0x3d558173	0.052125406
246	0x3d4cb5b5	0.049977977
247	0x3d44617b	0.047944527
248	0x3d73d06a	0.05952493
249	0xbcbec29d	-0.023286158
250	0xbb2586ba	-0.0025257305
251	0xb9a7b200	-0.00031985343
252	0x3e13f859	0.14450206
253	0xbd472dbd	-0.048627604
254	0x3db10e91	0.086453564
255	0xbd71edbc	-0.05906461

prob.bias f4 [2]
0	0x3d063c02	0.03277207
1	0xbd9f859d	-0.077891566
