RLIntro/Reinforce/checkpoints/Reinforce_discrete/Reinforce_policy_300.pth (torch_old, 70658 bytes, 6 tensors)

fc1.weight f4 [128, 4]
00000000: c87c 72be ebb7 cebe c77f 023d 79d5 903c
00000010: 3f44 783e 4739 d63b 0b0f 313e 580f b23d
00000020: 5aa9 f23d 4746 9b3c ee45 32be 9454 b0bc
00000030: 987a f83d 71e6 b5be efb6 57be 2e83 9a3e
00000040: a07d 86be 9ee5 35be ff57 bd3e 44e0 a8be
00000050: 78b5 af3e 13b9 ba3e f34f 323c 76b2 a7be
00000060: d3b3 f83e 52be 6c3e 3b68 17be e550 0ebf
00000070: 215c 183e a578 c53e 5a1f 033f ddd0 243e
00000080: 2a99 853e ae95 e43d 086c c2be e391 833c
00000090: afd4 ebbc 1939 9dbd 63f1 68be 5605 01bf
000000a0: b359 ae3e 35c4 e23d 7b56 f93d c97f 033f
000000b0: 634c c13e 36db 77be e9e7 5e3e 3d1c b73e
000000c0: 7986 e5be f5e8 89be 93cf 91be bf67 803e
000000d0: c405 d6be 0745 9c3c 68ae d23d 9f95 0abd
000000e0: 503f 84be 3651 b1be 5f43 023f 959e 8d3d
000000f0: 3eeb 0b3e b264 a9be f8d0 33bc f4ce 2bbe
00000100: f5e8 d7be 484f 05bf 7251 4dbe 781e f9be
00000110: 289e 233e b45d 1dbe 2af4 833e e2a9 a8be
00000120: 98e6 a1be 1b74 7bbd fb8f 89bd 3fd7 f9be
00000130: e3f8 113e 5407 16be e154 05bf f86c 92be
00000140: a828 8d3d 740b ce3e 23f6 c8be 8b1f ed3c
00000150: a0c8 6b3e a6fd 78bd dd2d e4be 3213 f4be
00000160: 2647 d0be 07c5 8b3e 0504 abbe 183c fcbe
00000170: 6ee7 b3be 9fcc 38be cded 00bf 6391 a7be
00000180: 27f3 24be 08d5 dbbe 93c6 453d 25b7 0d3e
00000190: 8809 ddbd a4ab 103e 5ad7 8a3e 0a1c 153d
000001a0: e3c2 26be f574 51bb 82b9 cabe 0db7 eebe
000001b0: 32b4 6d3e 5d50 7fbd 050e 8fbe f580 dabe
000001c0: 9d21 75be c807 9b3e e6a7 b63c fab6 f6be
000001d0: baa8 81be 0b77 84bd e868 9abc 4e54 cabd
000001e0: 7074 973e 003a b83d ca5a c8bd 65d5 16be
000001f0: b0b8 843e 0d68 ae3e ef13 89bd a499 f7be
00000200: 45a4 0ebe fbff 94be 86cb 83be b80d 163d
00000210: 4425 ddbe a0b7 c53e 2d28 b4be 2739 fcbd
00000220: d267 fb3d de18 993e 9836 02bf a272 5dbd
00000230: 355f a5bd 7178 c93e 46bf 0b3e 68e5 c9be
00000240: c750 d43e 2f3b adbe 764b b5be cc99 683e
00000250: fa6b bfbe e1e6 39be 62f3 0a3f 52d1 893e
00000260: 103b 483e 1f4c 9d3e 51e4 c33d d221 c23e
00000270: e895 b63e 955c 573d 43ee f53c e687 5e3e
00000280: 6ae5 a43e a873 c03e fcbf cc3e 2c66 cb3e
00000290: 7b8f e8bd 3206 db3e aa0f b23e 5e21 cb3e
000002a0: e626 2f3e e798 a83e 36c8 c8be d4c5 66be
000002b0: 77f4 f6bd 0a13 23be 94ce cc3e ee78 f53e
000002c0: d3f5 7ebe cd6a 8fbe 6c0d 973e 7b47 8dbe
000002d0: 0217 9f3e d763 703e 81e1 2abe 1ce6 dc3e
000002e0: afc5 4abe 9e75 b03e cf56 083f 4a26 723d
000002f0: 9099 d23e 486e a3be cf20 47bd 1108 063f
00000300: 0cbc a93e f934 e3be daad 76be 85a5 373e
00000310: 2ef2 88be cf2f e83e 8f9e c13d 85df ae3e
00000320: 83eb 283e 0325 87be 870c 86be 9848 f3be
00000330: 3c87 c03e 6d27 9dbe 9d78 cebe 6ea7 89be
00000340: c40a a13e 1413 eebd 8b7c 1dbc 4003 0e3e
00000350: 0055 933d a7e3 c13e d76d dc3e 815d cfbd
00000360: bd1b f63e d0f7 d93e 09ab b5be 0329 dd3e
00000370: a30b b9be ee91 10be ad59 55be d143 31be
00000380: 706a adbd c5e6 c33e 1571 9ebe 2582 8fbe
00000390: c92e 16be c2ca 163e 2be1 0b3e 4c97 08bf
000003a0: 779f 32be ecd9 dcbe b8ae c7be fba9 cabe
000003b0: 7a87 bfbe 8d72 32be 7ad8 b9be 3693 0e3f
000003c0: 7c5f e5be e411 473e 41a0 e53e fb57 783e
000003d0: 75a8 fbbe 9dde b33e fd0f abbd 106b 65be
000003e0: aaa3 b63e b72e 9a3e d8f6 d93d 852e 89be
000003f0: 5fab 283d 1db5 cfbe 509c 67be 9fe0 333e
-0.23680413 -0.40374693 0.03186014 0.017679917 0.24244784 0.0065375897 0.17290895 0.08694333
0.118487075 0.01895441 -0.17409489 -0.021524705 0.12132758 -0.35527375 -0.21065877 0.30178207
-0.2626772 -0.17763373 0.36981198 -0.329836 0.34318137 0.36469325 0.010883319 -0.32753342
0.48574695 0.23119476 -0.14785855 -0.55592185 0.14878894 0.38568607 0.51219714 0.160953
0.26093417 0.11161362 -0.37973046 0.016060775 -0.028787939 -0.07676906 -0.22748332 -0.50398767
0.3405281 0.1107258 0.12174698 0.5136686 0.3775359 -0.24204716 0.21768154 0.35763732
-0.44829157 -0.26935545 -0.2847868 0.25079152 -0.41801274 0.019075884 0.102871716 -0.033834096
-0.25829554 -0.34632272 0.5088405 0.06915013 0.13663957 -0.33084637 -0.010975115 -0.16778165
-0.4216992 -0.520741 -0.200506 -0.48656058 0.159783 -0.15367776 0.2577222 -0.3294211
-0.31621242 -0.061390024 -0.06716915 -0.48797032 0.14255099 -0.14651233 -0.5208264 -0.28598762
0.0689252 0.40243113 -0.39250287 0.028945705 0.23025751 -0.060788773 -0.4456624 -0.47670895
-0.40679282 0.27298757 -0.33401504 -0.49264598 -0.35137504 -0.18046807 -0.50362855 -0.3272811
-0.1610838 -0.42935967 0.04828508 0.13839395 -0.107928336 0.14127976 0.27117425 0.036403693
-0.16285281 -0.003196058 -0.39594656 -0.46624032 0.2321327 -0.0623325 -0.27940384 -0.4267651
-0.23938604 0.30279374 0.022296857 -0.48186475 -0.2532404 -0.06468018 -0.018848851 -0.09879361
0.29581022 0.089954376 -0.09782942 -0.14729841 0.25922155 0.3406376 -0.06693255 -0.48359406
-0.13929851 -0.29101548 -0.25741214 0.036634177 -0.43192494 0.38616657 -0.35186902 -0.123155884
0.122756615 0.29901785 -0.50864553 -0.0540644 -0.080748 0.39349702 0.13647184 -0.39432836
0.41467878 -0.33834216 -0.35409135 0.22714919 -0.37387067 -0.1815448 0.5427762 0.2691751
0.1955378 0.30722138 0.09565032 0.37916428 0.35661244 0.052578527 0.030020839 0.21731529
0.3220628 0.3758824 0.39990222 0.39726388 -0.11355492 0.42778164 0.34777576 0.39673895
0.17104682 0.32929155 -0.3921525 -0.22536403 -0.12058347 -0.15925232 0.40001357 0.47943825
-0.24898462 -0.2801117 0.29502428 -0.27593598 0.3107224 0.23475586 -0.16687585 0.4314431
-0.19801973 0.34464735 0.5325746 0.059118547 0.41132784 -0.31920075 -0.048615273 0.5235606
0.3315128 -0.44376352 -0.24089757 0.17934234 -0.26747268 0.45348975 0.09454071 0.34154907
0.1649609 -0.26395425 -0.26181433 -0.47516322 0.37603176 -0.30694142 -0.40326396 -0.2688555
0.31453526 -0.116247326 -0.009612213 0.13868427 0.07193947 0.37868997 0.4305255 -0.10125256
0.48068038 0.42571878 -0.35482052 0.43195352 -0.3614169 -0.14118168 -0.2083499 -0.17311026
-0.08467567 0.38262 -0.3094565 -0.2802898 -0.14666285 0.14725783 0.13660114 -0.5335586
-0.17443644 -0.4313501 -0.39000487 -0.3958281 -0.37408048 -0.1742651 -0.3629797 0.55693376
-0.4479941 0.19440418 0.44848827 0.24252312 -0.4915196 0.35130778 -0.08352659 -0.22404122
0.3567174 0.30113766 0.10642785 -0.26793304 0.041179057 -0.40567866 -0.22618222 0.17566155

fc1.bias f4 [128]
00000000: a0b4 74be 6481 36be 3a59 f8bd 41df bcbe
00000010: d651 dc3e 8ac5 383e b5f3 d7bd 48b3 79be
00000020: 75dd 813e beaf bb3e f900 d4be 41ac a83d
00000030: cd88 c4bd 94d8 96be d35f 143e e830 cd3e
00000040: 575e 25bd cacd f2be c9a7 723e c27c b23e
00000050: 9f62 93be 1fe0 c93e 5d91 c23e debb a53e
00000060: 887c 61be 1037 80be 4310 d43e ca22 d83e
00000070: 2b18 82bc e1b2 9dbe 7d3f 253e 85f1 e53c
00000080: 905c 6cbe 505f 353e cacc 8c3c fad0 b13e
00000090: 1f9d dbbe 76d0 d43e baf0 923e d4c7 1fbe
000000a0: 424c bcbe f494 1e3d 44e6 8f3e 985b 21be
000000b0: d8c8 41be ece6 003f 865e 3cbd 9673 933e
000000c0: e184 a33d ab00 b93e 076c eebe ecbb 083e
000000d0: f58f e53e fe57 433e 72f9 90be 6a3e 943e
000000e0: d5b1 c9bd 10d6 133e 3e51 b9be 24cc e23e
000000f0: 9a3c a93d ca24 4bbe d155 dc3e ea6c 843e
00000100: 7597 98bd c954 fa3c 35cb ea3e 6288 edbd
00000110: d187 c73e 470d 4b3e e995 823e 2446 c6be
00000120: 50f2 943d 4deb 223e 5457 5bbd dc0b b8be
00000130: 25de 6f3e b068 d9be 1804 dabe ad1b 87be
00000140: 4f84 5b3e ee19 8c3e 5383 aa3e 8ab3 a5bd
00000150: 2887 2f3e 921c 9f3d 7bc7 7b3d 2c9c e93e
00000160: 210f f0be c35b aebe 86d9 713e 4da4 8fbd
00000170: b246 053d bd0b 91be a2bd edbd a93b 5b3e
00000180: 71e6 b5be 696e 4d3e 5e9a 433e 59f7 393c
00000190: 8b9e e1be 67b5 1bbd fc90 02be 2e7c d53e
000001a0: 8d6a 65be 81eb 66be a92b e2be 068b 9ebe
000001b0: df6b 55be 1411 473d 7b05 713e ce31 24be
000001c0: 3fed c1be 6de7 cabe 22c9 a03d f4c2 013f
000001d0: c405 333e 8dde 28be 2e48 54be 2d98 833e
000001e0: 9ca6 fe3e 9772 8abd f116 c13d e0e6 92bd
000001f0: 6f06 383d c957 9b3e 7110 2c3e cced 86bc
-0.23897028 -0.17822796 -0.121263936 -0.3688908 0.43031186 0.18044105 -0.1054453 -0.24384797
0.2536427 0.36657518 -0.41406992 0.0823598 -0.09596405 -0.2946211 0.14489679 0.40076375
-0.040373173 -0.4742263 0.23696817 0.34860808 -0.2878618 0.39428803 0.38001528 0.32369894
-0.22020161 -0.2504201 0.41418657 0.42214042 -0.015880665 -0.30800536 0.161375 0.028069267
-0.23082185 0.1771214 0.017187495 0.3472975 -0.4289331 0.41565293 0.28699285 -0.15603572
-0.3677693 0.03871627 0.28105366 -0.15757596 -0.18924272 0.5035236 -0.045988582 0.28799123
0.07984329 0.36133322 -0.46566793 0.13352937 0.44836393 0.19076535 -0.28315312 0.28953868
-0.09848372 0.14437127 -0.36194795 0.44296372 0.08263512 -0.19838253 0.43034223 0.25864345
-0.07450763 0.030558007 0.4585816 -0.115982786 0.38970807 0.19829284 0.25504997 -0.38725388
0.0727278 0.15910073 -0.05355008 -0.35946548 0.23424585 -0.42462683 -0.42581248 -0.26388302
0.2143719 0.27363533 0.33303317 -0.08090885 0.17141402 0.07769121 0.061469536 0.45626962
-0.46886542 -0.34054384 0.23618135 -0.0701376 0.032538123 -0.28329268 -0.11608435 0.21409477
-0.35527375 0.2006165 0.19101855 0.011350476 -0.4406627 -0.038014796 -0.1275062 0.41696304
-0.22403927 -0.22550775 -0.44173935 -0.3096544 -0.20841931 0.04860027 0.23537247 -0.16034624
-0.37876317 -0.3962969 0.07850863 0.506881 0.17482668 -0.16491146 -0.2073066 0.25702038
0.49736488 -0.067601375 0.09428204 -0.07172942 0.04492801 0.30340412 0.16803147 -0.016470812

fc2.weight f4 [128, 128]
00000000: a35e 183d f1e6 a2bd 1bb9 60bd 562d e93c
00000010: fdef bd3d 6f03 28bd c3dc c23d adda 49bd
00000020: aac9 69bd 2c5f f13d ef9f a3bc ba88 24bd
00000030: 48fb a1bd c00f 8b3b bdce c4bd cf9b 243b
00000040: e7f4 143d d3be 30bd d974 633d 9dbd 493d
00000050: a1b6 6f3d f109 343d b469 0d3c 3a30 27bd
00000060: fceb 7d3d 83a1 c3bb e6ee bebc 3086 ec3d
00000070: 37ce cb3d 8541 a3bd 7040 75bd 3be7 513c
00000080: 1260 c53c f116 673d 8bd6 b0bc 9c0c 3ebd
00000090: 0a3c 683d a87e 4b3d c55f b4bc ee18 153c
000000a0: 8975 c4bd 1a37 93bc 3f6e a43d c14d 833d
000000b0: 4b29 043c 5c11 5d3d 39fa 0dbd 2a62 9b3c
000000c0: 76d8 78bd 238c 2f3d fe3d d03d 330f 1e3e
000000d0: 680f 7f3c d3f9 01bd 2d4c ca3c 38a5 a9bc
000000e0: 561f 9ebb a346 ba3c a986 dc3d ba4a 95bd
000000f0: 3e86 9abd e27f c53d 602b 9b3d 1280 b13d
00000100: f35c 143c 122a 0ebd 791d 95ba 9614 d5bc
00000110: 6ad6 a73c 31ec b33d cc02 8b3d 9655 96bd
00000120: 2d70 f7bd 245f e93d b2e4 8dbd 63a4 ea3d
00000130: 6996 eabc dc0f 37bd 03c3 9b3d 32b1 aa3d
00000140: 42fb d53b d151 95bd fecf 913b f537 f23c
00000150: 7275 e23d 7360 b43d 7ecb 1f3d 079c c1bc
00000160: 5af1 f63c db4c d13d 2da7 6dbd c97a e0bd
00000170: aaeb 263c d0ce 853a 941d 6e3d 3b7e 723d
00000180: ec7a 0dbc a305 87bc 815b 1abd 44a5 fa3c
00000190: 69d8 073c 94e6 2fbd 006d ef3d 4d34 4e3d
000001a0: 1e9b 4abd e07b 563c 5f97 533c d484 cc3b
000001b0: a7f1 0a3d 0752 c9bd 0ba3 603d b05e 31bd
000001c0: 40bf 573d 6345 8c3c a0f4 2fbd c618 44bd
000001d0: 4bac b2bc 0d25 21bc f83b aabd 32f8 76bd
000001e0: 0fe1 c2bd 4e88 083e 9668 b53d 5cd1 d03c
000001f0: 33ec 9f3d 3478 b03d c318 f5bc de03 0c3d
00000200: 6e67 d3ba 6775 36bc 2626 553b b9b1 44bd
00000210: 3d8e 113d e358 893d 2612 b1bd 2285 45bd
00000220: a7be b33d fa93 08bd 0b50 ff3c dbc6 993d
00000230: 2913 9b3d 53cb 34bd 9a03 4c3d 700e 1ebd
00000240: 8667 433d 94b4 823c 4bc0 90bc 9643 a4ba
00000250: a7c4 22bd 8d93 553d 1b75 5abc 55b6 b1bc
00000260: ed58 aabd cb41 0d3d 7af9 9dbd f672 ab3d
00000270: c4d7 643d 0aae 3dbd 2935 91bd 5d68 a3bb
00000280: 1298 b43c 2c82 023d ce21 413d f81d dd3c
00000290: efcc a93d d413 8fbc 0228 5fbc 2e71 723d
000002a0: 0c48 4b3c d407 23bd 9b5d b6bd 0eff 91bd
000002b0: 88f0 093d f11e 243d a77e 9abc dab4 e33c
000002c0: 8b3b 263d 68f1 773d a665 ad3b a7f0 cfbd
000002d0: c3c8 16bd 1021 843c a23d d83d cd2c a13d
000002e0: b44a 683d 37ce 043d 8759 693c f5a3 5bbd
000002f0: 46ad bdbc bcb1 26bc 6fe6 903d 2aa7 95bd
00000300: f968 8f3d a4b3 533d ae6c 623d 208d b63d
00000310: 299f 843d 2f78 5e3d 3f47 433d 4195 56bd
00000320: 7629 eebc 0156 19bd 305d 02bd 08fd 853c
00000330: fd73 083c 4a56 ac3c 1a81 a83d 8591 253b
00000340: c3b2 32bc a318 cf3b bd31 fd3a b253 c8bc
00000350: 19e1 a0bd 0ea6 173d 7cef a5bd d4f9 a6bd
00000360: 9319 413d 4549 e03b c318 193d 1b35 d9b9
00000370: fdc0 103d cf03 b43c 9548 f73b 1be9 923d
00000380: 9a3a 75bd c137 b73d 55ff 35bc 87f5 343c
00000390: 8fdd 7e3d 7119 a63d fc6b 413d 6299 8a3c
000003a0: 38c8 713c 3609 863d ba91 71bd 72a7 45bd
000003b0: 5c0f 663d c73d e43d 3eb8 63bd a8b5 3f3d
000003c0: f48d 163d e966 75bd b115 a43d 8490 fc3c
000003d0: 7cc1 5cbd c2e4 3fbd 0e96 57bd 6c96 6c3b
000003e0: 33b4 c43d c292 bcbd 6561 9fbd 987d cd3b
000003f0: 0849 f6bd 1aba 9b3d 91a0 b43d 27e9 4f3d
0.037199628 -0.07954205 -0.05486403 0.028464 0.0927429 -0.0410189 0.09514763 -0.04928081
-0.057077087 0.11785731 -0.019973723 -0.040169455 -0.07909256 0.004243821 -0.09609745 0.0025117283
0.03636637 -0.043150734 0.055531356 0.049253095 0.058523778 0.043954793 0.008631159 -0.040817477
0.06199263 -0.0059701814 -0.023307275 0.11549032 0.09951442 -0.07971481 -0.059875906 0.012811477
0.024093661 0.056418363 -0.021586677 -0.046398744 0.056697883 0.049681336 -0.022018323 0.009100182
-0.095927306 -0.01797061 0.0802884 0.06411315 0.008066486 0.053971633 -0.03466246 0.018967707
-0.06075331 0.042858254 0.10168074 0.15435486 0.015567638 -0.03173239 0.024694527 -0.020708665
-0.004825513 0.02273876 0.10767872 -0.072896436 -0.07545136 0.09643532 0.075766325 0.086670056
0.009055364 -0.03470809 -0.0011376581 -0.026010793 0.020487983 0.08785284 0.06787643 -0.07340543
-0.12081943 0.113951 -0.06928386 0.114571355 -0.028636174 -0.04469286 0.07605555 0.083345786
0.0065301964 -0.07290996 0.0044498434 0.029567698 0.11057557 0.08807459 0.039012425 -0.02363397
0.030144382 0.10219737 -0.05802076 -0.109609194 0.010188023 0.001020873 0.058133677 0.059202414
-0.008635264 -0.01648218 -0.03768492 0.030596383 0.008291342 -0.042944506 0.11690712 0.050342847
-0.049464338 0.013091058 0.012914508 0.0062414203 0.033921864 -0.098300986 0.05484299 -0.04330319
0.052672625 0.01712293 -0.042957902 -0.04787519 -0.021810671 -0.009835494 -0.083122194 -0.06029529
-0.09515583 0.13333246 0.08857839 0.025490455 0.07808723 0.08616677 -0.029919034 0.034183376
-0.0016128847 -0.011136389 0.003252396 -0.048021052 0.03553604 0.06706407 -0.0864604 -0.04822267
0.087765984 -0.033344246 0.031166097 0.07508632 0.07572014 -0.044139218 0.049808122 -0.038587987
0.04770615 0.015955247 -0.017669817 -0.0012532349 -0.039738324 0.05214267 -0.013333584 -0.021693388
-0.083177425 0.034486573 -0.077135995 0.083715364 0.055869833 -0.046308555 -0.070902176 -0.0049868063
0.022045169 0.031862423 0.04715138 0.02699183 0.08291041 -0.01746551 -0.013620378 0.059189968
0.012407314 -0.039802387 -0.089045726 -0.07128726 0.033676654 0.04006857 -0.01885922 0.027796198
0.04058413 0.060532957 0.0052916585 -0.10153323 -0.036812555 0.016129047 0.105586305 0.07869873
0.056711867 0.032423224 0.014242536 -0.05362316 -0.023153912 -0.010174211 0.07075202 -0.07307275
0.07002444 0.05168499 0.055279426 0.08913636 0.0647567 0.054313835 0.047675367 -0.052388433
-0.029072504 -0.037435535 -0.03182715 0.016356006 0.008328435 0.02103724 0.08227749 0.0025263738
-0.010906878 0.0063200756 0.0019317191 -0.024453972 -0.07855434 0.037023596 -0.08102319 -0.0815312
0.04714353 0.006844672 0.03737713 -0.00041429032 0.035340298 0.021974472 0.0075464942 0.071733676
-0.05987034 0.08946181 -0.011108239 0.011044866 0.062223013 0.08110321 0.047222123 0.016918842
0.0147572085 0.065447256 -0.058976866 -0.04825539 0.05616699 0.111445956 -0.05559563 0.0468041
0.03675647 -0.059912596 0.0801195 0.03083063 -0.05389546 -0.04684902 -0.052633338 0.00361004
0.09604683 -0.09207679 -0.077822484 0.0062710755 -0.12025648 0.076038554 0.08819688 0.05075946

fc2.bias f4 [128]
00000000: 8f73 573c 55e8 89bd 654b bc3c 460c 85bc
00000010: ca27 853d 2814 53bd 5b81 a33d a895 50bc
00000020: c5be 90bd 5b0e a8bd 09c4 713d 29e2 a1bd
00000030: 0e16 57bc 0549 fdbc 344b 9f3d 7a33 a3bc
00000040: 74bd ef3c d248 8fbd b759 57bd e6dd 193d
00000050: b396 9d3c 3d18 ad3d ce9b b83b 6368 8cbc
00000060: 7b17 b43d a72b 6ebb ea29 8cbd 3ffe 0d3d
00000070: 1874 35bd 814e 9a3c 498c 793d 1a97 833d
00000080: e131 993d 2f81 ecbc 0688 75bd d94d 5f3c
00000090: 6702 f7bb 8d5a e9bc 3385 b4bd 948a 733d
000000a0: 08d4 a6bc 1e55 a1bd ac52 2fb9 aaf3 06bc
000000b0: d620 eb3c de93 733d 5804 3d3c 45b0 16bd
000000c0: 5d0d 5fbd 6323 9cbd d622 04bd 5114 a23d
000000d0: 114e f93c 216d 623d 724e 8f3d 5562 623d
000000e0: ae85 0abd adba 9fbc b633 343d 1129 0f3c
000000f0: 555d 203d 9f00 363d 615c aabd e421 cabc
00000100: 5dbc 903d e5e1 c23d 0c8e 793b 6772 33bd
00000110: 75ff a6bd d460 5fbb 64b3 0e3d 7584 63bd
00000120: 086e 6bbd aad7 6d3d 396d a23d afe7 c9bc
00000130: 5ce6 0e3d 2a25 953d d486 653d 8fee a33d
00000140: e6fb c0bd 5a94 a03d 3ab2 adbd 208c 77bb
00000150: f9f7 d53c 4594 f53c 42be 9ebc 34fd a33d
00000160: 5d33 6b3c 0d29 0e3d 154f bc3c d759 b3bd
00000170: 8727 18bd dbb0 54bd fd69 3ebd 4bd4 823d
00000180: 39b6 c93c a404 c63c 6bee bc3c 1612 203d
00000190: 5c54 0fbd 8b3c 46bc fc02 5ebd e7ee 83bd
000001a0: 3ea8 ff3c 122c 3d3d 1783 0e3d 0d3a 70bc
000001b0: 1779 d33c e64e a73d cbf9 6c3d 38b5 81bd
000001c0: 2ced 653d b96d 2fbb 147c 143d 6433 6d3d
000001d0: 8ad9 20bd c460 d9bb a9e3 3f3a 0108 c63d
000001e0: 847b b2bc c477 433c a7b0 6b3c e336 0bbd
000001f0: 666f 56bd c99e c43d b91f a33d 6e93 2f3d
0.01315011 -0.06733767 0.02298517 -0.016241204 0.0650173 -0.051532894 0.07983657 -0.012730993
-0.070676364 -0.08205863 0.059024844 -0.07904465 -0.013127817 -0.030918607 0.07778016 -0.019922007
0.029265143 -0.06996311 -0.052575793 0.037565134 0.019236898 0.08451889 0.0056338077 -0.01713962
0.08793541 -0.0036341937 -0.06843932 0.034666296 -0.04430017 0.018836262 0.060924802 0.06425305
0.07480217 -0.028870193 -0.059944175 0.0136294 -0.007538128 -0.02848556 -0.08814468 0.05945833
-0.020364776 -0.07877563 -0.00016720098 -0.008236805 0.02870218 0.05946719 0.01153668 -0.036789197
-0.054456104 -0.07623937 -0.032259785 0.07914031 0.030432733 0.055279855 0.06997384 0.055269558
-0.033818893 -0.019498194 0.043994628 0.008737818 0.03915151 0.044434186 -0.08318401 -0.024674363
0.070671774 0.09515742 0.0038079051 -0.043810274 -0.08154193 -0.0034084814 0.03483905 -0.055546243
-0.05747798 0.058067 0.07930989 -0.024646608 0.034887657 0.07282479 0.056036785 0.08004486
-0.09423046 0.07840796 -0.0848126 -0.003777273 0.02611922 0.029977927 -0.019377831 0.08007279
0.014355508 0.034707118 0.022986928 -0.0875737 -0.03714707 -0.051926475 -0.046487797 0.06388148
0.024623023 0.024172135 0.023062905 0.039079748 -0.03499256 -0.0120993955 -0.054202065 -0.064420514
0.031208154 0.046184607 0.034792986 -0.014662278 0.025814576 0.081693456 0.05785541 -0.06333393
0.056134388 -0.002676828 0.036251143 0.057910338 -0.03926996 -0.00663385 0.0007319996 0.096694954
-0.021787412 0.01193041 0.014385379 -0.03398789 -0.05235233 0.09600598 0.07965035 0.04286521

prob.weight f4 [2, 128]
00000000: cf85 133d 70f3 abbd 348b d23d 70d3 e03d
00000010: ae47 e23d 4b0d 8cbd 3ea1 70bd 8a9b 9dbd
00000020: cf7d 483d fe22 913d 7180 a1bd 9aec e5bb
00000030: 4a77 663d 0085 dcbd 7b84 adbc a137 9abd
00000040: d7c8 043d 134e e5bc bf8d 263d 8045 543b
00000050: 9d54 f83d c9ed e53d d2df 0f3c 4cac bf3d
00000060: e496 a9bd a92e ba3c 3bdd 813d 8c22 823b
00000070: 6423 963d 90b2 713d c58d e8bd 53cd abbc
00000080: 055b 083d 4303 6fbd 30bb 263d bf4f 793d
00000090: 52cb 82bc 6673 b33d f07e 21bd 7c4e a93c
000000a0: 6f8e c5bd 5363 433d e7c1 2e3b 03ef 98bd
000000b0: 1adc b13d e9a6 e13d 89c4 aabd b0eb c2bd
000000c0: 997e 763d b656 023d 49e1 953d 4b20 bdbd
000000d0: 3f27 70bd 4e8a 4bbd 898d 23bd db49 64bd
000000e0: 2089 9dbc 5ed6 4b3d 900f b5bc acac 44bc
000000f0: fe1b 783d 72a6 503d 712e adbd 1227 9abd
00000100: 2b0c efbd 738b d1bd c2e6 25bc ec6d be3d
00000110: 890d edbc c172 853c 6195 debc b4a3 873c
00000120: 5cfc 233d 0b7b 80bd 0d74 05be 88a6 053b
00000130: 4f79 91bd cf21 bebd 9fbd 5bbc e36c 91bd
00000140: aca5 97bd 2573 8a3c 9a8b 0cbd 4cf1 cebc
00000150: e549 b2bd 01f6 9f3d 0d31 57bd 9714 053e
00000160: a0e2 89bc e8ba c03d 3346 dbbd 7bbd 953d
00000170: cb4d d03d 3581 903d 23a7 3cbc cce2 3e3d
00000180: 1433 0b3e aae6 083d 076c e23d 0c7f 31bd
00000190: a7e6 beba f646 793d 4ac9 25bd f048 9d3d
000001a0: 100f dd3a b4e2 e03c 9938 adbd 58a5 84bd
000001b0: eb6c 24bc 2202 0cbd 183c 47bd 046b 943d
000001c0: d3ac 78bd 0b37 3fbc f144 9b3d 8430 c13d
000001d0: 1025 26bd 33d4 9f3b 24f6 543d ea95 11be
000001e0: 6a6f 2e3d 2286 e03c 3c14 2bbc f0f1 0a3c
000001f0: 907e 8e3c 09e6 f93d 19ec 69bc 5acc b0bd
00000200: 74f7 13bd 4b9f 38bc eda3 03bd 25d9 05be
00000210: e2a2 29bd c550 b7bc d048 3a3d 963f 3c3d
00000220: 3e20 a7bd 6c8b 03bd fab9 5cbd a7f2 ffbd
00000230: cec6 c6bb 2e25 d6bb 3fb1 fabd 84f2 f63d
00000240: 0b58 f43c 5a04 d03c 90b1 b2bc 6010 243c
00000250: 33db a4bd 14c9 293d 4176 713d a367 093d
00000260: 74a7 263c 39bc 79bd 0a61 5fbd 02ba 073e
00000270: 835b db3c f2d9 8f3d a5bd 8b3d f22d f83d
00000280: dc0a 8fbd 4977 c93d 8bfe dbbd be1a cdbc
00000290: 679a b53d 3faa 6fbd 5fb7 38bd 16eb 56bd
000002a0: 67d8 dd3d 7286 6abd edbd 393b 349e 23bd
000002b0: a216 65bc bbf6 2f3d eaac 6c3d 349c da3d
000002c0: 2e0c 5dbd ff2a 383d a65b 9c3d eece 4c3d
000002d0: b6da c83d 60d2 483d 9484 5e3a f284 f63d
000002e0: a042 3c3c b220 6cbd a0c9 71bb d939 9cbd
000002f0: 390b 18bb 5335 e1bd 98a0 8b3c eb54 e83d
00000300: e93c 973c 4335 ab3c 599d 303d 4426 c3bd
00000310: 9ac4 b53d 84ac 3fbd a5b2 e13c ee70 af3c
00000320: b2c3 08bd 3324 cb3c ab43 423d 5349 7f3d
00000330: 2abe 573d 4555 083e 53dc 64bd e253 7fbc
00000340: 692b 353c 662a b03d e88b 11bd 780c 0b3c
00000350: 2028 a83b 52de c5bd 0ff8 a63d 7467 da3c
00000360: 19be 81bc 2290 80bd 1948 be3d a634 373d
00000370: 594a 0d3c 3139 41bd d66c f73c 4437 3e3d
00000380: 393c b33c 1034 dbbb 14f0 f9bc aee3 32bd
00000390: e075 b3bc db0f 93bb 6068 28bd 5dae 7ebc
000003a0: c772 c23d 1197 3bbd aed8 033d 1980 753d
000003b0: fca3 afbd 2056 afbd 9dd0 4c3d 3d8f c1bc
000003c0: 1a2c cd3d d024 0bbc 1f74 5cbd 2a8f df3c
000003d0: 008b 893d 7381 553d 859a 4c3d 0f55 283d
000003e0: 6ad0 733d acc2 bebc ba86 25bb 00b2 a7b9
000003f0: 2661 0d3e 797f 27bd 6a10 ad3d bced 71bd
0.03601628 -0.083960414 0.10280457 0.109778285 0.11048828 -0.06838473 -0.058747523 -0.07695682
0.048948105 0.07086752 -0.078858264 -0.0070167305 0.056266107 -0.10767555 -0.021181336 -0.075301416
0.0324181 -0.02799133 0.040662523 0.0032390058 0.12125514 0.112269945 0.00878139 0.09359035
-0.08280733 0.022727327 0.063410245 0.0039714035 0.07330969 0.05900818 -0.113551654 -0.02097193
0.033289928 -0.05835272 0.04070586 0.060867067 -0.015966091 0.08762245 -0.039427698 0.020667307
-0.09646308 0.047702145 0.0026665868 -0.07467463 0.08684559 0.11018164 -0.08338267 -0.0951761
0.060179327 0.031820975 0.0731836 -0.09234675 -0.058631178 -0.049692445 -0.0399299 -0.055734497
-0.019230425 0.049764983 -0.022102147 -0.012004059 0.06057357 0.050939985 -0.084561236 -0.07526983
-0.11672243 -0.10231676 -0.010125818 0.0929831 -0.028937118 0.01629007 -0.027170839 0.016557552
0.04003559 -0.062734686 -0.13032551 0.002039345 -0.07103216 -0.09283792 -0.013411908 -0.071008466
-0.07404646 0.016900608 -0.034312822 -0.025261544 -0.087055005 0.078105934 -0.052537013 0.12996136
-0.016831696 0.094106495 -0.10706749 0.07311531 0.10171088 0.07055894 -0.011514458 0.04660301
0.13593704 0.033423103 0.11055761 -0.043334052 -0.0014564589 0.06085869 -0.040475167 0.07679927
0.0016865451 0.02745185 -0.08458061 -0.06476849 -0.010035734 -0.03418172 -0.048641294 0.07246974
-0.060711693 -0.011670838 0.07581509 0.09433082 -0.04056269 0.004877591 0.05199255 -0.14217344
0.04258672 0.02740771 -0.010441836 0.008480534 0.017394334 0.12202079 -0.0142774815 -0.08632727
-0.03612466 -0.011268447 -0.032138754 -0.13071115 -0.041415103 -0.022377381 0.045479596 0.045959078
-0.081604466 -0.032115385 -0.0538883 -0.12497454 -0.00606618 -0.006535194 -0.12240838 0.12057975
0.029827138 0.0253927 -0.021813184 0.01001367 -0.080496214 0.04145153 0.058950666 0.0335461
0.01017176 -0.06097052 -0.054535903 0.1325455 0.026777035 0.07023992 0.06823281 0.121181384
-0.06984493 0.09837205 -0.107419096 -0.025037166 0.088673405 -0.05851197 -0.04509675 -0.05247029
0.10832291 -0.057257123 0.0028341964 -0.039945796 -0.013982447 0.04295991 0.05778209 0.10674325
-0.053966694 0.04496288 0.07634668 0.05000203 0.09807341 0.049028754 0.00084883836 0.12037076
0.011490494 -0.05764837 -0.003689386 -0.07628221 -0.0023200049 -0.10996499 0.01704435 0.11344322
0.018461661 0.02089942 0.04311881 -0.09528783 0.088753894 -0.046795383 0.027551005 0.021416154
-0.033389755 0.024797535 0.047427814 0.062325787 0.05267159 0.13313778 -0.05587418 -0.015583964
0.011057713 0.08601837 -0.035533816 0.0084868595 0.0051317364 -0.09661545 0.08152782 0.026660658
-0.015837716 -0.06277491 0.09291095 0.044727944 0.008623683 -0.047173683 0.030203264 0.046439424
0.021879302 -0.006689556 -0.030509986 -0.043674164 -0.021906793 -0.004487974 -0.041115165 -0.015544501
0.09494548 -0.045798365 0.032189064 0.059936617 -0.085761994 -0.08561349 0.050003637 -0.023627872
0.10018177 -0.0084926635 -0.05382168 0.027289946 0.06715965 0.052125406 0.04995205 0.041096743
0.05952493 -0.023286186 -0.0025257305 -0.00031985343 0.1380659 -0.04089305 0.08450396 -0.05906461

prob.bias f4 [2]
00000000: eac8 f53c d9d9 99bd
0.03000303 -0.07512254
