RLIntro/Reinforce/checkpoints/Reinforce_discrete/Reinforce_policy_3000.pth (torch_old, 70658 bytes, 6 tensors)

fc1.weight f4 [128, 4]
-0.21326724 -0.38385272 -0.054643292 0.009225326 0.25160605 -0.030502314 0.22343801 0.14600754
0.10786972 -0.022585124 -0.23547788 0.013392867 0.22016619 -0.35443947 -0.27403086 0.3373568
-0.30542907 -0.22218001 0.20514716 -0.35822278 0.32723746 0.31833237 -0.10309064 -0.31600747
0.48205742 0.19031332 -0.26070216 -0.55230856 0.13770047 0.42219922 0.6961284 0.1440826
0.22535604 0.059359863 -0.5252987 0.008206044 -0.049469873 -0.12123522 -0.40017992 -0.52237743
0.35923237 0.08612961 0.17543408 0.5626479 0.39603445 -0.24313653 0.33630633 0.38372427
-0.42641976 -0.24108307 -0.2706383 0.20397663 -0.4269285 -0.0033802511 0.041542053 -0.011350794
-0.23941687 -0.3311657 0.61219674 0.09365612 0.109825395 -0.35925305 -0.19483836 -0.20714746
-0.42185676 -0.5223214 -0.32500702 -0.5108431 0.159783 -0.15367776 0.2577222 -0.3294211
-0.32841462 -0.11420959 -0.22678332 -0.49885547 0.11738768 -0.18238164 -0.6949916 -0.31825474
0.04096414 0.3939345 -0.2804085 0.042903204 0.20276916 -0.09951218 -0.61123544 -0.50506157
-0.42816556 0.21749668 -0.4969816 -0.5084044 -0.35690618 -0.20545238 -0.6745193 -0.35651806
-0.14661452 -0.4090958 0.013253847 0.12323176 -0.107852 0.13295981 0.26620018 0.037946146
-0.19385427 -0.047724728 -0.56495434 -0.4912936 0.20286876 -0.10268206 -0.4482623 -0.45363507
-0.28548348 0.24073172 -0.109688394 -0.49447924 -0.25056526 -0.05592864 -0.06119821 -0.11010224
0.271955 0.045379065 -0.22797576 -0.15430361 0.24437286 0.2836499 -0.17356351 -0.45886937
-0.16655822 -0.306226 -0.32228023 0.03467695 -0.43036237 0.31062424 -0.41665283 -0.06816535
0.098837376 0.24821696 -0.5323131 -0.020432653 -0.073312074 0.3382747 0.081963874 -0.33660054
0.40510324 -0.3461162 -0.4488013 0.23956105 -0.343466 -0.15052111 0.67139935 0.29696602
0.2033488 0.32513925 0.25750208 0.40992728 0.38269168 0.037401523 0.1659518 0.29052126
0.34521237 0.36954957 0.4506456 0.4513443 -0.11648825 0.4443712 0.49166867 0.42823532
0.15397987 0.29280904 -0.523307 -0.24378543 -0.11878195 -0.1651973 0.5202281 0.49431986
-0.24573798 -0.27080727 0.21332833 -0.30226487 0.31289795 0.25187352 -0.004378146 0.46376228
-0.17764439 0.384427 0.6730363 0.09029466 0.41221547 -0.31943637 0.087863855 0.5587931
0.29112077 -0.4337031 -0.37874854 0.13724688 -0.2481126 0.47910473 0.2635661 0.3767696
0.25814766 -0.14141797 -0.325256 -0.6746206 0.34738782 -0.31519058 -0.52092725 -0.29214698
0.32397142 -0.10275306 0.12618124 0.17211315 0.07330423 0.39012417 0.5937851 -0.06658904
0.49791595 0.4423696 -0.26149032 0.4519752 -0.3780879 -0.18643123 -0.38937187 -0.19174834
-0.101804174 0.33832288 -0.4119683 -0.2813189 -0.1529862 0.087954134 -0.0087425625 -0.5510067
-0.21103291 -0.45853305 -0.46777835 -0.4244963 -0.35975468 -0.15969034 -0.24396071 0.58191544
-0.4224126 0.23516135 0.5850479 0.25721332 -0.51871204 0.3021727 -0.18720467 -0.20721674
0.34484503 0.24593937 0.01761651 -0.2327972 0.04005235 -0.37470612 -0.38969946 0.1072105
00000000: ba62 5abe 5888 c4be a5d1 5fbd d225 173c
00000010: 82d2 803e fddf f9bc efcc 643e 0083 153e
00000020: cdea dc3d 7004 b9bc 1d21 71be c16d 5b3c
00000030: 3f73 613e 1779 b5be c64d 8cbe 08ba ac3e
00000040: 3361 9cbe 2883 63be 1912 523e fa68 b7be
00000050: ab8b a73e 76fc a23e 2f21 d3bd bbcb a1be
00000060: 3bd0 f63e 7fe1 423e c17a 85be 1864 0dbf
00000070: 5a01 0d3e 7f2a d83e 7935 323f 648a 133e
00000080: bcc3 663e 5423 733d fa79 06bf a572 063c
00000090: eca0 4abd 2c4a f8bd 62e4 ccbe 87ba 05bf
000000a0: 4eed b73e b964 b03d fea4 333e b109 103f
000000b0: 07c5 ca3e c8f8 78be 5830 ac3e 8277 c43e
000000c0: b153 dabe 7bde 76be 1a91 8abe 40df 503e
000000d0: 5f96 dabe 3487 5dbb 0028 2a3d aef8 39bc
000000e0: b229 75be 8d8e a9be edb8 1c3f c8ce bf3d
000000f0: 23ec e03d 04f0 b7be b583 47be 771e 54be
00000100: 9cfd d7be dbb6 05bf 5267 a6be 9dc6 02bf
00000110: 289e 233e b45d 1dbe 2af4 833e e2a9 a8be
00000120: f625 a8be b8e6 e9bd e339 68be fc69 ffbe
00000130: f468 f03d 41c2 3abe f8ea 31bf 49f2 a2be
00000140: 04ca 273d c8b1 c93e b491 8fbe 45bb 2f3d
00000150: b8a2 4f3e 0bcd cbbd ed79 1cbf b74b 01bf
00000160: 8438 dbbe 73b7 5e3e 5f74 febe ca26 02bf
00000170: 68bc b6be 1c62 52be 4cad 2cbf 8989 b6be
00000180: 1e22 16be 0175 d1be aa26 593c ef60 fc3d
00000190: 82e1 dcbd 9e26 083e 644b 883e 6b6d 1b3d
000001a0: bc81 46be 017b 43bd d9a0 10bf d68a fbbe
000001b0: d4bc 4f3e f94a d2bd a382 e5be db42 e8be
000001c0: e42a 92be 6082 763e 4fa4 e0bd 622c fdbe
000001d0: 174a 80be 6e15 65bd f9aa 7abd 497d e1bd
000001e0: b03d 8b3e 66df 393d 7a72 69be c401 1ebe
000001f0: e13c 7a3e 8f3a 913e a2ba 31be edf0 eabe
00000200: 3d8e 2abe a7c9 9cbe ea01 a5be 6b09 0e3d
00000210: 7558 dcbe 240a 9f3e 8553 d5be 469a 8bbd
00000220: 406b ca3d 962c 7e3e ac45 08bf 6162 a7bc
00000230: a424 96bd 5732 ad3e addc a73d e856 acbe
00000240: b169 cf3e 2436 b1be 49c9 e5be 7e4f 753e
00000250: c7da afbe 3522 1abe d4e0 2b3f ee0b 983e
00000260: ab3a 503e a778 a63e 50d7 833e fde1 d13e
00000270: 2af0 c33e 5732 193d 45ef 293e 34bf 943e
00000280: adbf b03e 9a35 bd3e 05bb e63e 9a16 e73e
00000290: 6491 eebd 9f84 e33e ffbb fb3e a941 db3e
000002a0: e6ac 1d3e 11eb 953e 73f7 05bf e3a2 79be
000002b0: f343 f3bd 7b29 29be ab2d 053f 7e17 fd3e
000002c0: bda2 7bbe 40a7 8abe be72 5a3e 76c2 9abe
000002d0: 2934 a03e 91f5 803e 8d76 8fbb 4072 ed3e
000002e0: 69e8 35be 9ed3 c43e 1b4c 2c3f 68ec b83d
000002f0: e80d d33e 2a8d a3be f7f1 b33d 110d 0f3f
00000300: c80d 953e 550e debe 54eb c1be 728a 0c3e
00000310: 3b11 7ebe 374d f53e 23f2 863e f2e7 c03e
00000320: ee2b 843e dfcf 10be f487 a6be f0b3 2cbf
00000330: d1dc b13e a960 a1be 7d5b 05bf 4a94 95be
00000340: 95df a53e 3270 d2bd a835 013e 6e3e 303e
00000350: 8720 963d 5bbe c73e 4d02 183f d65f 88bd
00000360: d7ee fe3e 457e e23e 0fe2 85be 4b69 e73e
00000370: bd94 c1be d4e7 3ebe c05b c7be ad59 44be
00000380: b57e d0bd a838 ad3e 82ed d2be 0809 90be
00000390: 6aa8 1cbe 4c21 b43d f73c 0fbc c60e 0dbf
000003a0: 0319 58be d8c4 eabe a580 efbe 9457 d9be
000003b0: c431 b8be dd85 23be d6d0 79be 69f8 143f
000003c0: 7746 d8be 23ce 703e b3c5 153f 77b1 833e
000003d0: 50ca 04bf 61b6 9a3e 95b2 3fbe a030 54be
000003e0: 878f b03e 88d7 7b3e 8050 903c 6462 6ebe
000003f0: ef0d 243d 7bd9 bfbe b086 c7be 2e91 db3d

fc1.bias f4 [128]
-0.26813504 -0.1599337 -0.14384668 -0.32834685 0.43318754 0.1750463 -0.124899276 -0.19801345
0.23570098 0.38448417 -0.3842564 0.04232356 -0.13784786 -0.28609863 0.10854353 0.40255204
-0.014974511 -0.4742263 0.2635647 0.36380652 -0.2989893 0.41033474 0.3999639 0.34878248
-0.24337491 -0.2561027 0.42943183 0.43544054 -0.028065113 -0.3098836 0.15467925 0.0019871674
-0.21288556 0.16513407 -0.012637967 0.3340412 -0.4106018 0.39143923 0.2685548 -0.090917364
-0.32865375 0.041222412 0.28490782 -0.15890783 -0.20117123 0.48089707 -0.01536378 0.24290079
0.092146546 0.3392799 -0.31521764 0.17388988 0.41251838 0.1620082 -0.24748336 0.30496743
-0.11718533 0.15607832 -0.33008662 0.41272968 0.06263061 -0.2401144 0.38953304 0.28069255
-0.040900514 0.035946377 0.43114832 -0.06330182 0.35649112 0.17866668 0.2695692 -0.42762595
0.06365113 0.22092843 -0.09441784 -0.31699225 0.26010874 -0.42093927 -0.42581248 -0.21510446
0.18257494 0.24092078 0.29300207 -0.05589366 0.19613779 0.12059266 0.06661849 0.4169672
-0.4608634 -0.35730895 0.1791341 -0.036364567 0.020400675 -0.2757049 -0.13713345 0.19805442
-0.3665529 0.18397339 0.17146324 0.009258318 -0.44661468 -0.023991417 -0.13052121 0.38470826
-0.14465706 -0.25023082 -0.4340979 -0.31873062 -0.23475835 0.044253703 0.21367016 -0.15078555
-0.3186932 -0.43438894 0.038009014 0.47171152 0.13009897 -0.08933762 -0.1737426 0.21739283
0.476575 -0.061210614 0.13884962 -0.08823736 0.10860214 0.28300434 0.13363655 -0.039607406
00000000: ff48 89be a9c5 23be 8b4c 13be 141d a8be
00000010: c2ca dd3e 563f 333e 31cb ffbd 0ac4 4abe
00000020: 995b 713e 1cdb c43e 41bd c4be 785b 2d3d
00000030: fd27 0dbe 857b 92be 124c de3d 4d1b ce3e
00000040: a757 75bc cacd f2be f4f1 863e d944 ba3e
00000050: 2015 99be 6517 d23e 11c8 cc3e 9e93 b23e
00000060: 4637 79be e51f 83be 7dde db3e 10f2 de3e
00000070: cfe8 e5bc 10a9 9ebe 3d64 1e3e 233b 023b
00000080: acfe 59be e818 293e 7a0f 4fbc 7307 ab3e
00000090: 663a d2be b96a c83e 0480 893e e232 babd
000000a0: 4e45 a8be d5d8 283d 70df 913e bcb8 22be
000000b0: d5ff 4dbe 2438 f63e 5db8 7bbc fcba 783e
000000c0: 54b7 bc3d 18b6 ad3e 3564 a1be 3010 323e
000000d0: 9c35 d33e 7ae5 253e 476c 7dbe b124 9c3e
000000e0: ddfe efbd ffd2 1f3e 1d01 a9be 4e51 d33e
000000f0: 7a44 803d 8de0 75be e070 c73e efb6 8f3e
00000100: 4c87 27bd 823c 133d 79bf dc3e 62a4 81bd
00000110: 0186 b63e 66f4 363e f904 8a3e caf1 dabe
00000120: 865b 823d 103b 623e 245e c1bd cf4c a2be
00000130: f92c 853e 5a85 d7be 1804 dabe 5844 5cbe
00000140: edf4 3a3e f0b3 763e 5e04 963e c0f0 64bd
00000150: 58d8 483e 49f9 f63d 466f 883d ba7c d53e
00000160: 4af6 ebbe 33f1 b6be ee6e 373e 03f3 14bd
00000170: 511f a73c 3129 8dbe b66c 0cbe c7ce 4a3e
00000180: d2ac bbbe 8563 3c3e 0f94 2f3e 33b0 173c
00000190: aeaa e4be a689 c4bc 5aa7 05be 7bf8 c43e
000001a0: fb20 14be 411e 80be 1442 debe a930 a3be
000001b0: 7e64 70be 5f43 353d 5acc 5a3e 8767 1abe
000001c0: c12b a3be 3a68 debe 57af 1b3d 2c84 f13e
000001d0: aa38 053e a4f6 b6bd 95e9 31be 3a9c 5e3e
000001e0: a301 f43e fbb7 7abd 982e 0e3e cab5 b4bd
000001f0: cc6a de3d f2e5 903e 05d8 083e 603b 22bd

fc2.weight f4 [128, 128]
0.051472496 -0.111297406 -0.03389222 0.0043105264 0.12307947 -0.044187646 0.09447556 -0.0860068
-0.04166483 0.15984966 -0.049793456 -0.054172724 -0.069972314 0.03138748 -0.082079776 0.038502704
0.06108113 -0.043150734 0.09985944 0.09634833 0.04791199 0.081511885 0.037090868 0.016596084
0.069187246 0.020336334 0.018098274 0.14762092 0.09679159 -0.05062538 -0.05118717 0.005723693
0.046644572 0.06524514 -0.025650743 -0.03944708 0.04012199 0.060257938 -0.034237705 -0.025284559
-0.106735736 -0.07870677 0.0930076 0.033856917 0.03192382 0.055043265 -0.1050493 0.026244497
-0.04666937 0.03515631 0.2281525 0.21061064 0.027216671 -0.045391403 0.015278226 0.024994025
-0.021511616 0.035252772 0.15927911 -0.050944284 -0.09828459 0.10235613 0.08138742 0.11908516
-0.06513892 -0.027541883 -0.0048956648 -0.085866615 0.044662107 0.10094288 0.100596555 -0.061041843
-0.12704086 0.19692422 -0.09281578 0.13680527 0.0132270735 -0.03792811 0.07605555 0.05012285
0.0012190848 -0.0812808 0.020917485 -0.0026862281 0.16004832 0.14998095 0.04468241 -0.0135375345
-0.004758679 0.12401121 -0.04761883 -0.15028648 0.01202732 0.02794955 0.072727375 0.038248677
0.023144042 -0.019271066 -0.04823362 0.023258561 -0.00196362 -0.0051413435 0.12681934 0.046170417
-0.13902622 0.011824183 0.050544675 0.01582057 0.047234364 -0.14536816 0.053000737 -0.08299785
0.09811595 0.039813023 -0.043891057 -0.038584925 -0.0027781515 -0.04866125 -0.11357526 -0.031867784
-0.089195825 0.16787387 0.12104459 0.0156632 0.19249906 0.11006332 -0.050759032 0.02552018
-0.008829895 0.011034415 -0.01883035 -0.02280541 0.013178977 0.06342682 -0.09485901 -0.016872585
0.07002912 -0.07209358 0.054488517 0.09304942 0.07873839 -0.06490158 0.050764814 -0.066207625
0.03552968 0.015955247 -0.05577929 -0.044066623 -0.033186104 0.014664083 -0.041298363 -0.06787288
-0.08093253 0.009366311 -0.11494267 0.05197178 0.052216966 -0.07689249 -0.085230485 -0.0065493844
0.006304178 0.020839997 0.04252059 0.015959091 0.09235021 -0.017231725 -0.002893775 0.087846465
0.017206337 0.020500515 -0.107269384 -0.02451884 0.019957066 0.039251804 0.046523448 0.026922103
0.03652596 0.06882586 -0.09370095 -0.15271825 -0.045326643 0.023427075 0.106375515 0.04451395
0.06380518 0.016888201 -0.023171863 -0.063751765 0.008867845 -0.01898924 0.06024632 -0.092914924
0.15209545 0.056538947 0.05526587 0.1505578 0.050360244 0.03836061 0.027274726 -0.06386508
-0.007998227 -0.10791658 -0.017352398 -0.014475772 -0.030284338 0.015234348 0.08227749 0.037664764
-0.007071389 0.013528121 -0.0037307946 0.0008799437 -0.12585974 -0.009708469 -0.087605104 -0.09535647
0.078378 -0.009314617 0.027048904 0.06055412 0.02629985 0.004828751 0.003562565 0.08706304
-0.094470665 0.10198362 -0.004322565 0.0125099225 0.0705217 0.054964464 0.028608218 0.017558578
0.14345221 0.058887456 -0.08587394 -0.049577385 0.042875282 0.15460569 -0.051562537 0.09651781
0.0052950713 -0.08641239 0.09320962 0.022759022 -0.058430456 -0.014467747 -0.0105746025 -0.010550408
0.09254429 -0.12809724 -0.10386572 0.024840234 -0.21372782 0.05906362 0.10370279 0.070799686
00000000: d3d4 523d e5ef e3bd 92d2 0abd 513f 8d3b
00000010: 1711 fc3d 1bfe 34bd 677c c13d 5524 b0bd
00000020: bea8 2abd a1af 233e 39f4 4bbd 38e4 5dbd
00000030: a54d 8fbd 2990 003d 7119 a8bd 03b5 1d3d
00000040: 3530 7a3d d3be 30bd 1b83 cc3d 4652 c53d
00000050: 5d3f 443d b4ef a63d 98ec 173d 83f4 873c
00000060: 0bb2 8d3d 6298 a63c d542 943c f029 173e
00000070: ab3a c63d 8f5c 4fbd a3a9 51bd d18d bb3b
00000080: 610e 3f3d 3e9f 853d 8221 d2bc 4393 21bd
00000090: f556 243d 07d1 763d d63c 0cbd 9021 cfbc
000000a0: 4498 dabd 0431 a1bd c57a be3d 8dad 0a3d
000000b0: 8dc2 023d 0c75 613d 1624 d7bd b3fe d63c
000000c0: 6228 3fbd 1000 103d cfa0 693e 51aa 573e
000000d0: 7ff5 de3c 56ec 39bd 8651 7a3c 45c0 cc3c
000000e0: 2139 b0bc 3665 103d 101a 233e f4aa 50bd
000000f0: 6e49 c9bd 17a0 d13d 73ae a63d ece2 f33d
00000100: 8e67 85bd 849f e1bc d06b a0bb d6da afbd
00000110: 9def 363d 24bb ce3d 9105 ce3d 0307 7abd
00000120: 0017 02be 81a6 493e 3316 bebd ae16 0c3e
00000130: 5eb6 583c 825a 1bbd 03c3 9b3d 9e4d 4d3d
00000140: b3c9 9f3a 8c76 a6bd 255b ab3c 6e0b 30bb
00000150: b5e3 233e 9b94 193e e704 373d 89cc 5dbc
00000160: b1ee 9bbb 97f9 fd3d f60b 43bd b3e4 19be
00000170: 3d0e 453c 74f6 e43c 17f2 943d a5aa 1c3d
00000180: 9398 bd3c 5bde 9dbc 9e90 45bd bd88 be3c
00000190: 14b0 00bb b778 a8bb eedc 013e 311d 3d3d
000001a0: e45c 0ebe 38ba 413c ef07 4f3d 249a 813c
000001b0: d278 413d 64db 14be 4d17 593d c7fa a9bd
000001c0: 04f1 c83d fb12 233d 1cc7 33bd 3a0b 1ebd
000001d0: a611 36bb 0551 47bd 259a e8bd cb87 02bd
000001e0: 4dac b6bd 21e7 2b3e 3ae6 f73d 1c50 803c
000001f0: 791e 453e e168 e13d b4e8 4fbd b20f d13c
00000200: 44ab 10bc b1c9 343c 1b42 9abc 69d2 babc
00000210: a3ec 573c ece5 813d 7145 c2bd 6038 8abc
00000220: 6d6b 8f3d cda5 93bd 5a2f 5f3d b290 be3d
00000230: 9841 a13d 1feb 84bd c4ee 4f3d dd97 87bd
00000240: 9287 113d 94b4 823c d378 64bd 347f 34bd
00000250: 27ee 07bd 9f41 703c 7928 29bd f000 8bbd
00000260: f4bf a5bd 2875 193c 1067 ebbd 5ce0 543d
00000270: 75e1 553d cf79 9dbd 528d aebd 389c d6bb
00000280: 4793 ce3b a4b8 aa3c 122a 2e3d a4bc 823c
00000290: 1b22 bd3d 8c29 8dbc 7da5 3dbb d9e8 b33d
000002a0: 4ef4 8c3c b2f0 a73c 0db0 dbbd bcdb c8bc
000002b0: 007d a33c 80c6 203d 5f8f 3e3d be8b dc3c
000002c0: 3f9c 153d 93f4 8c3d 49e6 bfbd 2c62 1cbe
000002d0: 6ea8 39bd 23ea bf3c 68db d93d 4254 363d
000002e0: 4aac 823d 2059 8a3c ebd2 bdbc 4990 82bd
000002f0: 704a 113c 538f 9bbc d8c4 763d 2e4a bebd
00000300: e9be 1b3e 6295 673d 775e 623d d32b 1a3e
00000310: 8b46 4e3d 0420 1d3d 3f6f df3c b2cb 82bd
00000320: ff0a 03bc 5e03 ddbd 9e26 8ebc ca2b 6dbc
00000330: dc16 f8bc 7d99 793c 1a81 a83d 5e46 1a3d
00000340: 1cb7 e7bb 0da5 5d3c 5980 74bb 06ac 663a
00000350: 60e1 00be 4510 1fbc 4e6a b3bd 414a c3bd
00000360: a584 a03d 569c 18bc aa95 dd3c 9907 783d
00000370: c872 d73c 803a 9e3b ec79 693b 1b4e b23d
00000380: d679 c1bd cadc d03d 4ea4 8dbb 6bf6 4c3c
00000390: ae6d 903d 6b22 613d c85b ea3c 02d7 8f3c
000003a0: 23e5 123e f933 713d adde afbd a811 4bbd
000003b0: fe9d 2f3d f450 1e3e 3d33 53bd 21ab c53d
000003c0: 4782 ad3b fbf8 b0bd afe4 be3d 2171 ba3c
000003d0: c654 6fbd 210a 6dbc 1941 2dbc 9edb 2cbc
000003e0: dc87 bd3d ec2b 03be 8db7 d4bd bf7d cb3c
000003f0: 77db 5abe b2ec 713d 2162 d43d 6dff 903d

fc2.bias f4 [128]
0.031535525 -0.08181908 0.04306276 0.0020783062 0.08405987 -0.07000748 0.062670566 -0.012730993
-0.048979856 -0.054686457 0.050650716 -0.059188634 -0.013127817 -0.04760175 0.09680895 -0.03481257
0.022758853 -0.06996311 -0.05595134 0.037565134 0.03931101 0.10474578 -0.001942262 0.0012944947
0.07068891 0.01841925 -0.06843932 0.021372203 -0.042890776 0.018835962 0.04593266 0.049264092
0.09329383 -0.04435982 -0.042734843 0.030579528 -0.022345431 -0.008346571 -0.08814468 0.07791105
-0.034085065 -0.07877563 -0.011529459 -0.008236805 0.048986316 0.07755908 -0.0006667402 -0.052024193
-0.039146908 -0.07623937 -0.034946013 0.063851535 0.017854119 0.03830098 0.054467097 0.041933566
-0.033818893 -0.00241133 0.043994628 0.008737797 0.03915151 0.06521437 -0.08318401 -0.038195834
0.056364067 0.078120366 0.0038079037 -0.022904351 -0.08742409 -0.0034084844 0.018656649 -0.055546243
-0.05747807 0.039021578 0.06534139 -0.03940625 0.019830843 0.058091965 0.0744225 0.063269176
-0.09722496 0.060133126 -0.08591354 -0.003777273 0.010321057 0.04571895 -0.03113863 0.10080384
0.014355488 0.05377119 0.007868468 -0.102868125 -0.018450012 -0.051926475 -0.046487797 0.05732138
0.044864558 0.024172135 0.040369134 0.038751535 -0.034992583 -0.0120993955 -0.05422747 -0.043598223
0.015825057 0.027173027 0.019303465 -0.029506594 0.046899505 0.10173039 0.041500036 -0.06333393
0.0412838 -0.009661848 0.055219963 0.07607148 -0.053197592 -0.00663385 -0.00032443428 0.08243073
-0.021787412 0.011800394 0.014385379 -0.03398789 -0.06777128 0.11686304 0.064023584 0.04286521
00000000: 652b 013d c390 a7bd 9462 303d 3134 083b
00000010: 9527 ac3d 1560 8fbd 6d59 803d a895 50bc
00000020: 1a9f 48bd e8fe 5fbd 2077 4f3d c86f 72bd
00000030: 0e16 57bc 0dfa 42bd c543 c63d a097 0ebd
00000040: c670 ba3c d248 8fbd 3b2d 65bd e6dd 193d
00000050: 9504 213d f584 d63d 8093 feba 09ac a93a
00000060: 59c5 903d f8e3 963c ea29 8cbd c214 af3c
00000070: 3dae 2fbd e04d 9a3c e323 3c3d 25c9 493d
00000080: d610 bf3d a5b2 35bd bb0a 2fbd eb81 fa3c
00000090: c40d b7bc 0ec0 08bc 3385 b4bd d48f 9f3d
000000a0: c89c 0bbd 1e55 a1bd 0ee6 3cbc aaf3 06bc
000000b0: e0a5 483d 4cd7 9e3d 2dc8 2eba 5217 55bd
000000c0: 8258 20bd 6323 9cbd 8d23 0fbd 98c4 823d
000000d0: cd42 923c 7de1 1c3d e418 5f3d 88c2 2b3d
000000e0: ae85 0abd 6707 1ebb b633 343d fa28 0f3c
000000f0: 555d 203d 1d8f 853d 615c aabd 3c73 1cbd
00000100: 02de 663d 92fd 9f3d 068e 793b e8a1 bbbc
00000110: 670b b3bd e160 5fbb d4d5 983c 7584 63bd
00000120: 206e 6bbd 17d5 1f3d b5d1 853d 7368 21bd
00000130: 4b74 a23c d7f1 6d3d d36a 983d 4593 813d
00000140: e11d c7bd 274e 763d 70f3 afbd 208c 77bb
00000150: a719 293c cb43 3b3d 7116 ffbc 3e72 ce3d
00000160: 4833 6b3c 2e3f 5c3d bfea 003c 86ac d2bd
00000170: 7b24 97bc dbb0 54bd fd69 3ebd d3c9 6a3d
00000180: e6c3 373d a404 c63c 1b5a 253d eeb9 1e3d
00000190: 6254 0fbd 8b3c 46bc a01d 5ebd 0d94 32bd
000001a0: 8da3 813c f899 de3c 4d22 9e3c d0b7 f1bc
000001b0: b219 403d 0658 d03d f1fb 293d 38b5 81bd
000001c0: 3419 293d ba4c 1ebc 542e 623d 5dcb 9b3d
000001d0: b8e5 59bd c460 d9bb d518 aab9 71d1 a83d
000001e0: 847b b2bc 7156 413c a7b0 6b3c e336 0bbd
000001f0: abcb 8abd e455 ef3d cc1e 833d 6e93 2f3d

prob.weight f4 [2, 128]
0.0797099 -0.10081871 0.15046987 0.14443651 0.150398 -0.09154878 -0.074712 -0.07695682
0.09491581 0.08389552 -0.08288409 0.034052588 0.056266107 -0.12574108 0.01731056 -0.102857575
0.028521689 -0.02799133 0.037051044 0.0032390058 0.15642102 0.15518807 0.026174448 0.11945654
-0.10136001 0.07676428 0.063410245 -0.021724585 0.0655374 0.059008375 -0.13772655 -0.050919384
0.06872672 -0.074373245 0.07834483 0.09075719 -0.02147086 0.13224833 -0.039427698 0.054114863
-0.12181047 0.047702145 0.0019924652 -0.07467463 0.11829062 0.15146266 -0.07117935 -0.12143447
0.08797603 0.031820975 0.038553637 -0.11076542 -0.054323733 -0.0688652 -0.037983324 -0.08061459
-0.019230425 0.07333864 -0.022102147 -0.012004081 0.06057357 0.10251152 -0.084561236 -0.100988805
-0.13255653 -0.11079909 -0.010125818 0.12620683 -0.027488923 0.01629007 -0.047217153 0.016557552
0.040035587 -0.075961806 -0.15419908 -0.023094641 -0.09329906 -0.11820245 0.019862266 -0.10092045
-0.05978403 0.0011839684 -0.033867233 -0.025261544 -0.11145392 0.11162699 -0.07260756 0.17325349
-0.016831657 0.13318914 -0.133055 0.05783448 0.14167559 0.07055894 -0.011514458 0.035531778
0.17677394 0.033423103 0.1411066 -0.04393594 -0.0014564873 0.06085869 -0.040458128 0.11673807
-0.0062794494 0.04127503 -0.115152895 -0.087106444 0.02613692 0.00668347 -0.071902335 0.07246974
-0.078049615 -0.009869773 0.11078851 0.12835641 -0.0606452 0.004877591 0.048974823 -0.16988647
0.04258672 0.027400214 -0.010441836 0.008480534 -0.008827505 0.16816097 -0.032000117 -0.08632727
-0.07981826 0.0055899974 -0.079804264 -0.16536939 -0.08132479 0.0007866067 0.061444093 0.045959078
-0.1275722 -0.045143414 -0.049862996 -0.16604364 -0.00606618 0.011530237 -0.16090026 0.14813566
0.033723578 0.0253927 -0.01820168 0.01001367 -0.11566218 -0.0014663223 0.04155756 0.007679927
0.028724398 -0.11500751 -0.054535903 0.15824117 0.03454937 0.07023974 0.092407525 0.15112874
-0.10528183 0.11439259 -0.14505814 -0.05492746 0.094178095 -0.10313772 -0.04509675 -0.08591774
0.13367036 -0.057257123 0.003508315 -0.039945796 -0.045427643 0.0016787526 0.045578755 0.13300164
-0.08176337 0.04496288 0.1109767 0.06842074 0.09376615 0.068201505 -0.0010977673 0.14525123
0.011490494 -0.08122199 -0.003689386 -0.07628221 -0.0023200049 -0.16153689 0.01704435 0.13916224
0.034295715 0.02938163 0.04311881 -0.12851158 0.087305725 -0.046795383 0.047597323 0.021416154
-0.03338975 0.038024526 0.071301594 0.08745972 0.07493843 0.15850234 -0.089148425 0.014328088
-0.0032046787 0.10173495 -0.0359794 0.0084868595 0.029530598 -0.13013656 0.10159835 -0.016630976
-0.015837755 -0.10185776 0.11889873 0.060008768 -0.03134111 -0.047173683 0.030203264 0.057510633
-0.018957464 -0.006689556 -0.061059013 -0.043072276 -0.02190677 -0.004487974 -0.041132204 -0.055483557
0.102911286 -0.059621602 0.06276148 0.0822746 -0.121934645 -0.1264784 0.07326461 -0.023627872
0.11751964 -0.010293728 -0.08879497 -0.0067353756 0.087242015 0.052125406 0.052969776 0.06881005
0.05952493 -0.02327869 -0.0025257305 -0.00031985343 0.1642879 -0.08703281 0.102226794 -0.05906461
00000000: f23e a33d 0a7a cebd c614 1a3e 2ae7 133e
00000010: ef01 1a3e ed7d bbbd 9b02 99bd 8a9b 9dbd
00000020: 3863 c23d 6ad1 ab3d 22bf a9bd ba7a 0b3d
00000030: 4a77 663d 45c2 00be e0ce 8d3c fea6 d2bd
00000040: 51a6 e93c 134e e5bc d6c2 173d 8045 543b
00000050: d52c 203e 9fe9 1e3e cc6b d63c a1a5 f43d
00000060: d695 cfbd 9736 9d3d 3bdd 813d c2f7 b1bc
00000070: 7938 863d c4b2 713d 3008 0dbe d890 50bd
00000080: 98c0 8c3d 0051 98bd 4173 a03d e8de b93d
00000090: a8e3 afbc 1b6c 073e f07e 21bd 8ca7 5d3d
000000a0: c577 f9bd 5363 433d 0594 023b 03ef 98bd
000000b0: 5a42 f23d 0719 1b3e 7bc6 91bd a3b2 f8bd
000000c0: c72c b43d b656 023d 6bea 1d3d fbd8 e2bd
000000d0: 9082 5ebd 3309 8dbd 6794 1bbd 4319 a5bd
000000e0: 2089 9dbc 9232 963d 900f b5bc c4ac 44bc
000000f0: fe1b 783d 8ff1 d13d 712e adbd 38d3 cebd
00000100: e6bc 07be a2ea e2bd c2e6 25bc 5d3c 013e
00000110: 7330 e1bc c172 853c c666 41bd b4a3 873c
00000120: 5bfc 233d dd91 9bbd 5de6 1dbe f930 bdbc
00000130: 9413 bfbd 2014 f2bd 31b6 a23c 62af cebd
00000140: 19e0 74bd 632f 9b3a 5eb8 0abd 4cf1 cebc
00000150: f441 e4bd b19c e43d 46b3 94bd 5d69 313e
00000160: 8be2 89bc bc62 083e 923f 08be d9e3 6c3d
00000170: 6813 113e 3581 903d 23a7 3cbc c589 113d
00000180: 3a04 353e aae6 083d 407e 103e 2cf6 33bd
00000190: 9be7 beba f646 793d 6cb7 25bd 5f14 ef3d
000001a0: d7c3 cdbb 0110 293d 48d5 ebbd dd64 b2bd
000001b0: 181d d63c 0301 db3b 8841 93bd 046b 943d
000001c0: 7ad8 9fbd d4b4 21bc 16e5 e23d dd6f 033e
000001d0: 1a67 78bd 33d4 9f3b d399 483d b8f6 2dbe
000001e0: 6a6f 2e3d 6a76 e03c 3c14 2bbc f0f1 0a3c
000001f0: 3da1 10bc 6432 2c3e 8e12 03bd 5acc b0bd
00000200: c277 a3bd 4c2c b73b 6b70 a3bd 9856 29be
00000210: 9d8d a6bd 4834 4e3a cdac 7b3d 963f 3c3d
00000220: 49a2 02be 4de8 38bd 243d 4cbd 5807 2abe
00000230: cec6 c6bb 52e9 3c3c 0ac3 24be e0b0 173e
00000240: bc21 0a3d 5a04 d03c b11b 95bc 6010 243c
00000250: 4be0 ecbd 9d31 c0ba 4338 2a3d e6a7 fb3b
00000260: 6e4f eb3c 0f89 ebbd 0a61 5fbd f909 223e
00000270: a483 0d3d dad9 8f3d 2840 bd3d 7ec1 1a3e
00000280: 009e d7bd aa46 ea3d 1f8a 14be 9efb 60bd
00000290: 72e0 c03d de39 d3bd 5fb7 38bd a4f5 afbd
000002a0: e2e0 083e 7286 6abd c2eb 653b 349e 23bd
000002b0: 5612 3abd 9709 dc3a cab0 3a3d 9531 083e
000002c0: 8e73 a7bd ff2a 383d c147 e33d 2c20 8c3d
000002d0: 7808 c03d 3bad 8b3d f5e2 8fba bdbc 143e
000002e0: a042 3c3c b757 a6bd a0c9 71bb d939 9cbd
000002f0: 390b 18bb ed69 25be 98a0 8b3c 8c80 0e3e
00000300: aa79 0c3d beb1 f03c 599d 303d 8a98 03be
00000310: 58cd b23d 84ac 3fbd 69f5 423d ee70 af3c
00000320: b1c3 08bd 9bbf 1b3d 9206 923d 151e b33d
00000330: 5279 993d 704e 223e 7393 b6bd 5bc0 6a3c
00000340: 9605 52bb 6a5a d03d 235f 13bd 780c 0b3c
00000350: 27ea f13c 8542 05be cc12 d03d af3d 88bc
00000360: 2ebe 81bc cd9a d0bd 2d81 f33d c1cb 753d
00000370: 895f 00bd 3139 41bd d66c f73c 4590 6b3d
00000380: af4c 9bbc 1034 dbbb 0419 7abd 8e6c 30bd
00000390: d475 b3bc db0f 93bb 3e7a 28bd ba42 63bd
000003a0: 27c3 d23d c835 74bd 1789 803d 967f a83d
000003b0: dfb8 f9bd 8e83 01be c10b 963d 3d8f c1bc
000003c0: 23ae f03d 06a7 28bc 23da b5bd 6db4 dcbb
000003d0: f1ab b23d 7381 553d d6f6 583d 49ec 8c3d
000003e0: 6ad0 733d f4b2 bebc ba86 25bb 00b2 a7b9
000003f0: 163b 283e 423e b2bd 485c d13d bced 71bd

prob.bias f4 [2]
0.04479216 -0.089912005
00000000: fc77 373d c923 b8bd
