RLIntro/Reinforce/checkpoints/Reinforce_discrete/Reinforce_policy_2700.pth (torch_old, 70658 bytes, 6 tensors)

fc1.weight f4 [128, 4]
-0.2131542 -0.38304663 -0.05446517 0.0075133983 0.26875278 -0.016981455 0.21822783 0.14805408
0.107809536 -0.02395986 -0.23639844 0.017805323 0.22489166 -0.35149312 -0.2787387 0.33560866
-0.31513926 -0.22618617 0.20915127 -0.34907573 0.31498036 0.31693625 -0.09356281 -0.3174623
0.46699557 0.18217437 -0.25587302 -0.5485555 0.16089502 0.43230015 0.68400794 0.14040665
0.20978726 0.052274283 -0.5134638 0.015219203 -0.06413971 -0.12846935 -0.39214242 -0.5148827
0.3710398 0.09701533 0.1675387 0.5679333 0.41276842 -0.2276462 0.33038762 0.3798182
-0.42680153 -0.24266183 -0.26693848 0.20760562 -0.4269285 -0.0033802511 0.041542053 -0.011350794
-0.23823442 -0.33153194 0.60678923 0.08993544 0.09195552 -0.37062544 -0.1861199 -0.1976821
-0.42170554 -0.52243066 -0.32554325 -0.5108694 0.159783 -0.15367776 0.2577222 -0.3294211
-0.33267012 -0.114083596 -0.22534479 -0.49150714 0.10175502 -0.19024126 -0.68709594 -0.31120643
0.049397275 0.39702758 -0.28421342 0.039632075 0.18711314 -0.1075389 -0.60286456 -0.49691173
-0.43939742 0.21238656 -0.49185202 -0.49988234 -0.36193123 -0.21354587 -0.6738454 -0.34233412
-0.1465346 -0.41062793 0.016042825 0.12617506 -0.107852 0.13295981 0.26620018 0.037946146
-0.20801061 -0.05417314 -0.5589797 -0.48331824 0.18713315 -0.110440604 -0.4395237 -0.44609454
-0.28696197 0.24149464 -0.10788194 -0.4895554 -0.25056526 -0.05592864 -0.06119821 -0.11010224
0.25626534 0.038171656 -0.21452942 -0.1439073 0.23615366 0.28366384 -0.16191119 -0.46006358
-0.16618085 -0.302999 -0.32218722 0.028337894 -0.4313504 0.31329858 -0.41110066 -0.068261795
0.09824214 0.25016946 -0.53105927 -0.022059707 -0.08338855 0.33752108 0.09066806 -0.3385819
0.4053495 -0.34814602 -0.45007437 0.24201396 -0.32981932 -0.13873647 0.6717027 0.28892672
0.21909952 0.33366978 0.2525022 0.40338203 0.39879006 0.047986593 0.15196158 0.28541276
0.36475426 0.37543818 0.43557617 0.45267615 -0.10029408 0.45360652 0.48547402 0.4203349
0.13934153 0.28654072 -0.51354444 -0.23714969 -0.1147033 -0.1623546 0.5031288 0.4861454
-0.24573798 -0.27080727 0.21332833 -0.30226487 0.32839462 0.2605337 -0.007877279 0.45791614
-0.15553355 0.39383915 0.66558105 0.07882893 0.42775613 -0.30882257 0.08356096 0.5545751
0.2763472 -0.44926634 -0.37173563 0.1408098 -0.23160145 0.48844787 0.2581031 0.3697425
0.2299149 -0.18833618 -0.32665738 -0.62500876 0.33044127 -0.32702368 -0.5159438 -0.28691986
0.33422565 -0.09608716 0.13181834 0.17000653 0.09145251 0.40195107 0.5913443 -0.074092925
0.5127479 0.44760406 -0.27213216 0.4503382 -0.37724242 -0.1943604 -0.38926876 -0.17972931
-0.10464344 0.337838 -0.41468728 -0.27877483 -0.16535354 0.085002825 -0.0047972016 -0.54632443
-0.21103291 -0.45853305 -0.46777835 -0.4244963 -0.34930825 -0.14890447 -0.24589282 0.5770159
-0.42225012 0.23803361 0.58602625 0.24690533 -0.5147285 0.29939744 -0.19692223 -0.20406528
0.33193845 0.24151562 0.03126204 -0.22812796 0.020043798 -0.39187327 -0.37265918 0.1112641
00000000: 1845 5abe b01e c4be df16 5fbd f432 f63b
00000010: f799 893e b11c 8bbc 1e77 5f3e 7d9b 173e
00000020: 3fcb dc3d 7847 c4bc 6f12 72be 78dc 913c
00000030: 004a 663e e8f6 b3be d7b6 8ebe e6d4 ab3e
00000040: ef59 a1be 599d 67be c02b 563e 0eba b2be
00000050: 1b45 a13e 7845 a23e dc9d bfbd 6b8a a2be
00000060: 0b1a ef3e eb8b 3a3e ca01 83be 226e 0cbf
00000070: aac1 243e 7256 dd3e 251b 2f3f c3c6 0f3e
00000080: 79d2 563e 8f1d 563d 5d72 03bf f759 793c
00000090: ae5b 83bd 788d 03be e4c6 c8be 5acf 03bf
000000a0: eef8 bd3e f9af c63d 448f 2b3e 1464 113f
000000b0: 6256 d33e 161c 69be 9128 a93e 8877 c23e
000000c0: bb85 dabe 587c 78be 29ac 88be 9196 543e
000000d0: 5f96 dabe 3487 5dbb 0028 2a3d aef8 39bc
000000e0: b9f3 73be 8ebe a9be 8a56 1b3f 1230 b83d
000000f0: 2d53 bc3d 9ec2 bdbe 3796 3ebe 2d6d 4abe
00000100: cae9 d7be 04be 05bf 9bad a6be 56c8 02bf
00000110: 289e 233e b45d 1dbe 2af4 833e e2a9 a8be
00000120: bd53 aabe a9a4 e9bd c9c0 66be d3a6 fbbe
00000130: f064 d03d 9bce 42be 85e5 2fbf 7356 9fbe
00000140: cc54 4a3d 3347 cb3e 6c84 91be 3e55 223d
00000150: 969a 3f3e 5b3d dcbd 5555 1abf 376b febe
00000160: b3f8 e0be dd7b 593e 07d4 fbbe 94f0 ffbe
00000170: 0d4f b9be c5ab 5abe 2281 2cbf 6b46 afbe
00000180: 2b0d 16be d33d d2be 3e6c 833c 0934 013e
00000190: 82e1 dcbd 9e26 083e 644b 883e 6b6d 1b3d
000001a0: bc00 55be a8e4 5dbd 4b19 0fbf 7d75 f7be
000001b0: d59f 3f3e af2e e2bd 4009 e1be 8166 e4be
000001c0: aeec 92be 5f4a 773e 35f1 dcbd 01a7 fabe
000001d0: 174a 80be 6e15 65bd f9aa 7abd 497d e1bd
000001e0: 3635 833e e259 1c3d 9aad 5bbe 6f5c 13be
000001f0: 44d2 713e 633c 913e 0ccc 25be 748d ebbe
00000200: 502b 2abe af22 9bbe b9f5 a4be df24 e83c
00000210: f6d9 dcbe ac68 a03e c97b d2be d7cc 8bbd
00000220: 2d33 c93d 3616 803e 80f3 07bf 8fb6 b4bc
00000230: 9ec7 aabd 90cf ac3e 2db0 b93d 9b5a adbe
00000240: f889 cf3e 3240 b2be 2670 e6be 82d2 773e
00000250: 14de a8be ef10 0ebe b5f4 2b3f 34ee 933e
00000260: a05b 603e c4d6 aa3e f847 813e 1788 ce3e
00000270: 362e cc3e 978d 443d d19b 1b3e 9f21 923e
00000280: 12c1 ba3e 6f39 c03e d703 df3e 2bc5 e73e
00000290: fc66 cdbd 1d3f e83e 0d90 f83e 2336 d73e
000002a0: 8caf 0e3e 77b5 923e a677 03bf 5ed7 72be
000002b0: 90e9 eabd 4940 26be 0dcd 003f 0de8 f83e
000002c0: bda2 7bbe 40a7 8abe be72 5a3e 76c2 9abe
000002d0: 5723 a83e ac64 853e b40f 01bc fc73 ea3e
000002e0: 3044 1fbe 49a5 c93e 8563 2a3f 1071 a13d
000002f0: da02 db3e fe1d 9ebe 0222 ab3d a2f8 0d3f
00000300: 617d 8d3e 3d06 e6be 2254 bebe 7230 103e
00000310: ee28 6dbe d715 fa3e 1726 843e e44e bd3e
00000320: d06e 6b3e 33db 40be a33f a7be 9300 20bf
00000330: 992f a93e a66f a7be e514 04bf 29e7 92be
00000340: a01f ab3e 58c9 c4bd 63fb 063e 3116 2e3e
00000350: 744b bb3d 88cc cd3e 5762 173f 08be 97bd
00000360: 7243 033f 5c2c e53e e854 8bbe bb92 e63e
00000370: eb25 c1be 6a06 47be 3c4e c7be f60a 38be
00000380: 4d4f d6bd 1af9 ac3e e451 d4be 93bb 8ebe
00000390: 7052 29be f615 ae3d d831 9dbb ebdb 0bbf
000003a0: 0319 58be d8c4 eabe a580 efbe 9457 d9be
000003b0: 88d8 b2be 6a7a 18be 54cb 7bbe 50b7 133f
000003c0: 2b31 d8be 15bf 733e d105 163f c0d4 7c3e
000003d0: 3fc5 03bf 9f4a 993e fba5 49be 7df6 50be
000003e0: d6f3 a93e df4f 773e a00c 003d 609a 69be
000003f0: e432 a43c 9da3 c8be 2fcd bebe 6fde e33d

fc1.bias f4 [128]
-0.26893258 -0.14423335 -0.14303666 -0.32844862 0.42776996 0.16407114 -0.14041087 -0.1806746
0.22308 0.3750882 -0.37412715 0.053407148 -0.1343694 -0.28609863 0.10833973 0.3907006
-0.014581062 -0.4742263 0.25985897 0.3539507 -0.29476136 0.4007803 0.39283398 0.34494787
-0.24088223 -0.2561027 0.42073086 0.42535046 -0.02947514 -0.3098836 0.14436159 -0.0035460752
-0.21680497 0.16458775 -0.0155488085 0.32511196 -0.41002262 0.39980352 0.27730125 -0.08229932
-0.3142578 0.051026326 0.2743638 -0.1652028 -0.20117123 0.48925075 -0.0011940094 0.25120524
0.08372183 0.34859246 -0.3541286 0.16107552 0.41807124 0.17206828 -0.23976196 0.3027432
-0.12132167 0.14662865 -0.33008662 0.4197618 0.065026164 -0.24451473 0.37957928 0.27195638
-0.032746065 0.035681587 0.4400534 -0.055816833 0.3560907 0.17284226 0.25880384 -0.42762595
0.064633965 0.20631522 -0.08713345 -0.31902027 0.24799658 -0.41986856 -0.42581248 -0.21390462
0.19240066 0.25082436 0.29614002 -0.05256268 0.18368524 0.107513554 0.06533535 0.41023156
-0.46307608 -0.35730895 0.17276168 -0.039795868 0.006055279 -0.2757049 -0.13713345 0.20706947
-0.37368715 0.19260108 0.18081239 0.011009925 -0.4427958 -0.032946534 -0.13587494 0.39318714
-0.14211555 -0.25223434 -0.4340979 -0.31517363 -0.23475835 0.053698387 0.22273158 -0.15116243
-0.3186932 -0.4463794 0.039615303 0.4768747 0.13218231 -0.07777883 -0.17644918 0.21721877
0.48533678 -0.068439186 0.12243223 -0.09025727 0.08997831 0.27173877 0.14455238 -0.042958204
00000000: 88b1 89be e8b1 13be 3478 12be 6b2a a8be
00000010: aa04 db3e 4402 283e dec7 0fbe c302 39be
00000020: 156f 643e 900b c03e 988d bfbe 74c1 5a3d
00000030: 2298 09be 857b 92be 38e1 dd3d e909 c83e
00000040: 68e5 6ebc cacd f2be 3c0c 853e 0739 b53e
00000050: f6ea 96be 1333 cd3e 8921 c93e 029d b03e
00000060: d5a9 76be e51f 83be 096a d73e 89c7 d93e
00000070: d975 f1bc 10a9 9ebe 86d3 133e 4565 68bb
00000080: 1f02 5ebe b189 283e 6ec0 7ebc 1375 a63e
00000090: 7cee d1be 0cb3 cc3e 6efa 8d3e 8c8c a8bd
000000a0: 66e6 a0be fb00 513d 6979 8c3e ec2a 29be
000000b0: d5ff 4dbe 137f fa3e 4f80 9cba f99d 803e
000000c0: 5a76 ab3d b67a b23e 5850 b5be fbf0 243e
000000d0: 6f0d d63e ab32 303e 2984 75be 2801 9b3e
000000e0: 7f77 f8bd d225 163e 1d01 a9be 05eb d63e
000000f0: 702c 853d 1262 7abe 3758 c23e de3d 8b3e
00000100: bd20 06bd db26 123d ae4e e13e 31a0 64bd
00000110: 8551 b63e 90fd 303e f081 843e caf1 dabe
00000120: d05e 843d 4c44 533e 0673 b2bd a056 a3be
00000130: d1f2 7d3e 03f9 d6be 1804 dabe d009 5bbe
00000140: ae04 453e 0d6c 803e aa9f 973e f74b 57bd
00000150: fc17 3c3e 1130 dc3d 8ace 853d df09 d23e
00000160: 4f18 edbe 33f1 b6be 70e8 303e fe00 23bd
00000170: 5d6b c63b 3129 8dbe b66c 0cbe 050a 543e
00000180: ec53 bfbe 3839 453e e226 393e f962 343c
00000190: 22b6 e2be f2f2 06bd cd22 0bbe d34f c93e
000001a0: bd86 11be dc24 81be 1442 debe 705e a1be
000001b0: 7e64 70be d7f2 5b3d bf13 643e 53ca 1abe
000001c0: c12b a3be d78b e4be a843 223d ec28 f43e
000001d0: cd5a 073e 824a 9fbd 18af 34be 996e 5e3e
000001e0: 107e f83e d829 8cbd c0bd fa3d ced8 b8bd
000001f0: 8c46 b83d 5821 8b3e 8a05 143e f1f4 2fbd

fc2.weight f4 [128, 128]
0.051075418 -0.12429374 -0.033411387 0.001574399 0.11862206 -0.055828054 0.08248574 -0.090268254
-0.053365868 0.14933226 -0.060598545 -0.06306401 -0.06816568 0.03138748 -0.07918278 0.029131653
0.061183963 -0.043150734 0.09306962 0.084171176 0.050599374 0.068646915 0.03036373 0.011432513
0.068943605 0.020336334 0.009352666 0.1353237 0.093637444 -0.05062538 -0.06431307 -0.004172935
0.045846164 0.06197605 -0.034686565 -0.04821757 0.035566222 0.06012938 -0.04387447 -0.03882709
-0.11493022 -0.08152739 0.08149583 0.04287488 0.03192382 0.04504407 -0.10458939 0.017714161
-0.050883394 0.029474242 0.18908826 0.19475423 0.01704463 -0.054695163 0.0029852742 0.022127498
-0.02241631 0.028426848 0.15927911 -0.0504991 -0.09759861 0.09677825 0.0699785 0.11603595
-0.064677335 -0.024260683 -0.015591583 -0.09155601 0.042458087 0.0943727 0.09667351 -0.061041843
-0.12388937 0.1853785 -0.102495834 0.12775531 -0.0016325759 -0.039589964 0.07605555 0.04723467
-0.0020385517 -0.08519037 0.019928144 -0.0024648723 0.14493091 0.13989547 0.039809097 -0.025330283
-0.008562466 0.12401121 -0.059101768 -0.14231981 -0.0017313001 0.02794955 0.072727375 0.027848616
0.014872009 -0.02173952 -0.05495153 0.021095619 -0.0013019366 -0.008858334 0.12776536 0.03572525
-0.12568288 0.01148689 0.050544675 0.015351073 0.047234364 -0.15445562 0.047976427 -0.084585965
0.09811595 0.036704883 -0.04155553 -0.047049865 -0.0005181958 -0.055475965 -0.10792497 -0.030685619
-0.094030365 0.1609786 0.10722059 0.016698832 0.1744886 0.10180024 -0.055747982 0.030464603
-0.008629441 0.025442597 -0.019385489 -0.021089943 0.013749194 0.07507477 -0.08165391 -0.011141522
0.080193266 -0.06451465 0.06682868 0.09962673 0.07672246 -0.06490158 0.044054877 -0.06063278
0.0355285 0.015955247 -0.052106842 -0.034771588 -0.03476325 0.02541697 -0.03679623 -0.06637933
-0.08135549 0.009366311 -0.109168276 0.061995182 0.054509833 -0.07689249 -0.072739 0.0037705752
0.0067423787 0.022376215 0.05236864 0.023235686 0.09698147 -0.02157527 0.0048814933 0.10237349
0.027759379 0.021634234 -0.0966584 -0.03677174 0.019957066 0.047012802 0.045704585 0.032432057
0.038336705 0.07187513 -0.057703514 -0.13859388 -0.037818033 0.03187727 0.120826855 0.043479193
0.06497136 0.022490442 -0.023171863 -0.068303026 0.0032591862 -0.014917034 0.070383295 -0.09357161
0.14941522 0.051222913 0.06442884 0.15587981 0.048295736 0.043196816 0.027564632 -0.06386508
-0.016744724 -0.099848 -0.0066614673 -0.005099976 -0.017457398 0.015781263 0.08227749 0.03979424
-0.0058104787 0.015273538 -0.0069304775 0.00019116001 -0.11283732 -0.0033728029 -0.08443188 -0.085133426
0.079330154 -0.009314617 0.03677796 0.045996886 0.040551115 0.004828751 0.003562565 0.09662246
-0.08547834 0.10043117 0.0009852188 0.013945212 0.07173887 0.056998547 0.027961912 0.026535608
0.124837816 0.059122074 -0.08587394 -0.050103668 0.042875282 0.16295163 -0.049517576 0.09485172
0.0052950713 -0.08266593 0.0869865 0.028482916 -0.0641648 -0.006469814 -0.018893665 -0.015912194
0.09440101 -0.123023175 -0.091827475 0.022381105 -0.19954512 0.06363869 0.10765693 0.06351392
00000000: 7534 513d b78d febd 61da 08bd 105c ce3a
00000010: 1ff0 f23d f5ab 64bd 49ee a83d 90de b8bd
00000020: 2b96 5abd 8eea 183e 2e36 78bd b427 81bd
00000030: 739a 8bbd 2990 003d 952a a2bd 81a5 ee3c
00000040: 099c 7a3d d3be 30bd 499b be3d f061 ac3d
00000050: 4a41 4f3d c196 8c3d 5bbd f83c 6f4f 3b3c
00000060: 4e32 8d3d 6298 a63c ed3b 193c 4c92 0a3e
00000070: fdc4 bf3d 8f5c 4fbd 92b6 83bd 1ebd 88bb
00000080: 30c9 3b3d 99da 7d3d 8013 0ebd c97f 45bd
00000090: e3ad 113d 3a4a 763d b7b5 33bd 2809 1fbd
000000a0: 8960 ebbd d5f7 a6bd 49e7 a63d 929d 2f3d
000000b0: 8dc2 023d 2180 383d f632 d6bd 4a1d 913c
000000c0: 1b6b 50bd f773 f13c 5aa0 413e a76d 473e
000000d0: 2ea1 8b3c 0908 60bd 97a4 433b ba44 b53c
000000e0: 69a2 b7bc 6cdf e83c 101a 233e 25d8 4ebd
000000f0: c8e1 c7bd ad33 c63d e350 8f3d 42a4 ed3d
00000100: 8d75 84bd 57be c6bc d773 7fbc b881 bbbd
00000110: 88e8 2d3d 7946 c13d c3fc c53d 0307 7abd
00000120: b6b9 fdbd ddd3 3d3e 56e9 d1bd 4ad2 023e
00000130: 28fc d5ba 1629 22bd 03c3 9b3d 2479 413d
00000140: 3999 05bb 4a78 aebd 5940 a33c b289 21bb
00000150: c568 143e c240 0f3e dd0e 233d 7481 cfbc
00000160: 9649 0cbc 97f9 fd3d b214 72bd 49bc 11be
00000170: cbec e2ba 74f6 e43c 17f2 943d c822 e43c
00000180: baa9 733c 1417 b2bc db14 61bd b8d0 ac3c
00000190: bea5 aaba 8c22 11bc ecd4 023e a454 123d
000001a0: 03b3 00be 8233 3c3c ef07 4f3d 1183 7b3c
000001b0: d278 413d 9d29 1ebe ee82 443d 683b adbd
000001c0: 04f1 c83d dc57 163d 2236 2abd 5cb7 40bd
000001d0: 88d7 07ba c43a 63bd c407 ddbd 6860 fbbc
000001e0: fe92 c0bd 93d7 243e 7896 db3d fdcb 883c
000001f0: 24ad 323e a57c d03d ff57 64bd e790 f93c
00000200: 8062 0dbc fe6c d03c 51ce 9ebc d1c4 acbc
00000210: 4d44 613c cdc0 993d 2a3a a7bd ee8a 36bc
00000220: 5e3c a43d 4220 84bd 7add 883d 1909 cc3d
00000230: aa20 9d3d 1feb 84bd e372 343d 145a 78bd
00000240: 5586 113d 94b4 823c fc6d 55bd a76c 0ebd
00000250: e963 0ebd 4037 d03c a5b7 16bd e3f1 87bd
00000260: b59d a6bd 2875 193c 9e93 dfbd a9ee 7d3d
00000270: b445 5f3d cf79 9dbd 2ff8 94bd c11b 773b
00000280: 2cef dc3b 534e b73c 8080 563d c458 be3c
00000290: 399e c63d 9fbe b0bc eff4 9f3b 31a9 d13d
000002a0: a367 e33c 473a b13c d7f4 c5bd f79d 16bd
000002b0: 007d a33c 7f90 403d bb34 3b3d 7ad7 043d
000002c0: f306 1d3d 4533 933d 855a 6cbd 8eeb 0dbe
000002d0: 15e7 1abd be91 023d 1274 f73d 3d17 323d
000002e0: b40f 853d e03d b83c ebd2 bdbc 75e2 8bbd
000002f0: 1298 553b 9366 74bc 1e25 903d 79a2 bfbd
00000300: 4e00 193e 1ecf 513d 45f3 833d f59e 1f3e
00000310: c0d1 453d 25ef 303d 39cf e13c b2cb 82bd
00000320: 3b2c 89bc 1c7d ccbd 7048 dabb b31d a7bb
00000330: d102 8fbc b547 813c 1a81 a83d 49ff 223d
00000340: d465 bebb dd3d 7a3c 0f19 e3bb 2072 4839
00000350: 4117 e7bd 3e0a 5dbb 9fea acbd 6f5a aebd
00000360: d977 a23d 569c 18bc 7ca4 163d 3b67 3c3d
00000370: ed18 263d 803a 9e3b ec79 693b ffe1 c53d
00000380: 450f afbd dbae cd3d 7522 813a 757a 643c
00000390: d4eb 923d 4f77 693d 6110 e53c 3461 d93c
000003a0: f8aa ff3d fd29 723d adde afbd 8139 4dbd
000003b0: fe9d 2f3d cbdc 263e f1d2 4abd 9e41 c23d
000003c0: 4782 ad3b c14c a9bd fa25 b23d 0155 e93c
000003d0: d668 83bd bc00 d4bb e3c6 9abc 4a5a 82bc
000003e0: 5155 c13d 93f3 fbbd 0b10 bcbd 9458 b73c
000003f0: 8e55 4cbe 0055 823d 3d7b dc3d 9613 823d

fc2.bias f4 [128]
0.02268297 -0.07614479 0.033697546 -0.0065702796 0.07481891 -0.060124297 0.07090478 -0.012730993
-0.058600612 -0.06363369 0.054730922 -0.068180494 -0.013127817 -0.03923883 0.08761771 -0.026542284
0.022758853 -0.06996311 -0.055978525 0.037565134 0.030605564 0.09534484 -0.00092273066 -0.0070630824
0.07894151 0.006159404 -0.06843932 0.029547542 -0.04289323 0.018835962 0.053990092 0.057746425
0.08475398 -0.036239896 -0.051256787 0.021785079 -0.014631629 -0.017333375 -0.08814468 0.06921216
-0.026066057 -0.07877563 -0.011437043 -0.008236805 0.039972633 0.068635486 -0.0006667402 -0.04416043
-0.04664904 -0.07623937 -0.026232162 0.07184898 0.025007728 0.04652033 0.06039417 0.049969304
-0.033818893 -0.011141395 0.043994628 0.008737797 0.03915151 0.053145654 -0.08318401 -0.030250108
0.06410362 0.08566764 0.0038079037 -0.0318224 -0.08742409 -0.0034084844 0.026873436 -0.055546243
-0.05747807 0.046717823 0.07361417 -0.030282687 0.028023295 0.0661354 0.0652266 0.0717705
-0.09526317 0.068610705 -0.08591354 -0.003777273 0.018706972 0.03740675 -0.023545321 0.09105417
0.014355488 0.044674307 0.01581273 -0.10286585 -0.027306363 -0.051926475 -0.046487797 0.05761229
0.03560285 0.024172135 0.03179873 0.038751535 -0.034992583 -0.0120993955 -0.05422747 -0.052420102
0.02378495 0.027173027 0.02754334 -0.021292573 0.038660873 0.09305352 0.04968847 -0.06333393
0.04929539 -0.009661848 0.048660103 0.06695928 -0.04491437 -0.00663385 -0.00032443428 0.09053492
-0.021787412 0.011800394 0.014385379 -0.03398789 -0.059321743 0.1066061 0.07209363 0.04286521
00000000: a3d1 b93c cdf1 9bbd 7006 0a3d 804b d7bb
00000010: a83a 993d e544 76bd 8636 913d a895 50bc
00000020: 3207 70bd 6152 82bd 882d 603d 37a2 8bbd
00000030: 0e16 57bc e5b8 20bd ea70 b33d 346f d9bc
00000040: c670 ba3c d248 8fbd bd49 65bd e6dd 193d
00000050: 85b8 fa3c 2844 c33d 68e3 71ba 6e71 e7bb
00000060: 16ac a13d d3d4 c93b ea29 8cbd b00d f23c
00000070: d0b0 2fbd e04d 9a3c b724 5d3d 8487 6c3d
00000080: 7f93 ad3d 4970 14bd a3f2 51bd 9f76 b23c
00000090: 80b9 6fbc b9fe 8dbc 3385 b4bd 1bbf 8d3d
000000a0: 7c88 d5bc 1e55 a1bd 6f62 3bbc aaf3 06bc
000000b0: 58ba 233d c390 8c3d 2dc8 2eba 91e1 34bd
000000c0: 1013 3fbd 6323 9cbd d5e4 d6bc 8f25 933d
000000d0: 02dd cc3c 1a8c 3e3d e15f 773d 9dac 4c3d
000000e0: ae85 0abd 668a 36bc b633 343d fa28 0f3c
000000f0: 555d 203d 42af 593d 615c aabd 13cf f7bc
00000100: c248 833d 8472 af3d 068e 793b 3458 02bd
00000110: 670b b3bd e160 5fbb ae25 dc3c 7584 63bd
00000120: 206e 6bbd 305b 3f3d 07c3 963d 6613 f8bc
00000130: 1c91 e53c ff71 873d 8695 853d 69fc 923d
00000140: 5619 c3bd c583 8c3d 70f3 afbd 208c 77bb
00000150: 5d3f 993c d237 193d 1ee2 c0bc 9c7a ba3d
00000160: 4833 6b3c 68fc 363d b389 813c 55ab d2bd
00000170: 98b1 dfbc dbb0 54bd fd69 3ebd ddfa 6b3d
00000180: 4bd4 113d a404 c63c 633f 023d eeb9 1e3d
00000190: 6254 0fbd 8b3c 46bc a01d 5ebd 76b6 56bd
000001a0: a8d8 c23c f899 de3c 92a2 e13c c36d aebc
000001b0: dd5a 1e3d d892 be3d 2386 4b3d 38b5 81bd
000001c0: f6e9 493d ba4c 1ebc d14f 473d f221 893d
000001d0: 21f8 37bd c460 d9bb d518 aab9 5f6a b93d
000001e0: 847b b2bc 7156 413c a7b0 6b3c e336 0bbd
000001f0: 5bfb 72bd 4d54 da3d d3a5 933d 6e93 2f3d

prob.weight f4 [2, 128]
0.06810034 -0.10519003 0.14038882 0.1321021 0.13863976 -0.093858086 -0.078369476 -0.07695682
0.08323978 0.074200496 -0.081884034 0.022840966 0.056266107 -0.1282214 0.005628133 -0.105866164
0.028521689 -0.02799133 0.037041005 0.0032390058 0.14455797 0.14334863 0.025825463 0.10986332
-0.105298735 0.06802284 0.063410245 -0.021884816 0.06553734 0.059008375 -0.14113829 -0.05190353
0.05725721 -0.07564455 0.06907941 0.07981948 -0.023799475 0.120870754 -0.039427698 0.04523538
-0.12482284 0.047702145 0.0017900057 -0.07467463 0.10727148 0.14187929 -0.07117935 -0.124206364
0.079591274 0.031820975 0.032756712 -0.11452996 -0.057531644 -0.07155912 -0.04154289 -0.08235107
-0.019230425 0.063878454 -0.022102147 -0.012004081 0.06057357 0.09345414 -0.084561236 -0.10443373
-0.13371402 -0.114911005 -0.010125818 0.11637342 -0.027488923 0.01629007 -0.04929677 0.016557552
0.040035587 -0.08044343 -0.15662345 -0.024094068 -0.095271826 -0.12056733 0.009460428 -0.103015065
-0.06042479 -0.0010712519 -0.033867233 -0.025261544 -0.11201493 0.09976041 -0.07256628 0.16115224
-0.016831657 0.12074349 -0.13209882 0.05783675 0.12972617 0.07055894 -0.011514458 0.03471679
0.16446704 0.033423103 0.13209312 -0.04393594 -0.0014564873 0.06085869 -0.040458128 0.10569756
-0.008716066 0.04127503 -0.11749721 -0.08985273 0.016907025 -0.0030048161 -0.07380347 0.07246974
-0.081444934 -0.009869773 0.10229511 0.11710426 -0.064621255 0.004877591 0.048974823 -0.17312415
0.04258672 0.027400214 -0.010441836 0.008480534 -0.011458092 0.15714192 -0.031427886 -0.08632727
-0.06820872 0.009961182 -0.06972312 -0.15303499 -0.0695665 0.0030959179 0.06510152 0.045959078
-0.1158961 -0.035448387 -0.050862968 -0.15483202 -0.00606618 0.01401061 -0.1492179 0.15114427
0.033723578 0.0253927 -0.018191662 0.01001367 -0.10379911 0.010373176 0.041906543 0.017273137
0.032663178 -0.106266074 -0.054535903 0.15840138 0.03454943 0.07023974 0.09581929 0.15211296
-0.093812294 0.11566391 -0.13579267 -0.04398973 0.09650668 -0.0917602 -0.04509675 -0.07703822
0.13668261 -0.057257123 0.0037107745 -0.039945796 -0.03440848 0.011262128 0.045578755 0.13577351
-0.073378615 0.04496288 0.11677354 0.072185285 0.09697401 0.070895426 0.0024618283 0.14698763
0.011490494 -0.0717618 -0.003689386 -0.07628221 -0.0023200049 -0.15247941 0.01704435 0.1426072
0.035453156 0.03349346 0.04311881 -0.11867818 0.087305725 -0.046795383 0.049676944 0.021416154
-0.03338975 0.042506196 0.0737259 0.08845913 0.07691119 0.1608674 -0.078746565 0.016422741
-0.0025639301 0.10399019 -0.0359794 0.0084868595 0.030091582 -0.11827 0.10155706 -0.004529719
-0.015837755 -0.08941203 0.11794251 0.0600065 -0.019391727 -0.047173683 0.030203264 0.05832562
-0.0066505363 -0.006689556 -0.052045483 -0.043072276 -0.02190677 -0.004487974 -0.041132204 -0.04444299
0.10534792 -0.059621602 0.06510583 0.085020885 -0.112704754 -0.11679018 0.07516574 -0.023627872
0.12091496 -0.010293728 -0.080301575 0.0045167524 0.09121806 0.052125406 0.052969776 0.07204775
0.05952493 -0.02327869 -0.0025257305 -0.00031985343 0.16691847 -0.07601389 0.10165449 -0.05906461
00000000: 3178 8b3d df6d d7bd 16c2 0f3e c645 073e
00000010: 95f7 0d3e ab38 c0bd 2d80 a0bd 8a9b 9dbd
00000020: 9e79 aa3d 6ef6 973d d1b2 a7bd fa1c bb3c
00000030: 4a77 663d 784c 03be 346c b83b 5cd0 d8bd
00000040: 51a6 e93c 134e e5bc 4fb8 173d 8045 543b
00000050: 0107 143e fcc9 123e ec8f d33c 0500 e13d
00000060: dda6 d7bd 8f4f 8b3d 3bdd 813d c947 b3bc
00000070: 7138 863d c4b2 713d 8e86 10be cc98 54bd
00000080: 8986 6a3d 88eb 9abd 8179 8d3d 6578 a33d
00000090: 1ef7 c2bc 168b f73d f07e 21bd bc48 393d
000000a0: 1ea3 ffbd 5363 433d a09e ea3a 03ef 98bd
000000b0: 26b1 db3d ce48 113e 7bc6 91bd e85f febd
000000c0: c000 a33d b656 023d e72b 063d af8e eabd
000000d0: 4da6 6bbd 978d 92bd e128 2abd aea7 a8bd
000000e0: 2089 9dbc b5d2 823d 900f b5bc c4ac 44bc
000000f0: fe1b 783d e264 bf3d 712e adbd 5ae1 d5bd
00000100: 54ec 08be 7656 ebbd c2e6 25bc 3055 ee3d
00000110: 7330 e1bc c172 853c 69eb 49bd b4a3 873c
00000120: 5bfc 233d 86bf a4bd e661 20be ec60 c5bc
00000130: e01d c3bd 01ec f6bd e9ff 1a3c 90f9 d2bd
00000140: fc7f 77bd 4069 8cba 5eb8 0abd 4cf1 cebc
00000150: 1568 e5bd 304f cc3d a19d 94bd 1805 253e
00000160: 8be2 89bc 5d48 f73d ea44 07be 3ae6 6c3d
00000170: f0d6 043e 3581 903d 23a7 3cbc 3133 0e3d
00000180: 0c6a 283e aae6 083d 6b43 073e 2cf6 33bd
00000190: 9be7 beba f646 793d 6cb7 25bd f677 d83d
000001a0: d5cd 0ebc 0110 293d 61a2 f0bd b504 b8bd
000001b0: 9a80 8a3c 73ec 44bb 4626 97bd 046b 943d
000001c0: 9acc a6bd d4b4 21bc 1980 d13d 5cd4 ef3d
000001d0: 2658 84bd 33d4 9f3b d399 483d 7547 31be
000001e0: 6a6f 2e3d 6a76 e03c 3c14 2bbc f0f1 0a3c
000001f0: b9ba 3bbc d0e9 203e 87ba 00bd 5acc b0bd
00000200: 03b1 8bbd 3a34 233c ffca 8ebd 34b5 1cbe
00000210: e278 8ebd e2e4 4a3b f253 853d 963f 3c3d
00000220: ef5a edbd 5432 11bd b055 50bd 498c 1ebe
00000230: cec6 c6bb c28c 653c 94cc 18be 90c5 1a3e
00000240: bc21 0a3d 5a04 d03c ae06 95bc 6010 243c
00000250: a194 d4bd 41f4 293c 32a6 2b3d 6580 8d3c
00000260: d3c9 053d 07a2 d9bd 0a61 5fbd f933 223e
00000270: b483 0d3d dad9 8f3d e73c c43d 80c3 1b3e
00000280: a920 c0bd 33e1 ec3d 3c0d 0bbe 932e 34bd
00000290: 4ba5 c53d c6ec bbbd 5fb7 38bd 37c6 9dbd
000002a0: 87f6 0b3e 7286 6abd 7730 733b 349e 23bd
000002b0: e8ef 0cbd ca84 383c cab0 3a3d 3608 0b3e
000002c0: 8747 96bd ff2a 383d f726 ef3d e1d5 933d
000002d0: 4f9a c63d 9f31 913d a056 213b ed83 163e
000002e0: a042 3c3c daf7 92bd a0c9 71bb d939 9cbd
000002f0: 390b 18bb 9023 1cbe 98a0 8b3c 9f07 123e
00000300: 5437 113d 7030 093d 599d 303d 8c0d f3bd
00000310: 58cd b23d 84ac 3fbd 0d7a 4b3d ee70 af3c
00000320: b1c3 08bd fa1a 2e3d 9bfd 963d 0f2a b53d
00000330: 9d83 9d3d 6cba 243e e145 a1bd fc88 863c
00000340: 9c07 28bb cff8 d43d 235f 13bd 780c 0b3c
00000350: 9f82 f63c 8b37 f2bd 26fd cf3d 096e 94bb
00000360: 2ebe 81bc a81d b7bd d88b f13d 60c9 753d
00000370: 66db 9ebc 3139 41bd d66c f73c d8e6 6e3d
00000380: beec d9bb 1034 dbbb a52d 55bd 8e6c 30bd
00000390: d475 b3bc db0f 93bb 3e7a 28bd da09 36bd
000003a0: a6c0 d73d c835 74bd 3556 853d 6e1f ae3d
000003b0: c0d1 e6bd b12f efbd 7ff0 993d 3d8f c1bc
000003c0: 43a2 f73d 06a7 28bc 2775 a4bd 4401 943b
000003d0: 89d0 ba3d 7381 553d d6f6 583d c58d 933d
000003e0: 6ad0 733d f4b2 bebc ba86 25bb 00b2 a7b9
000003f0: adec 2a3e 2cad 9bbd 3b30 d03d bced 71bd

prob.bias f4 [2]
0.03739151 -0.082511276
00000000: d727 193d acfb a8bd
