RLIntro/Reinforce/checkpoints/Reinforce_discrete/Reinforce_policy_1200.pth (torch_old, 70658 bytes, 6 tensors)

fc1.weight f4 [128, 4]
0	0xbe5940e5	-0.21216162
1	0xbec36c4e	-0.38168567
2	0xbd394c8b	-0.045239013
3	0x3bbf2680	0.005833447
4	0x3e7e9e4e	0.24865076
5	0x3cc096f1	0.023509474
6	0x3e5b4bfd	0.21415706
7	0x3da3aae2	0.07991578
8	0x3dd9bf0f	0.10632145
9	0xbb923bac	-0.00446268
10	0xbe52572f	-0.2054107
11	0xbba250ec	-0.0049534943
12	0x3e406072	0.18786791
13	0xbeb066e1	-0.3445349
14	0xbe6730e8	-0.2257725
15	0x3e9b2113	0.3029867
16	0xbe93a95b	-0.28840145
17	0xbe509dc1	-0.20372678
18	0x3e8dfd95	0.2773253
19	0xbea70507	-0.32621023
20	0x3ea61bca	0.32443076
21	0x3eb06e92	0.34459358
22	0xbd2c6f32	-0.04209823
23	0xbea8417e	-0.32862467
24	0x3ef1cd3a	0.47226888
25	0x3e5716b6	0.21004757
26	0xbe509b5c	-0.20371765
27	0xbf0d334e	-0.5515641
28	0x3e212b66	0.15739211
29	0x3ece02e7	0.4023659
30	0x3f0ee05b	0.5581109
31	0x3e248a9c	0.160685
32	0x3e76f906	0.24118432
33	0x3db00655	0.08594958
34	0xbee06535	-0.43827215
35	0x3cb7d4db	0.022440365
36	0xbd470763	-0.04859103
37	0xbdd9b14c	-0.1062952
38	0xbea86958	-0.3289287
39	0xbeff7cfc	-0.49900043
40	0x3eb3dcea	0.35129482
41	0x3e05a45c	0.1305098
42	0x3e294074	0.16528493
43	0x3f06b9ff	0.5262756
44	0x3ec5aa4a	0.38606483
45	0xbe641160	-0.22272253
46	0x3e9ca0ac	0.30591333
47	0x3eb5dda7	0.3552067
48	0xbed8a488	-0.42313027
49	0xbe829970	-0.2550769
50	0xbe8b2cb5	-0.27182546
51	0x3e6cbda9	0.23119225
52	0xbedc167c	-0.42985904
53	0xbbbee093	-0.005825111
54	0x3d479c8a	0.04873327
55	0xbc19803a	-0.0093689505
56	0xbe80169f	-0.2501726
57	0xbea8f677	-0.33000538
58	0x3f18e689	0.5972677
59	0x3d8dc871	0.06922997
60	0x3df47230	0.11935842
61	0xbeb551e0	-0.35414028
62	0xbde7f956	-0.11326854
63	0xbe2b3ef9	-0.16723241
64	0xbed62350	-0.41823816
65	0xbf07e85e	-0.5308894
66	0xbea02f3a	-0.3128603
67	0xbef98f5b	-0.48742184
68	0x3e239e28	0.159783
69	0xbe1d5db4	-0.15367776
70	0x3e83f42a	0.2577222
71	0xbea8a9e2	-0.3294211
72	0xbeafca78	-0.3433416
73	0xbdaa3bb5	-0.083121695
74	0xbe20e0cf	-0.15710758
75	0xbef9246a	-0.48660594
76	0x3dfb16fc	0.12260243
77	0xbe325844	-0.17416483
78	0xbf2023f9	-0.6255489
79	0xbe92818e	-0.28614467
80	0x3d9066e6	0.07050876
81	0x3ecf7fbb	0.40527138
82	0xbeb4b70f	-0.35295913
83	0x3d248a99	0.04017124
84	0x3e53d196	0.2068542
85	0xbdb9f021	-0.09079004
86	0xbf0b21c6	-0.5434841
87	0xbef2539b	-0.4732941
88	0xbee0a5c4	-0.4387647
89	0x3e7ba8da	0.2457613
90	0xbed8cab2	-0.42342144
91	0xbefe5895	-0.49676958
92	0xbeba87d5	-0.36431757
93	0xbe4d310a	-0.20038238
94	0xbf1c93b7	-0.61162895
95	0xbea6d348	-0.3258307
96	0xbe10e443	-0.14149575
97	0xbed82c5e	-0.4222135
98	0x3c8a593e	0.016888257
99	0x3e160560	0.14650488
100	0xbddce182	-0.107852
101	0x3e08269e	0.13295981
102	0x3e884b64	0.26620018
103	0x3d1b6d6b	0.037946146
104	0xbe41ccc9	-0.18925776
105	0xbd0d2104	-0.034455314
106	0xbf000791	-0.50011545
107	0xbeeddb5a	-0.46456414
108	0x3e55cef2	0.20879725
109	0xbdbc9770	-0.09208572
110	0xbec0c582	-0.37650687
111	0xbed88588	-0.42289376
112	0xbe8666e5	-0.26250377
113	0x3e90721c	0.2821206
114	0xbd11bd9e	-0.035581224
115	0xbef5aaaa	-0.4798177
116	0xbe82fc71	-0.25583223
117	0xbd83db1d	-0.06438277
118	0xbd611add	-0.05495726
119	0xbdda8bab	-0.10671171
120	0x3e8d0ac4	0.27547276
121	0x3d826ac5	0.06368021
122	0xbe1f1595	-0.15535577
123	0xbe104e76	-0.1409243
124	0x3e741b8e	0.23838636
125	0x3ea44a63	0.32088003
126	0xbddf0f5e	-0.10891603
127	0xbefa09e9	-0.48835686
128	0xbe26953b	-0.16267864
129	0xbe9961a1	-0.29957297
130	0xbea2af6d	-0.31774464
131	0x3cd8c4fb	0.026461115
132	0xbed8465f	-0.4224119
133	0x3ebdf795	0.37102953
134	0xbeb0a05b	-0.34497342
135	0xbdb4b2be	-0.08823155
136	0x3dda4b8d	0.106589414
137	0x3e8f2ec3	0.27965364
138	0xbf0a1f10	-0.5395365
139	0xbd551f5b	-0.052031856
140	0xbdcaccc2	-0.09902336
141	0x3ebba90e	0.36652416
142	0x3e0d21b7	0.13782392
143	0xbebf03ca	-0.37307578
144	0x3ed1e533	0.40995178
145	0xbeb61e15	-0.35569826
146	0xbecf4a57	-0.40486404
147	0x3e783eee	0.24242756
148	0xbeb37bd9	-0.35055426
149	0xbe1c2cc4	-0.15251452
150	0x3f25cc5f	0.6476497
151	0x3e8a6274	0.2702824
152	0x3e495bbe	0.19663903
153	0x3ea53fca	0.3227523
154	0x3e4f34d0	0.2023499
155	0x3ec0c66a	0.37651378
156	0x3ebfda02	0.37471014
157	0x3dac8a1f	0.08424782
158	0x3debfd88	0.115229666
159	0x3e63639d	0.22205968
160	0x3eabd908	0.3356402
161	0x3eca0488	0.39456582
162	0x3ee2d370	0.4430194
163	0x3ed2c295	0.4116408
164	0xbde88c4e	-0.11354886
165	0x3ee19193	0.44056377
166	0x3ed8aa6e	0.42317528
167	0x3ec97e31	0.3935409
168	0x3e215c89	0.15757956
169	0x3e9c994a	0.305857
170	0xbee8cb35	-0.45467535
171	0xbe5d66c6	-0.21621236
172	0xbe062681	-0.13100626
173	0xbe1e2c41	-0.15446569
174	0x3efb2258	0.4904964
175	0x3ef1d12b	0.47229895
176	0xbe7b6458	-0.24549997
177	0xbe89da76	-0.26924485
178	0x3e60a637	0.21938406
179	0xbe9a1d39	-0.3010042
180	0x3ea00b32	0.3125854
181	0x3e8135e9	0.25236443
182	0xbd5bd2f2	-0.05366797
183	0x3edc759a	0.43058473
184	0xbe35487e	-0.17703435
185	0x3eb976c7	0.36223432
186	0x3f19e237	0.601108
187	0x3d81fa12	0.06346525
188	0x3edaa33b	0.4270266
189	0xbe94b53d	-0.29044524
190	0x3d6dbe64	0.0580429
191	0x3f0515cf	0.519864
192	0x3e96f8cb	0.2948669
193	0xbef1db8e	-0.4723782
194	0xbeac9f91	-0.3371549
195	0x3e2fb22c	0.17157811
196	0xbe7e1b64	-0.24815136
197	0x3ef55b84	0.47921383
198	0x3e56bd55	0.20970662
199	0x3eafc0e7	0.3432686
200	0x3e204503	0.15651326
201	0xbe8aac5b	-0.27084622
202	0xbe93a980	-0.28840256
203	0xbf03b03a	-0.51440775
204	0x3eba87b0	0.36431646
205	0xbeaa5924	-0.33271134
206	0xbeff7568	-0.4989426
207	0xbe8209fe	-0.25398248
208	0x3ea8cae3	0.3296729
209	0xbdbdb63d	-0.09263275
210	0x3dda07fd	0.10646055
211	0x3e11484e	0.14187738
212	0x3d942b5e	0.07234834
213	0x3ec4d1bd	0.38441268
214	0x3f0a2e4f	0.5397691
215	0xbdc3d1c0	-0.09561491
216	0x3ef998fe	0.48749536
217	0x3ede0513	0.43363246
218	0xbe9ef01b	-0.3104256
219	0x3ee08de5	0.43858257
220	0xbebe8f85	-0.37218872
221	0xbe231f8a	-0.1593
222	0xbea130f3	-0.31482658
223	0xbe2e57ea	-0.17025724
224	0xbdd20780	-0.10255337
225	0x3ebc0b3e	0.36727327
226	0xbeb75ad8	-0.35811496
227	0xbe8ef819	-0.27923658
228	0xbe2cac45	-0.1686259
229	0x3df8a512	0.1214086
230	0x3d806b1a	0.06270428
231	0xbf08ca05	-0.5343326
232	0xbe5a312e	-0.21307823
233	0xbeebf592	-0.46085793
234	0xbeeaeca2	-0.45883662
235	0xbed8aa57	-0.4231746
236	0xbeb786a5	-0.35844913
237	0xbe1b48b0	-0.15164447
238	0xbe89ff41	-0.26952556
239	0x3f0e35cf	0.55550855
240	0xbede232a	-0.43386203
241	0x3e578701	0.21047594
242	0x3f088991	0.5333491
243	0x3e77baa2	0.24192289
244	0xbef9a600	-0.4875946
245	0x3eafe1a7	0.34351847
246	0xbe0689e0	-0.13138533
247	0xbe5f0027	-0.21777402
248	0x3eae97cb	0.34100184
249	0x3e8ec1bc	0.27882183
250	0x3da8ca50	0.08241713
251	0xbe867ff9	-0.2626951
252	0x3d1702d3	0.036867928
253	0xbed6f064	-0.41980278
254	0xbea76ebc	-0.3270167
255	0x3e2bc80c	0.1677553

fc1.bias f4 [128]
0	0xbe8a780e	-0.2704472
1	0xbe2c19ab	-0.16806667
2	0xbe107e03	-0.1411057
3	0xbeb80701	-0.35942844
4	0x3ed48d00	0.41513824
5	0x3e2ea0a6	0.1705347
6	0xbe031785	-0.1280194
7	0xbe63c79d	-0.22244115
8	0x3e78fe15	0.24315675
9	0x3eb7d8e4	0.35907662
10	0xbec84f1b	-0.39122853
11	0x3da57863	0.080796026
12	0xbdf107cf	-0.117690675
13	0xbe91b6dc	-0.28459823
14	0x3e07e909	0.1327249
15	0x3ec428e0	0.38312435
16	0xbd2029db	-0.039102416
17	0xbef2cdca	-0.4742263
18	0x3e696c2d	0.22795172
19	0x3eae9ea2	0.34105402
20	0xbe913691	-0.28361943
21	0x3ec6d39f	0.3883333
22	0x3ebb4ee8	0.36583638
23	0x3ea33c69	0.31882027
24	0xbe64a375	-0.22327979
25	0xbe831fe5	-0.2561027
26	0x3ecf5987	0.4049799
27	0x3ed45efa	0.4147871
28	0xbc82dbb2	-0.0159739
29	0xbe9bb9ef	-0.30415294
30	0x3e205c74	0.15660268
31	0x3c4d45b4	0.012528826
32	0xbe622627	-0.22084866
33	0x3e1100bb	0.14160435
34	0x3aafa641	0.0013400988
35	0x3eb096f5	0.3449017
36	0xbed4e3f1	-0.41580155
37	0x3ed47104	0.41492474
38	0x3e9849fa	0.2974394
39	0xbdf4fc11	-0.1196214
40	0xbeb0274e	-0.34404987
41	0x3d8c1bcf	0.068412416
42	0x3e8c7f47	0.27440855
43	0xbe286992	-0.16446522
44	0xbe50aa65	-0.203775
45	0x3f02e714	0.5113385
46	0xbc6f6d5e	-0.0146134775
47	0x3e926ab1	0.28597024
48	0x3d8a6415	0.067573704
49	0x3ebb9a91	0.36641362
50	0xbedfee1e	-0.43736356
51	0x3e00e145	0.12585934
52	0x3ee55100	0.4478836
53	0x3e505738	0.20345771
54	0xbe8f3aee	-0.27974647
55	0x3e9042c4	0.28175938
56	0xbddcc54c	-0.10779819
57	0x3e0527c2	0.13003448
58	0xbea83690	-0.32854128
59	0x3ee18c53	0.4405237
60	0x3db3faca	0.087880686
61	0xbe5af9ff	-0.21384428
62	0x3ed7d76d	0.42156544
63	0x3e7843ee	0.24244663
64	0xbd8a99ec	-0.067676395
65	0x3c78c3d2	0.015183406
66	0x3eee2707	0.4651415
67	0xbdc9ac71	-0.09847344
68	0x3ebc698e	0.36799282
69	0x3e2ec2c3	0.17066483
70	0x3e73165b	0.23738997
71	0xbeda4d8c	-0.4263729
72	0x3d9ef5be	0.07761715
73	0x3e314a56	0.17313513
74	0xbd91350d	-0.07090197
75	0xbeb1c37e	-0.3471946
76	0x3e6a9d62	0.229116
77	0xbed74cb4	-0.42050707
78	0xbeda0418	-0.42581248
79	0xbe88534a	-0.26626045
80	0x3e5e0f15	0.21685441
81	0x3e8db8b1	0.2767997
82	0x3ea71b25	0.32637897
83	0xbd732b36	-0.05936738
84	0x3e2ba582	0.16762355
85	0x3da13399	0.078711696
86	0x3d5ff65e	0.054678313
87	0x3ee5e38b	0.44900164
88	0xbeed4721	-0.4634333
89	0xbeb849f8	-0.35993934
90	0x3e6a3ab5	0.22873957
91	0xbd64eb15	-0.055888254
92	0x3c46ba86	0.012129432
93	0xbe8f66da	-0.28008157
94	0xbe0bea41	-0.1366358
95	0x3e66ef68	0.22552264
96	0xbebacc7a	-0.36484128
97	0x3e563308	0.20917904
98	0x3e4e0a2a	0.20121065
99	0x3bbb0acc	0.005708074
100	0xbed9eeef	-0.42565104
101	0xbd7aa308	-0.061190635
102	0xbe108139	-0.14111795
103	0x3ed7a2b6	0.42116326
104	0xbe38a412	-0.18031338
105	0xbe72edbc	-0.23723501
106	0xbee08e53	-0.43858585
107	0xbea116b3	-0.3146263
108	0xbe5d8362	-0.2163215
109	0x3d87be06	0.06628041
110	0x3e752e56	0.23943457
111	0xbe2e3eba	-0.17016116
112	0xbea0b3ca	-0.31387168
113	0xbed9855d	-0.4248456
114	0x3d88513a	0.06656118
115	0x3f00b14b	0.5027053
116	0x3e18f87c	0.1493854
117	0xbe093c3b	-0.13401882
118	0xbe59db01	-0.2127495
119	0x3e6bda84	0.23032576
120	0x3f007f94	0.5019467
121	0xbd9df263	-0.07712247
122	0x3db7f185	0.08981613
123	0xbda5902b	-0.080841385
124	0x3d2f1d99	0.042752836
125	0x3e8d0713	0.2754446
126	0x3e3db575	0.18526252
127	0xbd16937f	-0.036761757

fc2.weight f4 [128, 128]
0	0x3d4e1e14	0.050321653
1	0xbdac5167	-0.08413964
2	0xbd3ff0d7	-0.046860542
3	0x3cbfec84	0.02342821
4	0x3dc29d9c	0.09502718
5	0xbd6fa693	-0.058508467
6	0x3daa248b	0.08307751
7	0xbd82f314	-0.0639402
8	0xbd8163ac	-0.06317839
9	0x3df65b66	0.120291516
10	0xbc9c2626	-0.01906116
11	0xbd384d41	-0.04499555
12	0xbd808763	-0.06275823
13	0x3d15ba2b	0.036554497
14	0xbdb79000	-0.08963013
15	0x3bdf59cc	0.0068161245
16	0x3d5af60b	0.0534573
17	0xbd30bed3	-0.043150734
18	0x3d8676b6	0.06565611
19	0x3d65cdcd	0.05610447
20	0x3d6e15d7	0.058126297
21	0x3d2f5a33	0.04281063
22	0x3c28fc8b	0.010314117
23	0xbcbc57dd	-0.022991115
24	0x3d90096f	0.07033049
25	0x3ca69862	0.020336334
26	0xbc97e9c4	-0.018544085
27	0x3de5c6ab	0.112195335
28	0x3dc7fdf3	0.09765234
29	0xbd4a2e82	-0.04936076
30	0xbd9589a3	-0.07301643
31	0xbae41efe	-0.0017404256
32	0x3d35e307	0.044405963
33	0x3d6e21f0	0.058137834
34	0xbd02d49c	-0.03194104
35	0xbd77843e	-0.06042885
36	0x3da74b6b	0.08168682
37	0x3d4e7459	0.050403927
38	0xbd18e6d5	-0.037329514
39	0xbb537553	-0.0032265976
40	0xbde96fe9	-0.11398298
41	0xbd3a6b81	-0.04551268
42	0x3d8c3374	0.068457514
43	0x3d81706f	0.06320273
44	0x3d06ded6	0.032927357
45	0x3d30cb13	0.043162417
46	0xbd74326c	-0.0596184
47	0x3ca490dc	0.020088606
48	0xbd269b83	-0.04067565
49	0x3ce45250	0.02787128
50	0x3dfdfa53	0.12401261
51	0x3e2ea320	0.17054415
52	0x3c0dc34f	0.008652522
53	0xbd5c01a0	-0.053712487
54	0x3c3f2308	0.011666067
55	0xbbebce13	-0.007196197
56	0xbc1b1e47	-0.009467668
57	0x3c9d9896	0.019237798
58	0x3e241ccd	0.16026612
59	0xbd7a3722	-0.061087735
60	0xbdb0aa49	-0.08626229
61	0x3dd8088f	0.105485074
62	0x3d7a76fc	0.06114863
63	0x3dd4c990	0.103900075
64	0xbc87fb55	-0.016599337
65	0xbc63f7ce	-0.013914062
66	0xbc9210f9	-0.017830359
67	0xbd557599	-0.052114103
68	0x3cc5a736	0.024127584
69	0x3da8b0da	0.08236857
70	0x3da8c0f0	0.08239925
71	0xbd87d1ad	-0.06631789
72	0xbdfb5848	-0.12272698
73	0x3e0c3c75	0.13694938
74	0xbdb044ca	-0.086068705
75	0x3e0ac177	0.13550363
76	0xbcce4f75	-0.025184372
77	0xbd0a09a6	-0.033700608
78	0x3d9bc303	0.07605555
79	0x3dacd18a	0.08438404
80	0xbbaf3523	-0.0053469106
81	0xbdb4802b	-0.088135086
82	0x3c556d6b	0.013026576
83	0x3cd1e530	0.02562198
84	0x3de97b5e	0.114004835
85	0x3db8e411	0.09027875
86	0x3d2cec60	0.042217612
87	0xbd1c3241	-0.038133863
88	0x3c4db592	0.012555497
89	0x3e003fee	0.12524387
90	0xbd8a5444	-0.06754354
91	0xbdf80afa	-0.121114686
92	0xbbef15a8	-0.007296283
93	0x3cd6370b	0.026149293
94	0x3d91ff84	0.07128814
95	0x3d1336d3	0.035940956
96	0x3b7d36c5	0.0038637382
97	0xbc90b231	-0.017663093
98	0xbd5b6917	-0.05356702
99	0x3cf28b9d	0.029607588
100	0xbbf1a703	-0.0073746457
101	0xbcf9413a	-0.03042661
102	0x3e044cff	0.12919997
103	0x3d126d1e	0.035748594
104	0xbdac7859	-0.08421392
105	0x3cb77080	0.022392511
106	0x3d54d713	0.051962923
107	0x3c6a3145	0.014293973
108	0x3cd0147c	0.025400393
109	0xbdfd850b	-0.123788916
110	0x3d323c24	0.043514386
111	0xbd02ba45	-0.03191592
112	0x3dcf26b1	0.10114802
113	0x3cec4b1f	0.028844414
114	0xbd02f0de	-0.03196799
115	0xbd7516cc	-0.059836194
116	0xbb350c68	-0.0027625803
117	0xbcb7b3aa	-0.022424538
118	0xbd9ed029	-0.07754547
119	0xbd486d09	-0.04893211
120	0xbdd38ce4	-0.10329607
121	0x3e12d224	0.14337975
122	0x3dc75e52	0.09734787
123	0x3d48eee9	0.049055967
124	0x3de35a4e	0.111012086
125	0x3db10057	0.08642643
126	0xbd49e047	-0.049286153
127	0x3d49c1ec	0.049257204
128	0xbbe72a4d	-0.007054603
129	0xbc040533	-0.00805788
130	0xbbb46eba	-0.0055063637
131	0xbd1df131	-0.038560096
132	0x3d154d25	0.036450524
133	0x3da58c68	0.08083421
134	0xbda061d1	-0.07831157
135	0xbd104ffa	-0.03523252
136	0x3dbb065c	0.09132072
137	0xbd13ec44	-0.036113992
138	0x3ced7eb5	0.028991083
139	0x3daa5c20	0.08318353
140	0x3d9170e6	0.07101612
141	0xbd8eb97b	-0.06968971
142	0x3d5a1b62	0.05324877
143	0xbd222deb	-0.039594572
144	0x3d275036	0.04084798
145	0x3c82b494	0.015955247
146	0xbcd3e1cd	-0.025864506
147	0xbbfeb646	-0.0077731935
148	0xbd2611df	-0.040544387
149	0x3d5227ed	0.051307607
150	0xbc8233c9	-0.015893834
151	0xbd10f505	-0.03538992
152	0xbda7dfc5	-0.081969775
153	0x3c197528	0.009366311
154	0xbda7935b	-0.08182403
155	0x3daf0741	0.085463054
156	0x3d5de20c	0.054170653
157	0xbd9f67d0	-0.077834725
158	0xbd7df390	-0.061999857
159	0x3bb4194e	0.0054961806
160	0x3c1aa5c0	0.009438932
161	0x3cef4031	0.029205414
162	0x3d5a2568	0.05325833
163	0x3d1b5726	0.037924908
164	0x3d6c0270	0.057619512
165	0xbc42ad28	-0.011882104
166	0x3a6d4e8c	0.0009052537
167	0x3d8e9af1	0.069631465
168	0x3ce9dd63	0.028547948
169	0xbc2c23db	-0.0105065955
170	0xbda6b3a9	-0.08139736
171	0xbd7147f5	-0.058906514
172	0x3c9b64bb	0.01896893
173	0x3d4f4e3d	0.050611723
174	0x3ba5f79c	0.0050649177
175	0x3cf97927	0.030453278
176	0x3ce801e0	0.028321207
177	0x3d9b869f	0.07594036
178	0xbbaff614	-0.005369911
179	0xbdef1ee6	-0.11675815
180	0xbcea0d5b	-0.028570822
181	0x3d0fa191	0.03506619
182	0x3dee8730	0.11646879
183	0x3d8f5f6c	0.07000622
184	0x3d6962f6	0.056979142
185	0x3d0924bf	0.03348231
186	0xbcc0fa04	-0.023556717
187	0xbd6fe7ce	-0.058570676
188	0xbbb25541	-0.005442292
189	0xbca497fb	-0.020092001
190	0x3da75d75	0.081721224
191	0xbda9917e	-0.082797036
192	0x3dcd22bc	0.10016391
193	0x3d2a6122	0.04159654
194	0x3d8e3bc3	0.069449924
195	0x3def3468	0.116799176
196	0x3d86f645	0.06589941
197	0x3d6b11b0	0.057389915
198	0x3d24ef82	0.040267475
199	0xbd730773	-0.059333276
200	0xbc8ddf6c	-0.01731845
201	0xbd6c5053	-0.05769379
202	0xbc954e4a	-0.018225808
203	0xbc08f53c	-0.00835925
204	0x3b9fa72b	0.004872223
205	0x3c45c6e0	0.012071341
206	0x3da8811a	0.08227749
207	0x3bfee392	0.0077785933
208	0x3a3835b0	0.0007027043
209	0x3caeb8d3	0.021328365
210	0xb9ba9157	-0.0003558497
211	0xbcbc65a3	-0.022997683
212	0xbdaae80c	-0.08345041
213	0x3d1da49e	0.03848707
214	0xbdabb9fb	-0.08385082
215	0xbd8ff157	-0.07028454
216	0x3d75a064	0.059967414
217	0xbc1b6aaa	-0.00948588
218	0x3d3d375a	0.046195365
219	0x3cb4c823	0.022068089
220	0x3d48d2fd	0.04902934
221	0x3bda15dd	0.0066554383
222	0x3b9509d7	0.004548292
223	0x3dbde4be	0.09272145
224	0xbd94b4e4	-0.07261065
225	0x3dc66fb8	0.096892774
226	0x3b4f15b7	0.0031598636
227	0x3c1659b2	0.0091766585
228	0x3d9c7174	0.07638827
229	0x3d97a175	0.07403842
230	0x3cf78405	0.030214319
231	0x3cef7432	0.02923021
232	0x3d8a25f1	0.06745518
233	0x3d55cd9f	0.05219805
234	0xbdb1d1c2	-0.08682586
235	0xbd4bd131	-0.049760047
236	0x3d7ed90b	0.062218707
237	0x3e0c051d	0.13673826
238	0xbd304495	-0.043034155
239	0x3d2bdde1	0.041959647
240	0x3b4c2655	0.0031150777
241	0xbd93cbf3	-0.072166346
242	0x3da08975	0.07838718
243	0x3d2f8251	0.04284889
244	0xbd7ed457	-0.06221422
245	0xbd131ee9	-0.03591815
246	0xbd465f18	-0.048430532
247	0x39517408	0.00019975018
248	0x3dd76355	0.10516993
249	0xbdd68d5b	-0.1047618
250	0xbdaaba81	-0.08336354
251	0xbc008440	-0.007844031
252	0xbe184b89	-0.14872564
253	0x3da0eb8b	0.07857426
254	0x3dd7f9e1	0.105457075
255	0x3d40f200	0.04710579

fc2.bias f4 [128]
0	0x3c051878	0.00812351
1	0xbd79a259	-0.060945842
2	0x3c9ace67	0.018897248
3	0xbcaa4bbc	-0.020788066
4	0x3d774023	0.0603639
5	0xbd46a95d	-0.04850136
6	0x3daf48a5	0.08558778
7	0xbc5095a8	-0.012730993
8	0xbd97554b	-0.07389315
9	0xbda37926	-0.079820916
10	0x3d5f1979	0.054467652
11	0xbdab552b	-0.08365854
12	0xbc57160e	-0.013127817
13	0xbcc295c6	-0.023753058
14	0x3d96a7a8	0.07356197
15	0xbc4a84f5	-0.012360801
16	0x3cba70c6	0.022758853
17	0xbd8f48d2	-0.06996311
18	0xbd60bb9b	-0.054866415
19	0x3d19dde6	0.037565134
20	0x3c812293	0.015763557
21	0x3da24c42	0.07924701
22	0x3b6b0f47	0.003586726
23	0xbcbb8105	-0.02288867
24	0x3dc2b159	0.09506483
25	0xbbf4e3e0	-0.007473454
26	0xbd8c29ea	-0.06843932
27	0x3d2ded88	0.042462856
28	0xbd2c1714	-0.042014197
29	0x3c9a4de0	0.018835962
30	0x3d8c841b	0.068611346
31	0x3d940c86	0.07228951
32	0x3d8ccad1	0.06874622
33	0xbcb8aa65	-0.022542188
34	0xbd875bd6	-0.06609313
35	0x3c11f366	0.008908128
36	0xba1b3006	-0.0005919937
37	0xbd04ca25	-0.032419343
38	0xbdb48533	-0.08814468
39	0x3d56de26	0.05245795
40	0xbc49f0af	-0.01232545
41	0xbda1551e	-0.07877563
42	0xbc2ebe06	-0.010665422
43	0xbc06f3aa	-0.008236805
44	0x3cd12543	0.025530463
45	0x3d5b11d3	0.053483795
46	0xba2ec82d	-0.0006667402
47	0xbd00d36a	-0.03145162
48	0xbd746c40	-0.059673548
49	0xbd9c2363	-0.07623937
50	0xbccf13d0	-0.025278002
51	0x3db11c3c	0.086479634
52	0x3d144bc4	0.03620507
53	0x3d7cf1f3	0.06175418
54	0x3d958ca7	0.07302218
55	0x3d7f52e8	0.062334925
56	0xbd0a85ae	-0.033818893
57	0xbccd1683	-0.025035148
58	0x3d3433b6	0.043994628
59	0x3c0f28fa	0.008737797
60	0x3d205d55	0.03915151
61	0x3d291cef	0.04128736
62	0xbdaa5c61	-0.08318401
63	0xbc84f277	-0.016228897
64	0x3d9e4cfd	0.07729528
65	0x3dce5a9e	0.100758776
66	0x3b798e06	0.0038079037
67	0xbd42df2c	-0.047576115
68	0xbdb30b67	-0.08742409
69	0xbb5f60e1	-0.0034084844
70	0x3d292b47	0.041301038
71	0xbd638475	-0.055546243
72	0xbd6b6e20	-0.05747807
73	0x3d83b7ba	0.064315274
74	0x3db318dc	0.08744976
75	0xbc927f6a	-0.017883021
76	0x3d2f021a	0.042726614
77	0x3da42a6c	0.08015904
78	0x3d41947b	0.047260743
79	0x3daf3092	0.08554186
80	0xbdc23092	-0.0948192
81	0x3dad26b7	0.0845465
82	0xbdadbdce	-0.08483468
83	0xbb778c20	-0.003777273
84	0x3d0a88d4	0.033821896
85	0x3cc9bfda	0.024627615
86	0xbc32f124	-0.01092175
87	0x3d9c26ea	0.0762461
88	0x3c6b3348	0.014355488
89	0x3cf7b3d6	0.03023712
90	0x3cf3938d	0.029733444
91	0xbdb359d7	-0.0875737
92	0xbd2fc174	-0.0429091
93	0xbd54b0db	-0.051926475
94	0xbd3e69fd	-0.046487797
95	0x3d688230	0.05676478
96	0x3caa45b2	0.020785186
97	0x3cc604a4	0.024172135
98	0x3c91f662	0.01781768
99	0x3d201216	0.039079748
100	0xbd0f5462	-0.034992583
101	0xbc463c8b	-0.0120993955
102	0xbd5e1da0	-0.05422747
103	0xbd8d0971	-0.068865664
104	0x3d1925aa	0.037389435
105	0x3cfe7653	0.03106228
106	0x3d2dc0ac	0.042420074
107	0xbbd8fb88	-0.0066217817
108	0x3cb68863	0.022281831
109	0x3d99f2f0	0.0751704
110	0x3d8477ac	0.06468138
111	0xbd81b538	-0.06333393
112	0x3d816d94	0.063197285
113	0xbc1e4a9a	-0.009661341
114	0x3d041722	0.032248624
115	0x3d5a4adc	0.053294048
116	0xbd04aaa4	-0.032389298
117	0xbbd960c4	-0.00663385
118	0xb9aa18d5	-0.00032443428
119	0x3dd6b09c	0.10482904
120	0xbcb27b84	-0.021787412
121	0x3c43778b	0.011930357
122	0x3c6bb0a7	0.014385379
123	0xbd0b36e3	-0.03398789
124	0xbd39088d	-0.04517417
125	0x3dbca9f3	0.09212103
126	0x3daf6b21	0.08565355
127	0x3d2f936e	0.04286521

prob.weight f4 [2, 128]
0	0x3d2790a9	0.040909443
1	0xbdbe8ad3	-0.09303822
2	0x3de088f9	0.109636255
3	0x3de009e7	0.10939389
4	0x3de4fc76	0.111809656
5	0xbd9c74fa	-0.07639499
6	0xbd8db2cf	-0.06918871
7	0xbd9d9b8a	-0.07695682
8	0x3d6957c1	0.056968454
9	0x3d84a5f5	0.06476966
10	0xbd99f955	-0.075182594
11	0xbb90f2b1	-0.0044234623
12	0x3d66774a	0.056266107
13	0xbdeeee55	-0.11666552
14	0xbc9d5dc8	-0.019209757
15	0xbdb6d790	-0.08927834
16	0x3ce9a651	0.028521689
17	0xbce54e13	-0.02799133
18	0x3d1875e0	0.03722179
19	0x3b544580	0.0032390058
20	0x3df4d80b	0.119552694
21	0x3deb9ab6	0.11504118
22	0x3c5e13fc	0.013554569
23	0x3dbbdf94	0.091735035
24	0xbdc2ed42	-0.095179096
25	0x3d06bf73	0.032897424
26	0x3d81dd3b	0.063410245
27	0xbbca25c0	-0.006169051
28	0x3d884e8b	0.06655606
29	0x3d71b2c4	0.059008375
30	0xbe01ee5c	-0.12688583
31	0xbd13ee6f	-0.03611606
32	0x3d0ad41b	0.033893686
33	0xbd82b058	-0.06381291
34	0x3d33ced6	0.043898426
35	0x3d753eff	0.05987453
36	0xbc91bf2a	-0.01779135
37	0x3dc308eb	0.09523185
38	0xbd217ef0	-0.039427698
39	0x3cc65dcc	0.024214648
40	0xbde466c9	-0.11152417
41	0x3d436353	0.047702145
42	0x3b08ba27	0.0020862909
43	0xbd98ef03	-0.07467463
44	0x3da8ee0a	0.08248527
45	0x3def8e6d	0.116970874
46	0xbd91c67b	-0.07117935
47	0xbdd871a8	-0.10568553
48	0x3d748b5d	0.05970322
49	0x3d0256b6	0.031820975
50	0x3d7e8892	0.062141962
51	0xbdd53bc4	-0.1041179
52	0xbd714731	-0.058905784
53	0xbd7b7cb6	-0.06139823
54	0xbd10fcb3	-0.035397243
55	0xbd8736d7	-0.06602257
56	0xbc9d8920	-0.019230425
57	0x3d3d2cd7	0.04618534
58	0xbcb50f90	-0.022102147
59	0xbc44acc4	-0.012004081
60	0x3d781bfe	0.06057357
61	0x3d7c65df	0.06162059
62	0xbdad2e71	-0.084561236
63	0xbdba359a	-0.09092255
64	0xbe01f926	-0.12692699
65	0xbdde3dde	-0.10851644
66	0xbc25e6c2	-0.010125818
67	0x3dc41156	0.09573619
68	0xbce13073	-0.027488923
69	0x3c8572c1	0.01629007
70	0xbd1badad	-0.038007427
71	0x3c87a3b4	0.016557552
72	0x3d23fc5b	0.040035587
73	0xbd9cb5da	-0.07651873
74	0xbe108577	-0.14113413
75	0xbc11450d	-0.008866561
76	0xbda84df1	-0.08217991
77	0xbddb66e8	-0.10712987
78	0xbc5d0f1d	-0.013492373
79	0xbdaddd4f	-0.08489477
80	0xbd836fa1	-0.06417776
81	0x3c0ff024	0.008785281
82	0xbd0854d0	-0.03328401
83	0xbccef14c	-0.025261544
84	0xbdcc8812	-0.09986891
85	0x3da14db0	0.07876146
86	0xbd7db154	-0.06193669
87	0x3e0a269b	0.1349129
88	0xbc89e28b	-0.016831657
89	0x3dc17406	0.09445958
90	0xbdf3575c	-0.11881897
91	0x3d95bd7b	0.07311531
92	0x3dd456ff	0.10368156
93	0x3d908135	0.07055894
94	0xbc3ca723	-0.011514458
95	0x3d22c0f0	0.03973478
96	0x3e0ee513	0.13954572
97	0x3d08e6aa	0.033423103
98	0x3de00941	0.10939265
99	0xbd317f0c	-0.043334052
100	0xbabee79b	-0.0014564873
101	0x3d7946f6	0.06085869
102	0xbd25b76c	-0.040458128
103	0x3da48e2c	0.0803493
104	0xbb5194d5	-0.003197958
105	0x3d37d382	0.044879444
106	0xbdd00612	-0.10157408
107	0xbda0999f	-0.07841801
108	0xbbb4b35a	-0.0055145444
109	0xbcf287ed	-0.02960583
110	0xbd836825	-0.06416348
111	0x3d946b04	0.07246974
112	0xbd91b438	-0.07114452
113	0xbc21b4cc	-0.0098697655
114	0x3da7c312	0.081915036
115	0x3dc24d76	0.09487431
116	0xbd4f67bc	-0.05063604
117	0x3b9fd433	0.004877591
118	0x3d4899d3	0.048974823
119	0xbe223ac8	-0.15842736
120	0x3d2e6f6a	0.04258672
121	0x3ce08613	0.027407682
122	0xbc2b143c	-0.010441836
123	0x3c0af1f0	0.008480534
124	0x3b8e3649	0.0043399674
125	0x3e03a730	0.12856746
126	0xbcab66fe	-0.020923134
127	0xbdb0cc5a	-0.08632727
128	0xbd28024f	-0.041017827
129	0xbb0f9103	-0.0021906502
130	0xbd1f9f56	-0.038970314
131	0xbe057464	-0.13032681
132	0xbd2f0c52	-0.04273636
133	0xbc6b6413	-0.014367121
134	0x3d650d1b	0.0559207
135	0x3d3c3f96	0.045959078
136	0xbdb78d32	-0.08962478
137	0xbcd522f2	-0.02601764
138	0xbd6bc875	-0.057564218
139	0xbe02a11a	-0.12756768
140	0xbbc6c6ce	-0.00606618
141	0x3b20dfbc	0.0024547419
142	0xbdfebae0	-0.12437987
143	0x3e09c92f	0.13455652
144	0x3d0a21bc	0.033723578
145	0x3cd0045a	0.0253927
146	0xbc9681ce	-0.018372443
147	0x3c241060	0.01001367
148	0xbda15e99	-0.07879371
149	0x3d1e6f49	0.03868035
150	0x3d5de92f	0.05417746
151	0x3d110109	0.035401378
152	0x3cb8ad26	0.022543501
153	0xbd91b234	-0.07114068
154	0xbd5f610a	-0.054535903
155	0x3e121c38	0.14268577
156	0x3d095774	0.033530667
157	0x3d8fd9da	0.07023974
158	0x3da70c93	0.08156695
159	0x3e0b98ec	0.13632554
160	0xbd904768	-0.0704487
161	0x3dd4a600	0.103832245
162	0xbde2884d	-0.110611536
163	0xbcc4f934	-0.02404461
164	0x3db95756	0.09049861
165	0xbd876aa3	-0.06612136
166	0xbd38b75f	-0.04509675
167	0xbd6572b2	-0.056017585
168	0x3dfcb0c0	0.123384
169	0xbd6a8672	-0.057257123
170	0x3b5fc5a2	0.0034144898
171	0xbd239e34	-0.039945796
172	0xbc1da687	-0.009622223
173	0x3d142797	0.03617057
174	0x3d3ab0ca	0.045578755
175	0x3df0222c	0.11725268
176	0xbd5b18ea	-0.053490557
177	0x3d382aff	0.04496288
178	0x3db2f8a3	0.0873883
179	0x3d7d05e5	0.0617732
180	0x3dc96ab7	0.09834807
181	0x3d78c4cd	0.06073456
182	0xbb716be8	-0.0036837999
183	0x3e05cb70	0.13065886
184	0x3c3c42a0	0.011490494
185	0xbd5d7732	-0.05406875
186	0xbb71c9a0	-0.003689386
187	0xbd9c39d9	-0.07628221
188	0xbb180b39	-0.0023200049
189	0xbdf71518	-0.1206457
190	0x3c8ba098	0.01704435
191	0x3e0431b6	0.12909588
192	0x3cead545	0.028666148
193	0x3cddfedb	0.027099064
194	0x3d309d59	0.04311881
195	0xbdc8c9ae	-0.09804092
196	0x3db2cd58	0.087305725
197	0xbd3fac84	-0.046795383
198	0x3d1d3c52	0.038387604
199	0x3caf70ee	0.021416154
200	0xbd08c3b1	-0.03338975
201	0x3d1e07a3	0.0385815
202	0x3d6e8957	0.058236446
203	0x3d95fa89	0.073231764
204	0x3d82b3ad	0.06381927
205	0x3e16f7cf	0.14742969
206	0xbd6487f7	-0.05579373
207	0xbade80b1	-0.0016975609
208	0x3a9bd7c2	0.0011889862
209	0x3dc0c92d	0.09413371
210	0xbd15c2b1	-0.036562625
211	0x3c0b0c78	0.0084868595
212	0x3c930271	0.0179455
213	0xbdc735fe	-0.09727095
214	0x3dba3823	0.090927385
215	0x3cb1d7ad	0.021709288
216	0xbc81be2e	-0.015837755
217	0xbd814940	-0.063127995
218	0x3dd65945	0.104662456
219	0x3d3734a6	0.044727944
220	0x3bda0151	0.006652989
221	0xbd413931	-0.047173683
222	0x3cf76cd6	0.030203264
223	0x3d5a5920	0.053307652
224	0x3c95ace7	0.018270923
225	0xbbdb3410	-0.006689556
226	0xbcf064c4	-0.029344924
227	0xbd32e3ae	-0.043674164
228	0xbcb375d4	-0.02190677
229	0xbb930fdb	-0.004487974
230	0xbd287a3e	-0.041132204
231	0xbc9c6c54	-0.019094624
232	0x3dcc73a4	0.09982994
233	0xbd817ca4	-0.063226014
234	0x3d497397	0.0491825
235	0x3d96b45a	0.07358618
236	0xbdb8e659	-0.0902831
237	0xbdb8b52d	-0.090189315
238	0x3d863266	0.065525815
239	0xbcc18f3d	-0.023627872
240	0x3de289df	0.11061453
241	0xbc28a70e	-0.010293735
242	0xbd75704b	-0.059921544
243	0x3cdb1b75	0.026746491
244	0x3d9e2c56	0.077233
245	0x3d558173	0.052125406
246	0x3d58f6d6	0.052969776
247	0x3d6ae8c9	0.057350907
248	0x3d73d06a	0.05952493
249	0xbcbec29d	-0.023286158
250	0xbb2586ba	-0.0025257305
251	0xb9a7b200	-0.00031985343
252	0x3e1abf3a	0.1511201
253	0xbd425009	-0.04743961
254	0x3dbaacb0	0.09114969
255	0xbd71edbc	-0.05906461

prob.bias f4 [2]
0	0x3cc50ed5	0.024054924
1	0xbd8dab5b	-0.06917449
