RLIntro/Reinforce/checkpoints/Reinforce_discrete/Reinforce_policy_900.pth (torch_old, 70658 bytes, 6 tensors)

fc1.weight f4 [128, 4]
-0.23841149 -0.39464492 0.012711524 0.013350533 0.25072515 0.023756169 0.21165738 0.08259871
0.10632145 -0.00446268 -0.2054107 -0.0049534943 0.18550651 -0.3495639 -0.23431365 0.3074579
-0.29089 -0.20314041 0.30249122 -0.32705757 0.32673433 0.34446377 -0.040188197 -0.3266707
0.47366786 0.21047151 -0.19686653 -0.5521911 0.16277246 0.40321395 0.55209386 0.16198654
0.244097 0.088056035 -0.43341053 0.018804241 -0.0503931 -0.10320693 -0.30236313 -0.5009206
0.3535388 0.12925094 0.163067 0.5321836 0.38724774 -0.2263142 0.2851024 0.35889506
-0.43399566 -0.26167336 -0.24627104 0.24101098 -0.44403568 -0.017705837 0.09408044 0.0033509997
-0.24840572 -0.33456483 0.5754884 0.06913329 0.11765873 -0.35392088 -0.08704224 -0.16620837
-0.42772302 -0.52454966 -0.26145256 -0.48977253 0.159783 -0.15367776 0.2577222 -0.3294211
-0.34301645 -0.08691014 -0.13225155 -0.4766833 0.12113571 -0.1717396 -0.597545 -0.28595194
0.07265179 0.40556687 -0.3641692 0.041212253 0.20810746 -0.08640955 -0.5198759 -0.47554326
-0.4367274 0.24501963 -0.40500352 -0.49050206 -0.3666168 -0.19817899 -0.5788289 -0.32455713
-0.15554173 -0.42338026 0.062199466 0.14420621 -0.10886134 0.13675192 0.268101 0.03494524
-0.19175245 -0.030898295 -0.47165465 -0.46694073 0.21032411 -0.087249264 -0.35257265 -0.42624325
-0.26449543 0.28193405 -0.024369672 -0.477655 -0.26134506 -0.07576968 -0.033244602 -0.08901529
0.2800305 0.068369724 -0.15295804 -0.14498073 0.24080686 0.32130787 -0.11055588 -0.49103075
-0.17627063 -0.30369848 -0.2779917 0.028068623 -0.4256653 0.37650704 -0.34530678 -0.10973753
0.10751594 0.28066695 -0.5418986 -0.058152992 -0.09758756 0.37059346 0.11979771 -0.3881822
0.40362883 -0.32731193 -0.3576356 0.20875154 -0.34944826 -0.15779914 0.6192698 0.27079657
0.19906987 0.3198568 0.17077848 0.37741444 0.37542465 0.08504332 0.10843496 0.22141492
0.33729646 0.39422944 0.4412933 0.41465965 -0.09988441 0.44562045 0.39975303 0.3933862
0.16058914 0.31039062 -0.44949448 -0.22018254 -0.116896585 -0.15768552 0.4537917 0.4827136
-0.25466073 -0.28608745 0.25851846 -0.26696724 0.31598946 0.24935217 -0.086558916 0.42971984
-0.16863705 0.36915696 0.57987076 0.05818261 0.4315742 -0.29331088 0.029194167 0.5209998
0.30162406 -0.4646873 -0.3019212 0.16937691 -0.24548906 0.47632098 0.17642659 0.342064
0.15648592 -0.27180862 -0.28644043 -0.5093898 0.36579207 -0.32263356 -0.47702372 -0.26355904
0.3332675 -0.09613164 0.07192943 0.14076068 0.06950635 0.38672805 0.51963884 -0.105757095
0.49271122 0.43545356 -0.320329 0.4434396 -0.37457243 -0.15731888 -0.2804909 -0.16870895
-0.10312934 0.36538324 -0.34645528 -0.27642772 -0.16689709 0.12316515 0.07748849 -0.5337068
-0.21748295 -0.4572755 -0.43049613 -0.42610896 -0.35689238 -0.15421936 -0.29330158 0.55498993
-0.43151563 0.2056815 0.5054235 0.24242167 -0.49113655 0.34597695 -0.111514784 -0.22026464
0.3393178 0.27835438 0.070759945 -0.26743165 0.03183603 -0.42211133 -0.29294533 0.17426634
00000000: 2422 74be e60e cabe ff43 503c 32bc 5a3c
00000010: 0c5f 803e 4c9c c23c b6bc 583e 8329 a93d
00000020: 0fbf d93d ac3b 92bb 2f57 52be ec50 a2bb
00000030: 6bf5 3d3e 0afa b2be ebef 6fbe 1f6b 9d3e
00000040: 89ef 94be 0a04 50be 21e0 9a3e 1774 a7be
00000050: b949 a73e 8e5d b03e 619c 24bd 6241 a7be
00000060: 9884 f23e d885 573e 6197 49be 655c 0dbf
00000070: d3ad 263e 0f72 ce3e 0656 0d3f cddf 253e
00000080: 90f4 793e b956 b43d fce7 ddbe 5a0b 9a3c
00000090: ff68 4ebd 285e d3bd 57cf 9abe 553c 00bf
000000a0: 0a03 b53e 5c5a 043e 09fb 263e 2f3d 083f
000000b0: 5645 c63e e9be 67be f1f8 913e 18c1 b73e
000000c0: ae34 debe 0dfa 85be 7a2e 7cbe 95cb 763e
000000d0: a558 e3be d50b 91bc 3fad c03d 729c 5b3b
000000e0: 125e 7ebe 154c abbe 3553 133f c195 8d3d
000000f0: 0ff7 f03d 1e35 b5be 3443 b2bd 8732 2abe
00000100: 83fe dabe e348 06bf 1cdd 85be 77c3 fabe
00000110: 289e 233e b45d 1dbe 2af4 833e e2a9 a8be
00000120: da9f afbe f2fd b1bd f36c 07be d50f f4be
00000130: 0016 f83d 81dc 2fbe b6f8 18bf 4b68 92be
00000140: 76ca 943d 76a6 cf3e 6374 babe 2ece 283d
00000150: 1f1a 553e 7df7 b0bd 9616 05bf 687a f3be
00000160: bc9a dfbe 6de6 7a3e 9f5c cfbe 1623 fbbe
00000170: 32b5 bbbe 6fef 4abe 212e 14bf 5a2c a6be
00000180: 5546 1fbe 4cc5 d8be dec4 7e3d cbaa 133e
00000190: b2f2 debd b208 0c3e 8944 893e bd22 0f3d
000001a0: c15a 44be 6c1e fdbc b87c f1be db12 efbe
000001b0: 345f 573e beaf b2bd 6784 b4be 8e3c dabe
000001c0: f26b 87be a959 903e e8a2 c7bc 328f f4be
000001d0: 05cf 85be 222d 9bbd 7e2b 08bd a64d b6bd
000001e0: 2860 8f3e 6d05 8c3d 08a1 1cbe d475 14be
000001f0: 1396 763e 7782 a43e 1f6b e2bd 6268 fbbe
00000200: 4a80 34be 5e7e 9bbe ee54 8ebe 2bf0 e53c
00000210: cdf0 d9be 88c5 c03e 0dcc b0be 12be e0bd
00000220: 5131 dc3d 94b3 8f3e deb9 0abf d531 6ebd
00000230: fddb c7bd 6dbe bd3e 8058 f53d d1bf c6be
00000240: 70a8 ce3e 6e95 a7be 031c b7be f7c2 553e
00000250: e2ea b2be 1996 21be 7788 1e3f d9a5 8a3e
00000260: f9d8 4b3e 45c4 a33e 8ee0 2e3e 773c c13e
00000270: a937 c03e 312b ae3d 2613 de3d 98ba 623e
00000280: 1fb2 ac3e 71d8 c93e 32f1 e13e 454e d43e
00000290: 3390 ccbd 5d28 e43e 6eac cc3e ea69 c93e
000002a0: 7b71 243e 85eb 9e3e 2424 e6be 8877 61be
000002b0: 7a67 efbd 5078 21be 6357 e83e 3d26 f73e
000002c0: e462 82be 0e7a 92be 885c 843e eeaf 88be
000002d0: 5fc9 a13e 2d56 7f3e cd45 b1bd 3d04 dc3e
000002e0: 31af 2cbe 2402 bd3e 6972 143f e350 6e3d
000002f0: 4bf7 dc3e d82c 96be 9b28 ef3c 3e60 053f
00000300: 786e 9a3e 7eeb edbe 6a95 9abe 2471 2d3e
00000310: 7c61 7bbe 58e0 f33e 2ca9 343e 0323 af3e
00000320: d83d 203e 802a 8bbe 52a8 92be 5f67 02bf
00000330: 1949 bb3e 3a30 a5be 743c f4be 36f1 86be
00000340: 0aa2 aa3e aae0 c4bd bd4f 933d 9123 103e
00000350: 5859 8e3d 3801 c63e 0d07 053f 2d97 d8bd
00000360: a544 fc3e c5f3 de3e 2a02 a4be 840a e33e
00000370: f5c7 bfbe 3318 21be 819c 8fbe 0ac2 2cbe
00000380: 7a35 d3bd 8313 bb3e 9662 b1be ef87 8dbe
00000390: 12e7 2abe 033e fc3d 49b2 9e3d 02a1 08bf
000003a0: dab3 5ebe 0420 eabe fd69 dcbe f42a dabe
000003b0: 99ba b6be aeeb 1dbe a02b 96be d213 0e3f
000003c0: 9eef dcbe 2c9e 523e 6f63 013f 633d 783e
000003d0: 4076 fbbe e423 b13e dd61 e4bd 0e8d 61be
000003e0: 10bb ad3e 7784 8e3e 97ea 903d cdec 88be
000003f0: 7f66 023d fa1e d8be eefc 95be e072 323e

fc1.bias f4 [128]
-0.24860412 -0.16542457 -0.1411057 -0.35760203 0.42157748 0.17674127 -0.12339691 -0.21989068
0.2479189 0.36239418 -0.38623455 0.07915879 -0.10788585 -0.27134275 0.13121554 0.38909882
-0.04353456 -0.4742263 0.23768899 0.34462798 -0.2828096 0.39087182 0.37323388 0.32437256
-0.22538587 -0.25333554 0.40831593 0.41739202 -0.018691259 -0.30037707 0.15689069 0.02028032
-0.2123436 0.1501031 0.00983928 0.34361976 -0.4477059 0.4128606 0.29435852 -0.12327002
-0.3425175 0.05490348 0.27567667 -0.16096312 -0.2011609 0.50911224 -0.02021794 0.28497905
0.07767752 0.36385113 -0.43977985 0.13084725 0.44636008 0.19832441 -0.27343723 0.28826118
-0.11364295 0.1361462 -0.3298764 0.4395831 0.0835774 -0.2062024 0.42542368 0.24830842
-0.07028833 0.026629567 0.46170056 -0.08989376 0.37433374 0.17109084 0.24479558 -0.42302096
0.074839436 0.17639889 -0.06809369 -0.35221192 0.22992064 -0.41591838 -0.42581248 -0.25963458
0.21450756 0.2735973 0.32696334 -0.06167506 0.16785933 0.08466027 0.05619289 0.45047632
-0.45957178 -0.34791446 0.23091073 -0.067375325 0.021784676 -0.28396627 -0.13756037 0.21872354
-0.367637 0.2065344 0.19872454 0.002888335 -0.42539808 -0.051957924 -0.14183475 0.41900104
-0.18190263 -0.23773648 -0.43268856 -0.30684966 -0.2163215 0.05592913 0.23711246 -0.16369595
-0.31258187 -0.42480138 0.06529048 0.5014986 0.15339826 -0.13710225 -0.20666268 0.23851697
0.49957633 -0.08019396 0.08818554 -0.076530255 0.04232803 0.2851636 0.17661834 -0.03305213
00000000: 1492 7ebe 0f65 29be 037e 10be 9d17 b7be
00000010: 01d9 d73e aafb 343e 85b7 fcbd 062b 61be
00000020: 74de 7d3e bb8b b93e 89c0 c5be 011e a23d
00000030: 42f3 dcbd 70ed 8abe 5e5d 063e f637 c73e
00000040: 4b51 32bd cacd f2be be64 733e 1473 b03e
00000050: 6bcc 90be 5a20 c83e 8318 bf3e 2914 a63e
00000060: 8ecb 66be 32b5 81be c90e d13e 68b4 d53e
00000070: 691e 99bc 06cb 99be f4a7 203e ea22 a63c
00000080: 9a70 59be a1b4 193e ee34 213c eeee af3e
00000090: b539 e5be 7762 d33e 29b6 963e fe74 fcbd
000000a0: 745e afbe 79e2 603d 7e25 8d3e 84d3 24be
000000b0: 1ffd 4dbe 2e55 023f 18a0 a5bc c6e8 913e
000000c0: 6415 9f3d b24a ba3e d32a e1be d2fc 053e
000000d0: 4f89 e43e 8e15 4b3e f7ff 8bbe f896 933e
000000e0: a3bd e8bd e969 0b3e 8fe5 a8be 0911 e13e
000000f0: a12a ab3d b926 53be 22d1 d93e 9044 7e3e
00000100: 54f3 8fbd 4026 da3c 0464 ec3e 381a b8bd
00000110: aca8 bf3e 7032 2f3e b1ab 7a3e 3496 d8be
00000120: 6b45 993d e9a1 343e b474 8bbd 1f55 b4be
00000130: 5170 6b3e 41f3 d4be 1804 dabe d3ee 84be
00000140: dfa7 5b3e f214 8c3e bd67 a73e fd9e 7cbd
00000150: 51e3 2b3e 5d62 ad3d 842a 663d d5a4 e63e
00000160: fe4c ebbe d821 b2be dd73 6c3e 13fc 89bd
00000170: c775 b23c 0764 91be a0dc 0cbe 10f9 5f3e
00000180: eb3a bcbe c17d 533e 727e 4b3e 384a 3d3b
00000190: c7cd d9be d5d1 54bd 213d 11be 4e87 d63e
000001a0: af44 3abe 3171 73be 5b89 ddbe 661b 9dbe
000001b0: 6283 5dbe f215 653d 9ccd 723e e99f 27be
000001c0: bb0a a0be 917f d9be 04b7 853d 3662 003f
000001d0: 6f14 1d3e 8864 0cbe 629f 53be cb3d 743e
000001e0: 78c8 ff3e bb3c a4bd 9f9a b43d e5bb 9cbd
000001f0: 2860 2d3d f700 923e 70db 343e ac61 07bd

fc2.weight f4 [128, 128]
0.05505244 -0.08541444 -0.046860542 0.013113035 0.098417535 -0.055060744 0.08236164 -0.06459637
-0.061893526 0.121639475 -0.019188568 -0.045317136 -0.06209021 0.047093667 -0.08737244 0.007973764
0.050680734 -0.043150734 0.066671714 0.05551382 0.05646325 0.04354619 0.01110522 -0.02299422
0.07267395 0.015839394 -0.017316375 0.11344764 0.09513364 -0.04638244 -0.06875339 -0.0015671308
0.043927327 0.057986252 -0.03313845 -0.057845492 0.063364066 0.05433721 -0.033489868 -0.0063926023
-0.11448787 -0.042755216 0.07147551 0.06412781 0.03854212 0.045757186 -0.059261955 0.019570265
-0.045905948 0.032605972 0.12274188 0.16728951 0.0107747605 -0.049741685 0.008156995 -0.0060033114
-0.011873552 0.018521355 0.15758158 -0.060032792 -0.077014886 0.103900306 0.0644301 0.10304221
-0.019014621 -0.018707661 -0.013710679 -0.055854134 0.027684106 0.08352153 0.08226161 -0.06677044
-0.11724551 0.13416533 -0.08710529 0.1340231 -0.025628472 -0.044443004 0.07605555 0.07557265
-0.0016402943 -0.08375769 0.014375007 0.024735548 0.113638975 0.091659755 0.04298878 -0.034804452
-0.0011850902 0.12839016 -0.06548847 -0.115020886 -0.00407849 0.028784765 0.074382715 0.040765334
0.0027995105 -0.015444546 -0.050638817 0.027580032 -0.0073810443 -0.031103903 0.1244118 0.039398193
-0.06526636 0.018920556 0.054671668 0.018636985 0.025400393 -0.120889716 0.04801936 -0.042846687
0.101989664 0.028842874 -0.032560106 -0.055364914 -0.004310112 -0.023392104 -0.08172707 -0.047032136
-0.099453285 0.14047667 0.09467095 0.039893635 0.1042598 0.08791866 -0.046719246 0.04707414
-0.013891947 -0.0068181483 -0.0055063637 -0.027093833 0.031345576 0.07842078 -0.07648207 -0.034652423
0.090682924 -0.038028948 0.02914243 0.083618574 0.06640023 -0.08192809 0.047596127 -0.042183578
0.03959015 0.015955247 -0.02842439 -0.007829511 -0.038919866 0.05089661 -0.01745156 -0.03755261
-0.08641685 0.014033734 -0.08395607 0.084351234 0.05790248 -0.07972565 -0.06526591 0.0066572446
0.0068128617 0.028594468 0.05551474 0.035897214 0.07740126 -0.018549107 -0.0030114045 0.07250992
0.029042834 -0.0149898445 -0.08342174 -0.06280167 0.011152603 0.047735274 0.0046025384 0.030236844
0.03241297 0.069868445 -0.0043099565 -0.113027364 -0.031330645 0.03190816 0.11985411 0.066418804
0.061095685 0.034682307 -0.024964565 -0.06256708 -0.0180972 -0.017245006 0.079279706 -0.08432371
0.10067403 0.04317266 0.06573838 0.11977639 0.060162473 0.05618875 0.03830623 -0.05827476
-0.026719024 -0.05608678 -0.016422212 -0.0053611933 0.005853181 0.021593928 0.08227749 0.017488947
-0.003931398 0.016049556 -0.0044455384 -0.020888455 -0.08239363 0.03639352 -0.0849633 -0.07283441
0.07518208 -0.01513288 0.04460218 0.011824619 0.04697874 0.00063136034 -0.0017698264 0.08821409
-0.071585275 0.09252061 0.00011072778 0.011998705 0.07639456 0.07345603 0.036930673 0.025859082
0.047166668 0.057661213 -0.0928809 -0.0562492 0.062218707 0.1331987 -0.0491935 0.052755628
-0.00031551087 -0.07216488 0.0761403 0.037678137 -0.06440059 -0.035058316 -0.04588045 -0.0048980457
0.099695385 -0.100178294 -0.08022957 -3.7860824e-05 -0.14298044 0.075674385 0.103196524 0.04675237
00000000: ab7e 613d c4ed aebd d7f0 3fbd 0ed8 563c
00000010: 228f c93d 6087 61bd 38ad a83d 1a4b 84bd
00000020: 1184 7dbd 1e1e f93d 5831 9dbc 769e 39bd
00000030: 4e52 7ebd 4ae5 403d 52f0 b2bd 64a4 023c
00000040: 9a96 4f3d d3be 30bd 2e8b 883d 7662 633d
00000050: 0246 673d 7d5d 323d abf2 353c 605e bcbc
00000060: 14d6 943d 9ec1 813c 12db 8dbc 3c57 e83d
00000070: 6dd5 c23d 83fb 3dbd 94ce 8cbd 2f68 cdba
00000080: 24ed 333d fe82 6d3d 2fbc 07bd 65ef 6cbd
00000090: 05c5 813d b290 5e3d ac2c 09bd 0979 d1bb
000000a0: 9e78 eabd 1820 2fbd c161 923d 7155 833d
000000b0: 58de 1d3d e36b 3b3d aabc 72bd d251 a03c
000000c0: e007 3cbd d78d 053d 1860 fb3d f14d 2b3e
000000d0: 9f88 303c f0bd 4bbd eba4 053c 6db7 c4bb
000000e0: 4989 42bc 19ba 973c 115d 213e f2e4 75bd
000000f0: fbb9 9dbd afc9 d43d eef3 833d cb07 d33d
00000100: 8dc4 9bbc cf40 99bc c1a2 60bc 4ec7 64bd
00000110: c7c9 e23c 560d ab3d c678 a83d f1be 88bd
00000120: 6a1e f0bd a362 093e 4264 b2bd 5a3d 093e
00000130: cdf2 d1bc de09 36bd 03c3 9b3d d5c5 9a3d
00000140: 25ff d6ba 2789 abbd 2685 6b3c 34a2 ca3c
00000150: 8dbb e83d 1cb8 bb3d 0115 303d 1d8f 0ebd
00000160: 0755 9bba b678 033e d21e 86bd 1290 ebbd
00000170: dba4 85bb 07ce eb3c f755 983d 8df9 263d
00000180: fe77 373b 1f0b 7dbc a66a 4fbd 85ef e13c
00000190: b0dc f1bb 9dcd febc 9dcb fe3d 0060 213d
000001a0: 5faa 85bd 48ff 9a3c 66ef 5f3d 97ac 983c
000001b0: 7c14 d03c 0795 f7bd f3af 443d 0280 2fbd
000001c0: f5df d03d e447 ec3c bf5d 05bd 52c6 62bd
000001d0: d73b 8dbb cca0 bfbc 8660 a7bd c5a4 40bd
000001e0: 2aae cbbd 1ed9 0f3e d8e2 c13d 8267 233d
000001f0: 2986 d53d b30e b43d ae5c 3fbd d0d0 403d
00000200: 0d9b 63bc c66a dfbb ba6e b4bb e3f3 ddbc
00000210: 3864 003d 139b a03d a2a2 9cbd b3ef 0dbd
00000220: f8b7 b93d 3ec4 1bbd 1bbc ee3c 3740 ab3d
00000230: d8fc 873d eac9 a7bd 28f4 423d b0c8 2cbd
00000240: 4829 223d 94b4 823c 44da e8bc 5947 00bc
00000250: 706a 1fbd f778 503d 93f6 8ebc c4d0 19bd
00000260: 51fb b0bd bfed 653c 29f1 abbd 57c0 ac3d
00000270: 272b 6d3d 3447 a3bd 22aa 85bd 0425 da3b
00000280: 6d3e df3b f23e ea3c 6d63 633d f508 133d
00000290: 8d84 9e3d 4cf4 97bc fc5a 45bb 1580 943d
000002a0: 3deb ed3c f797 75bc 04d9 aabd 299e 80bd
000002b0: 68b9 363c 1086 433d e4d0 963b 42b3 f73c
000002c0: 76c3 043d 3017 8f3d 893a 8dbb e47a e7bd
000002d0: 9054 00bd 21b2 023d 1276 f53d 9506 883d
000002e0: 783f 7a3d 090f 0e3d 7d82 ccbc 2b23 80bd
000002f0: 9440 94bc 6645 8dbc 665d a23d e9b1 acbd
00000300: 302e ce3d d1d5 303d d8a1 863d 534d f53d
00000310: ed6c 763d 2d26 663d fee6 1c3d 84b1 6ebd
00000320: dbe1 dabc 40bb 65bd e087 86bc f3ac afbb
00000330: 0acc bf3b c0e5 b03c 1a81 a83d fb44 8f3c
00000340: f5d2 80bb 5c7a 833c e1ab 91bb 441e abbc
00000350: febd a8bd 5f11 153d 3d01 aebd 352a 95bd
00000360: 10f9 993d e6ef 77bc c7b0 363d 0cbc 413c
00000370: c76c 403d e081 253a 85f9 e7ba 97a9 b43d
00000380: 4d9b 92bd 727b bd3d 8636 e838 3796 443c
00000390: c074 9c3d 1d70 963d 9e44 173d 6dd6 d33c
000003a0: d631 413d 2a2e 6c3d 5738 bebd 9065 66bd
000003b0: 0bd9 7e3d 3d65 083e 207f 49bd 4916 583d
000003c0: 276b a5b9 2ecb 93bd 72ef 9b3d 6454 1a3d
000003d0: 75e4 83bd 4f99 0fbd 24ed 3bbd c97f a0bb
000003e0: 182d cc3d 472a cdbd 674f a4bd c0cc 1eb8
000003f0: 7769 12be 2cfb 9a3d b358 d33d 6a7f 3f3d

fc2.bias f4 [128]
0.010749529 -0.06475327 0.02204898 -0.017893746 0.06308599 -0.049018715 0.08282468 -0.012730993
-0.07083018 -0.08329839 0.060941838 -0.08051988 -0.013127817 -0.027346551 0.0763309 -0.0155496765
0.022758853 -0.06996311 -0.054866415 0.037565134 0.018380355 0.08238599 0.002722475 -0.021356614
0.09171122 -0.004168723 -0.06843932 0.0393818 -0.041624356 0.018835962 0.065302506 0.06862779
0.07237312 -0.025379257 -0.06285294 0.011762465 -0.0037330275 -0.029158551 -0.08814468 0.056273095
-0.015545924 -0.07877563 -0.009764546 -0.008236805 0.026981052 0.057197753 0.0011929044 -0.03251526
-0.055908356 -0.07623937 -0.018952584 0.08219451 0.03404404 0.058373835 0.0712497 0.059132088
-0.033818893 -0.022081094 0.043994628 0.008737797 0.03915151 0.044341266 -0.08318401 -0.020048603
0.07392703 0.09726227 0.0038079037 -0.04477076 -0.08742409 -0.0034084844 0.038056795 -0.055546243
-0.05747807 0.060691487 0.084083706 -0.020377055 0.039495688 0.0772799 0.05084727 0.08281263
-0.100401275 0.08154336 -0.084832974 -0.003777273 0.030519431 0.02736766 -0.014686489 0.07920613
0.014355488 0.032799814 0.027027348 -0.0875737 -0.0405544 -0.051926475 -0.046487797 0.06594662
0.023761408 0.024172135 0.021329192 0.039079748 -0.034992583 -0.0120993955 -0.05422747 -0.06618337
0.034219086 0.050695125 0.039008755 -0.00975387 0.025413765 0.078772075 0.06171991 -0.06333393
0.059697483 -0.009661341 0.03595811 0.056243896 -0.036219113 -0.00663385 -0.00032270953 0.10099951
-0.021787412 0.011930357 0.014385379 -0.03398789 -0.048651453 0.09565213 0.08287452 0.04286521
00000000: cb1e 303c 5d9d 84bd 10a0 b43c e895 92bc
00000010: 3a33 813d d9c7 48bd fc9f a93d a895 50bc
00000020: 6a0f 91bd 5998 aabd 269e 793d 9be7 a4bd
00000030: 0e16 57bc e005 e0bc 6053 9c3d 12c4 7ebc
00000040: c670 ba3c d248 8fbd 9bbb 60bd e6dd 193d
00000050: 6692 963c fcb9 a83d 8d6b 323b 11f4 aebc
00000060: 18d3 bb3d c899 88bb ea29 8cbd cf4e 213d
00000070: 4d7e 2abd e04d 9a3c 52bd 853d ba8c 8c3d
00000080: 5c38 943d 29e8 cfbc 0bb9 80bd 5bb7 403c
00000090: cfa5 74bb eadd eebc 3385 b4bd 9e7e 663d
000000a0: 55b4 7ebc 1e55 a1bd 79fb 1fbc aaf3 06bc
000000b0: 5e07 dd3c 3148 6a3d 3b5b 9c3a b92e 05bd
000000c0: 2900 65bd 6323 9cbd 7342 9bbc 9855 a83d
000000d0: c371 0b3d 6719 6f3d 5deb 913d 7d34 723d
000000e0: ae85 0abd 69e3 b4bc b633 343d fa28 0f3c
000000f0: 555d 203d 309f 353d 615c aabd f83c a4bc
00000100: 0e67 973d 7131 c73d 068e 793b 8b61 37bd
00000110: 670b b3bd e160 5fbb 71e1 1b3d 7584 63bd
00000120: 206e 6bbd a397 783d 1434 ac3d c8ed a6bc
00000130: 3bc6 213d ed44 9e3d 3a45 503d ab99 a93d
00000140: 2f9f cdbd 3500 a73d e9bc adbd 208c 77bb
00000150: e303 fa3c 2532 e03c 999f 70bc d336 a23d
00000160: 4833 6b3c 1959 063d 7568 dd3c d759 b3bd
00000170: 5f1c 26bd dbb0 54bd fd69 3ebd 060f 873d
00000180: 49a7 c23c a404 c63c 8fba ae3c 1612 203d
00000190: 6254 0fbd 8b3c 46bc a01d 5ebd 268b 87bd
000001a0: 5029 0c3d b1a5 4f3d a5c7 1f3d b2ce 1fbc
000001b0: 8730 d03c 4153 a13d 04ce 7c3d 38b5 81bd
000001c0: 5985 743d 9a4a 1ebc d048 133d 0060 663d
000001d0: 7e5a 14bd c460 d9bb 5731 a9b9 d5d8 ce3d
000001e0: 847b b2bc 8b77 433c a7b0 6b3c e336 0bbd
000001f0: bf46 47bd 44e5 c33d 1eba a93d 6e93 2f3d

prob.weight f4 [2, 128]
0.04169622 -0.09366593 0.11088462 0.11041176 0.1118573 -0.0746495 -0.06732241 -0.07695682
0.05605647 0.06905586 -0.08003197 -0.0028713304 0.056266107 -0.114869125 -0.018895462 -0.08616269
0.028521689 -0.02799133 0.03722179 0.0032390058 0.12174254 0.11640125 0.013872932 0.09270895
-0.09211689 0.03374906 0.063410245 -0.0036028705 0.07915943 0.059008375 -0.12361551 -0.032464642
0.035804182 -0.061584193 0.045725405 0.060367674 -0.016141519 0.09628106 -0.039427698 0.02658749
-0.10764907 0.047702145 0.0012797238 -0.07467463 0.08445218 0.11853645 -0.07303897 -0.10154667
0.06264372 0.031820975 0.05340567 -0.10077233 -0.057069648 -0.05763396 -0.03632495 -0.06479118
-0.019230425 0.04766111 -0.022102147 -0.012004081 0.06057357 0.062158894 -0.084561236 -0.0869067
-0.12169925 -0.10640198 -0.010125818 0.0958641 -0.027488923 0.01629007 -0.03545326 0.016557552
0.040035587 -0.07252024 -0.13754103 -0.00630972 -0.078902155 -0.103165805 -0.010958189 -0.081914864
-0.061604645 0.01217973 -0.033283096 -0.025261544 -0.0950545 0.07987927 -0.057925764 0.1352486
-0.016831657 0.09569865 -0.11446691 0.07311531 0.105910584 0.07055894 -0.011514458 0.051491935
0.13959785 0.033423103 0.11043684 -0.043334052 -0.0014564873 0.06085869 -0.040458128 0.081655405
-0.0018263061 0.053610638 -0.09722469 -0.07380676 -0.0042468216 -0.027406633 -0.058769654 0.07246974
-0.067489155 -0.0098697655 0.08425343 0.0954117 -0.04819203 0.004877591 0.04897922 -0.15422685
0.04258672 0.027407682 -0.010441836 0.008480534 0.0077870004 0.12934043 -0.01846855 -0.08632727
-0.041804608 -0.0015629411 -0.04021867 -0.13134466 -0.042784028 -0.016112607 0.05405443 0.045959078
-0.08871281 -0.030303761 -0.05271478 -0.12911987 -0.00606618 0.0006583586 -0.124694176 0.13144095
0.033723578 0.0253927 -0.018372443 0.01001367 -0.08098356 0.03732027 0.05385911 0.03442749
0.019481322 -0.07199229 -0.054535903 0.14011972 0.020927345 0.07023974 0.07829668 0.13267407
-0.07235921 0.10160351 -0.11243851 -0.02453776 0.0888488 -0.06717057 -0.04509675 -0.058390424
0.119508915 -0.057257123 0.0042210575 -0.039945796 -0.011589102 0.034605037 0.047438372 0.113113806
-0.056431048 0.04496288 0.09612462 0.058427554 0.09651188 0.056970276 -0.0027561085 0.12942754
0.011490494 -0.05554452 -0.003689386 -0.07628221 -0.0023200049 -0.121183984 0.01704435 0.12508006
0.023438472 0.024984635 0.04311881 -0.09816883 0.087305725 -0.046795383 0.035833433 0.021416154
-0.03338975 0.034583066 0.054643344 0.070674874 0.060541518 0.14346567 -0.058327913 -0.004677467
-0.0013840905 0.09073928 -0.036563538 0.0084868595 0.01313118 -0.098388776 0.08691645 0.02137346
-0.015837755 -0.06436706 0.100310385 0.044727944 0.004423957 -0.047173683 0.030203264 0.0415505
0.018218677 -0.006689556 -0.030389145 -0.043674164 -0.02190677 -0.004487974 -0.041132204 -0.020400664
0.09845829 -0.07195715 0.044833098 0.068974935 -0.09155088 -0.09238856 0.060132 -0.023627872
0.106959164 -0.010293735 -0.06225996 0.026209088 0.074789 0.052125406 0.05296538 0.053150307
0.05952493 -0.023286158 -0.0025257305 -0.00031985343 0.14767316 -0.048212543 0.08869498 -0.05906461
00000000: a8c9 2a3d ecd3 bfbd 7a17 e33d 901f e23d
00000010: 7115 e53d d6e1 98bd 55e0 89bd 8a9b 9dbd
00000020: 789b 653d 296d 8d3d cde7 a3bd ee2c 3cbb
00000030: 4a77 663d 8140 ebbd a8ca 9abc 1076 b0bd
00000040: 51a6 e93c 134e e5bc e075 183d 8045 543b
00000050: 2754 f93d c763 ee3d 4b4b 633c 31de bd3d
00000060: c8a7 bcbd 743c 0a3d 3bdd 813d 231e 6cbb
00000070: 571e a23d c4b2 713d 212a fdbd a5f9 04bd
00000080: 68a7 123d b53f 7cbd 904a 3b3d 1844 773d
00000090: 383b 84bc 012f c53d f07e 21bd 02ce d93c
000000a0: 1e77 dcbd 5363 433d 68bc a73a 03ef 98bd
000000b0: 44f5 ac3d 3dc3 f23d 7595 95bd b3f7 cfbd
000000c0: 5a4b 803d b656 023d e7bf 5a3d b961 cebd
000000d0: ddc1 69bd 9611 6cbd 79c9 14bd 3db1 84bd
000000e0: 2089 9dbc 4c38 433d 900f b5bc c4ac 44bc
000000f0: fe1b 783d 539a 7e3d 712e adbd 24fc b1bd
00000100: 753d f9bd 48e9 d9bd c2e6 25bc 6654 c43d
00000110: 7330 e1bc c172 853c 7037 11bd b4a3 873c
00000120: 5bfc 233d 7e85 94bd 8ed7 0cbe c5c1 cebb
00000130: 7497 a1bd 9848 d3bd fa89 33bc fbc2 a7bd
00000140: 2755 7cbd 7e8d 473c db53 08bd 4cf1 cebc
00000150: efab c2bd be97 a33d 9143 6dbd 9c7e 0a3e
00000160: 8be2 89bc a7fd c33d a16d eabd 7bbd 953d
00000170: a6e7 d83d 3581 903d 23a7 3cbc 35e9 523d
00000180: bdf2 0e3e aae6 083d b62c e23d 0c7f 31bd
00000190: 9be7 beba f646 793d 6cb7 25bd f33a a73d
000001a0: aa60 efba d496 5b3d bd1d c7bd 0028 97bd
000001b0: ec28 8bbb e083 e0bc 73b8 70bd 046b 943d
000001c0: c137 8abd ccb4 21bc 108d ac3d 3667 c33d
000001d0: 0265 45bd 33d4 9f3b 6f9e 483d a5ed 1dbe
000001e0: 6a6f 2e3d 1386 e03c 3c14 2bbc f0f1 0a3c
000001f0: 182a ff3b d171 043e 5b4b 97bc 5acc b0bd
00000200: 4f3b 2bbd 9adb ccba 55bc 24bd 377f 06be
00000210: 4e3e 2fbd 96fe 83bc 2e68 5d3d 963f 3c3d
00000220: 10af b5bd 983f f8bc 74eb 57bd 0038 04be
00000230: cec6 c6bb b395 2c3a a95f ffbd 7598 063e
00000240: bc21 0a3d 5a04 d03c ce81 96bc 6010 243c
00000250: b5da a5bd 24dd 183d 5f9b 5c3d d703 0d3d
00000260: 4b97 9f3c b270 93bd 0a61 5fbd 8b7b 0f3e
00000270: d36f ab3c dad9 8f3d 025a a03d b6db 073e
00000280: 1131 94bd 8015 d03d 2946 e6bd 6a03 c9bc
00000290: 5cf6 b53d b990 89bd 5fb7 38bd cc2a 6fbd
000002a0: 17c1 f43d 7286 6abd cc50 8a3b 349e 23bd
000002b0: 38e0 3dbc 03be 0d3d bd4e 423d 36a8 e73d
000002c0: 3e24 67bd ff2a 383d fcdc c43d bb51 6f3d
000002d0: 05a8 c53d aa59 693d d49f 34bb a788 043e
000002e0: a042 3c3c a782 63bd a0c9 71bb d939 9cbd
000002f0: 390b 18bb 4f2f f8bd 98a0 8b3c fd14 003e
00000300: 0a02 c03c 94ac cc3c 599d 303d bd0c c9bd
00000310: 58cd b23d 84ac 3fbd 14c6 123d ee70 af3c
00000320: b1c3 08bd f9a6 0d3d b3d1 5f3d fdbd 903d
00000330: 62fa 773d aae8 123e 40e9 6ebd 7045 99bb
00000340: 5f6a b5ba 84d5 b93d a6c3 15bd 780c 0b3c
00000350: 2924 573c 0e80 c9bd 4001 b23d 6517 af3c
00000360: 2ebe 81bc e1d2 83bd 886f cd3d a634 373d
00000370: d7f6 903b 3139 41bd d66c f73c db30 2a3d
00000380: 563f 953c 1034 dbbb a8f2 f8bc aee3 32bd
00000390: d475 b3bc db0f 93bb 3e7a 28bd 4b1f a7bc
000003a0: 80a4 c93d 455e 93bd e9a2 373d bb42 8d3d
000003b0: 077f bbbd 3736 bdbd f94c 763d 3d8f c1bc
000003c0: 680d db3d 0ea7 28bc 4d04 7fbd 71b4 d63c
000003d0: fa2a 993d 7381 553d 3af2 583d 23b4 593d
000003e0: 6ad0 733d 9dc2 bebc ba86 25bb 00b2 a7b9
000003f0: a237 173e 847a 45bd b7a5 b53d bced 71bd

prob.bias f4 [2]
0.027278153 -0.07239767
00000000: 6f76 df3c 3b45 94bd
